plots/100轮/model_valueH2.pth (torch, 71930 bytes, 5 tensors)

sequential.0.weight f4 [128, 4]
00000000: cd5f 0dc0 3506 913c cc7e 06c0 aba0 853d
00000010: 9ce2 9640 6911 2e3b 2c26 82bf 5009 b7bd
00000020: 19ac a4c0 14cc 78be 641d 03bf 7497 133e
00000030: 39a8 a33f fa90 c23b f63d 9540 e385 c43d
00000040: 7303 ad3e 650b 893d 5b62 853f baf4 4cbe
00000050: 2c63 59bf f5e2 753c a272 0fbf 3c97 9b3e
00000060: a601 c8bf ce7d bd3c 7284 0bbe de25 ef3b
00000070: b7f5 9640 66b3 c8bc b381 f03f 5444 f53a
00000080: 53be f43e 39b4 253e 32d9 843f bcfc 05bd
00000090: 37a8 9fc0 3f94 df3c 84ff 2fc0 a5df 6bbd
000000a0: 3443 1ebf 405f 593c f6bd c2c0 11db 9d3b
000000b0: ed1a e9c0 df5e 08bd 9c7c 6fbf ca93 3cb9
000000c0: c459 cec0 8d43 c3bc cafb 92c0 c78b 2c3e
000000d0: 0807 92bf 5a43 023c 1d3e 8bbe 8412 fb3d
000000e0: 1d4b 1540 0f16 013b 5a72 dc3f 73db a03b
000000f0: 3bae 903f 8150 7e3e 74d7 113e b2c4 ad39
00000100: e99b e7bf 0048 503c 4e87 8fbf ac0a a3bc
00000110: 0a77 eec0 4d2d 59bc ff40 23bf 7c28 c5ba
00000120: 771b 36bf e074 21b9 3c28 053e e0c4 923c
00000130: 4e43 8abf 8021 c6b7 b3e7 f4be 3d72 8cbd
00000140: ca12 d640 05df 8e3b 73a5 5740 1091 d7bb
00000150: 58ae 86bf e35a c7bb b1d3 a4be 43ce 8fbb
00000160: 5554 41bf 3a52 753c 6d16 2640 5eb4 c73e
00000170: 9c45 2340 65cd 85bc 1562 5e40 f0fa b83d
00000180: e35d 4b40 17be 9bbc c419 673f 84d5 883d
00000190: 9b11 873f dd74 083e f72d d83e e7cd aebc
000001a0: fb3d be40 470d b93a 23bb 983f e8a9 96bb
000001b0: d9f0 963f 28f7 7d3e 1e57 4c3f 7d5d 85bd
000001c0: 7ef8 d73e 3dc1 953d 1991 eb3f 60d7 eb3a
000001d0: 424d 55c0 b33c 71bc bdcc eebe 50f4 bb3e
000001e0: e3b8 b3c0 5c62 b7bb 555f 0240 9388 7abe
000001f0: b7b3 e1c0 e3e3 0abd a950 9ebf b90c 61bc
00000200: 4669 46c0 808c 373c 9c21 a93f 089f 7eba
00000210: 8af3 ec40 68ef da3c e200 b4bf 2b10 933b
00000220: f8cd afc0 bc43 a4be 88be e5bf 2fe4 0cbe
00000230: 566d ccbe 7cf8 c23b 3a6a 1e40 ca71 61bc
00000240: fada 3f40 fc66 acbb 3683 4bc0 5ea6 84bd
00000250: 97ac d53f 08c1 1c3e f69a 2c40 8483 9dbb
00000260: 3b90 3f40 e88d ce3d baca b6bf 614c a5bc
00000270: 616f c73f 0a30 423e 3acc 943e d718 d83b
00000280: 075b e2c0 a2e4 79bc 2cc0 c9bf 6d5f abbd
00000290: 9b0d 9b40 1276 b7bc a1c4 2d40 6bef eebc
000002a0: ec8a db3f b98c e8b9 f558 1d40 3194 11be
000002b0: 0599 c4c0 ff2d 883c d176 b4bf ba6d 2c3d
000002c0: 7e22 cd3f 16f9 90bb 8270 cf3d 5b2e f13c
000002d0: 7a42 953f 1fac 823e aa21 9f3f 7883 c63b
000002e0: 802e 9e40 ff58 6b3d 9aa1 8cbf 2271 c33c
000002f0: 41b2 cabf 82b2 ac3b ad09 a640 44c6 0c3a
00000300: 28a7 9abf 4349 28bb c09c 3abf ce69 44bd
00000310: cb0d 343f e0fe 06bb a55b d03f 9734 0fbd
00000320: 6273 d53f 6ee2 9b3d 704c 433f 341c 1b3d
00000330: ffa5 70c0 e8e2 913a fd5a 53c0 f90b 9dbc
00000340: ff88 ce3e 7cec 083b dedb e13e 6802 2ebc
00000350: e4dd 7a3f 0499 403c 9e22 07c0 0f2f 973e
00000360: 2ba3 0cc1 865c 9d3c ff12 d8bf 2b28 203c
00000370: 4f5e 2540 945b 79bc 849b 3dc0 a59c 1cbe
00000380: 80c8 383f 5ea6 17ba 6a5c d5be 7c2c a8bc
00000390: 0ad1 0cc0 bd4d c2bc c4da c53e f592 55be
000003a0: 0358 cbc0 dbe3 a0bd 217f 97c0 3064 7f3e
000003b0: d34b 9e40 e622 b0bb 6126 c1c0 a5fe b53c
000003c0: a17d 6b40 5c31 31bd e585 1d40 21d6 69bb
000003d0: 03ec 02c1 de8a adbc 0048 f23e 6557 fcb9
000003e0: 13d7 d2c0 ad1b 6cbc 0d66 abbf b609 553b
000003f0: 48cb 9540 1f32 82bc 7e79 2f40 2c1a 683c
-2.2089722 0.017703155 -2.101489 0.065247856 4.7151623 0.002656067 -1.0167899 -0.08937323
-5.146008 -0.242966 -0.5121672 0.14413244 1.2785712 0.0059376927 4.6638136 0.09595849
0.33791694 0.066916265 1.0420641 -0.20015231 -0.8491695 0.015007724 -0.5603429 0.3038882
-1.5625503 0.023131277 -0.13624743 0.0072982153 4.7174945 -0.024499606 1.8789581 0.001871238
0.47801456 0.1618203 1.0378783 -0.03271173 -4.989284 0.027292369 -2.7499704 -0.05758633
-0.61821294 0.013267338 -6.0856886 0.0048173745 -7.284537 -0.0332936 -0.93549514 -0.00017984133
-6.4484577 -0.023835922 -4.593236 0.16850196 -1.1408396 0.007950628 -0.27195826 0.12259391
2.3327096 0.0019696986 1.7222397 0.004908973 1.1303171 0.24835397 0.14242345 0.0003314368
-1.8094455 0.012712479 -1.1213167 -0.01990255 -7.452031 -0.013255429 -0.6377105 -0.0015041973
-0.7113566 -0.00015397696 0.1300363 0.017916143 -1.080179 -2.3619039e-05 -0.47833022 -0.06857727
6.6897936 0.004360082 3.3694732 -0.006578572 -1.0521955 -0.0060838326 -0.32192758 -0.004388602
-0.75519305 0.014973218 2.5951188 0.39004797 2.5511236 -0.016333291 3.4747365 0.090322375
3.1776054 -0.01901154 0.9027369 0.0668135 1.0552248 0.1332583 0.42222568 -0.021338416
5.945066 0.0014118337 1.193211 -0.004597891 1.1792251 0.24801314 0.7982043 -0.06511972
0.42181772 0.07312248 1.8403655 0.0017993264 -3.3328404 -0.0147239445 -0.46640578 0.36709833
-5.616319 -0.005596442 2.0370686 -0.24466161 -7.053188 -0.033908736 -1.2368366 -0.0137359435
-3.1001754 0.011202931 1.3213382 -0.00097130286 7.404729 0.026725486 -1.406277 0.0044880114
-5.4938927 -0.32082927 -1.794877 -0.1375892 -0.39927167 0.005950032 2.4752336 -0.01376004
2.9977403 -0.0052613 -3.1798835 -0.064770445 1.6693295 0.1530801 2.696958 -0.0048069376
2.9931781 0.1008566 -1.4280617 -0.020178022 1.5580865 0.18963638 0.29062063 0.006594758
-7.0736117 -0.015252264 -1.5761771 -0.083678104 4.845411 -0.022395167 2.7151263 -0.029166898
1.715177 -0.00044355335 2.4585545 -0.14216687 -6.143679 0.016623495 -1.409876 0.04209683
1.6026151 -0.0044242246 0.10128881 0.02944105 1.1660912 0.25521943 1.2432148 0.0060581528
4.9431763 0.05745792 -1.0986817 0.023857657 -1.5835649 0.005270303 5.188681 0.000537012
-1.2082262 -0.0025678433 -0.7289543 -0.047952466 0.70333546 -0.0020598695 1.6277968 -0.034962263
1.6675837 0.076115474 0.7628851 0.037868693 -3.7601316 0.0011130245 -3.3024285 -0.019170748
0.40338895 0.0020892909 0.44113058 -0.010620691 0.9799483 0.011755232 -2.1114879 0.2952809
-8.789836 0.019209158 -1.6880797 0.009775202 2.5838811 -0.015219588 -2.962617 -0.1529413
0.7218094 -0.00057849835 -0.4167207 -0.020529024 -2.2002587 -0.02371871 0.38643467 -0.20856841
-6.3544936 -0.0785596 -4.7342687 0.24940562 4.946756 -0.005375254 -6.035935 0.02221615
3.6795428 -0.043259963 2.4612973 -0.003568061 -8.18262 -0.021184381 0.47320557 -0.000481303
-6.588754 -0.014410895 -1.3390518 0.003250701 4.6810646 -0.01589304 2.7417903 0.014166396

sequential.0.bias f4 [128]
00000000: 9f3f 39c0 043a 38bf 4744 583f cec2 fbbe
00000010: 348e c640 7feb e940 0bc2 1841 6a5e 6b3f
00000020: 0e18 3d40 4a38 16bf dc12 1c40 8e07 113f
00000030: 608d 5040 6f27 ee40 7296 0dc0 d7ae f13f
00000040: b849 2141 1153 8cbf 0979 0f41 3874 0541
00000050: b379 04c0 e078 2441 682e 1041 c4d7 69bf
00000060: 1334 b240 3500 fa3f 87aa dcbf fed2 4f3f
00000070: dc92 9240 143f 94be d5fa c53f f199 09bf
00000080: fd9c 27c0 4de8 99be 8ab3 903f cb72 c13e
00000090: 869e 46c0 b8a4 1f40 9cef 4fbf 65ea c43f
000000a0: fe14 143f df1b 6dbf 32cb 0240 644b 3740
000000b0: d729 24c0 b56c cf3f 9f9d 943e af4d 1abd
000000c0: bfcb 1d41 a92f 1e40 33c0 0bc1 2ce0 9840
000000d0: 44bd 71c0 4943 92c0 7168 f2be 36d4 073f
000000e0: c05e 26c0 115a 0b40 60f7 26bd 0c81 d13f
000000f0: ea09 9040 2105 1d3f 1eb5 b83f a7a5 70bf
00000100: e794 3540 b5a5 c740 8e29 7e3e 80e8 bd3d
00000110: e226 2dbe df3c 0cc0 1776 0141 1914 8b40
00000120: 5c21 0140 8495 1d40 dd59 1240 bada 363f
00000130: 43f7 a740 4617 763e 6eac 163e cc32 d640
00000140: 3eda 3bc0 4cc0 853c 1225 e440 ad7c a1bf
00000150: 3883 48c0 41d2 45c0 98a3 07bf 08ef 82be
00000160: c5bb 933f 4cd6 9040 5d87 9640 312f 323d
00000170: 3a15 a73e d0d0 1a40 d20c b53f 9556 5cbc
00000180: 68ab b6be 937e b2be da97 41be 06e4 5b3f
00000190: d94c c0be fd47 7940 519c f1bf 16c4 f43e
000001a0: 7da0 ab3f afd9 7240 1ed0 7ac0 0f55 47c0
000001b0: 1758 8a40 e214 6140 1015 28c0 d918 0e3e
000001c0: 8de1 bdbe d6a6 7740 c98a 0f3f ed59 093f
000001d0: 3cbe acbe e02a c13f 731f 2041 8d9a 7c40
000001e0: 9f38 fd3f c0d8 d9bf 9908 973f 4b64 9040
000001f0: ab37 0f41 8a98 b83d 38a9 b33f 1103 c4bf
-2.8945081 -0.71963525 0.8447918 -0.49172062 6.204859 7.309997 9.547374 0.9194094
2.9545932 -0.5867964 2.438651 0.5665215 3.2586288 7.4423137 -2.2123075 1.8881482
10.080498 -1.096285 8.96705 8.340874 -2.069928 10.2795105 9.01133 -0.9134486
5.5688567 1.9531313 -1.7239541 0.81181324 4.580427 -0.28954375 1.5467173 -0.5375052
-2.6189568 -0.30060044 1.1304791 0.37782893 -3.1034255 2.4944286 -0.8122499 1.5384032
0.5784453 -0.9262065 2.043652 2.8639765 -2.5650537 1.620505 0.29026505 -0.03767174
9.862243 2.471659 -8.734424 4.7773647 -3.7771769 -4.5707135 -0.47345307 0.53058183
-2.599533 2.1773722 -0.04076326 1.6367507 4.50121 0.6133595 1.4430273 -0.94002765
2.8372133 6.238978 0.2482054 0.092728615 -0.16909364 -2.1912153 8.091331 4.3462033
2.017661 2.4622507 2.2867348 0.714275 5.2489333 0.24032316 0.14714214 6.693701
-2.9351954 0.016327046 7.129525 -1.2616173 -3.133009 -3.0909579 -0.52984 -0.2557299
1.1541678 4.5261593 4.704024 0.043502036 0.32633382 2.418995 1.4144537 -0.013448377
-0.35677648 -0.34862193 -0.18905583 0.8589481 -0.3755863 3.8950188 -1.8875829 0.47805852
1.3408352 3.7945364 -3.9189525 -3.1145666 4.323253 3.5168996 -2.6262856 0.13876666
-0.37086144 3.8695579 0.56071144 0.5365284 -0.33738887 1.509121 10.007678 3.946933
1.9782904 -1.7019272 1.1799499 4.512243 8.951091 0.090134695 1.4036016 -1.5313436

sequential.2.weight f4 [128, 128]
00000000: 5429 543e 696a 3abd 424a d7bf c9af 713e
00000010: 10d9 403f 7028 5a3e eaab 773f 0fcb 553e
00000020: 1302 ab3e 935c b23d 3f4a ed3d 43fd 0e3f
00000030: d14a abbf 9d8d e93e 5cbb 1cbe 7564 dc3e
00000040: ae88 793f 510e 293f 9aa9 533f 5752 2e3f
00000050: cd5d 5e3d 2b8e 333f 9ec5 6c3f 3934 79bd
00000060: 52f9 0b3f 6456 5c3e e7a1 fabd ace9 a33e
00000070: 431e 283e 84c1 eb3e 6e44 7bbe b38e 7ebf
00000080: 63e7 64bd a1b5 1ebc 589b e4bf 8513 c13d
00000090: bbe7 c5bf d8ce b43e fe56 fc3d 0cb2 ad3e
000000a0: 1d87 03c0 a5f8 1abf 03ae 3d3e d5db ac3b
000000b0: 0273 1bbe 99d6 b03e 13fe 583e 371d 8dbd
000000c0: 8a60 733f 595e 583e 34ef 97bc 4818 ae3c
000000d0: 684a 1abd c863 d8bd 97ac ddbe c50e e2be
000000e0: 2698 c13d 51dd cebe 1596 1fc0 b4c3 313f
000000f0: d7ae 4b40 7e44 8fbf 244d f23e 1549 053d
00000100: ace8 2540 b19e 943e e3aa f5bc d3ba a7bc
00000110: 9f81 01be 5aa5 d8be 36e9 293f a9bd 90be
00000120: a803 893e f5ad 913e 958a bcbb bf0b 0e3e
00000130: 3ca7 a03e 9cae 443d be97 f53d bc9e 803e
00000140: 6efd 34bf 1fbc e0bf 331e 063f 2833 2c3e
00000150: bbab c2bf 1323 4d3d e8f9 013e e9cd 10bd
00000160: bde2 26bf 439b e7bf 3d33 f53f e170 1a3e
00000170: b287 893c 257e 103e ba0b 12bf 82d2 88bd
00000180: e5fb 02c0 3f6c 84bf f4e2 9dbe f70f 393e
00000190: 93a0 983e 313e 5dbf d5aa 1c3d 1666 47be
000001a0: 5992 6c3d 15f7 4540 9c65 113f 3d21 7bbf
000001b0: 8e9c 82be 76fa 703e 10f5 113f 78c0 5dbe
000001c0: 350e 1f3e 97ac 8d3e b6b6 e23d bc05 713e
000001d0: 5638 973d b57d ae3c 520a 423f 0827 1140
000001e0: e526 0d3e 3f6b ebbd e1d8 26bf 3bbd aebe
000001f0: 6a7a 383f de0a 283e eacc 6bbd 373d 853b
00000200: 2ad4 2dbe ae5a 5dbd d114 9ebd 5ea6 53be
00000210: e27a 16bd 048c 07be fbe8 eebc 4828 50bd
00000220: 46ad 4d3d 14a4 0d3d 5c69 13be 661f 243e
00000230: 3bbe 163e 0dc4 7b3c 065c 27be 5c5f ef3d
00000240: a6e3 98bd 618e c23d 1ea6 f1bd 16a7 623d
00000250: 4fad ecbd 9d9d 88bd 9a5e dbbd 9dea a23d
00000260: e2bf 3abe 9b05 f9bd a042 0abe 0832 52bd
00000270: c7e8 01be 5d45 8cbe 4ce9 15bd 0e4b 8f3c
00000280: 2542 3ebe e257 803d defa 153d 3ac6 91bc
00000290: ef4c 303d 417b 6fbd 0f7d 2abd e3a1 b53b
000002a0: d28f f53d 0f6b 4b3b 5242 b1bd 8e5b 003d
000002b0: 5fbb 96bd 9791 15be d726 06bd de72 403d
000002c0: 49c1 12be b135 263d 6382 143d bc19 82bd
000002d0: 15b3 6ebd a0a5 a33d d7df 94bd a21a 35bd
000002e0: d8dd eabd 906a afbd 75b6 9bbd acb8 9bbb
000002f0: aaba 12be 91b0 a0bc 31f0 033d 11e5 72bd
00000300: 6c6b 283d 673f 01bd c282 8e3d d0fb 8abd
00000310: 53a9 20be a194 043d 562d 193d 2464 5f3c
00000320: 73cf 9d3d 7639 06be 0fd8 d13d 924b 72bd
00000330: f9e9 0fbe 2286 5abd 3223 90bd 5f2b 593a
00000340: 9f28 a73d e17e a63d f2be 29be 56f9 4fbd
00000350: b35c f8bc e30e 96bd 2fcd c13d 5da6 b6bd
00000360: ef3d 2dbe 73cf a1bc dbf6 39bd 6f28 943d
00000370: 238f d3bd 6f87 92bd 827e 79bd 9000 50bd
00000380: d21a b63d d1ba 90bd eb74 29be 37d2 ae3d
00000390: f651 d6ba 8cb2 f83c b614 efbd ed6e 33be
000003a0: 4c7b de3d 62db 1dbe 1f29 0cbe aad9 283d
000003b0: 6a53 52bc 7b82 293e d40a 26be 79e7 46bc
000003c0: c953 913d 928f 07be c649 923d fef1 e7bd
000003d0: 29e3 b1bd 12bf 12bd fda3 a53d 35ce 913d
000003e0: f99d 983d 7833 b4bd 4eef 76bd 570d aabc
000003f0: e37b ab3d cfc8 d03d e4d6 b0bd 165e d5bd
0.2071889 -0.045511637 -1.6819537 0.23602213 0.7533121 0.21304488 0.96746695 0.20878242
0.3340002 0.087090634 0.11586427 0.55855197 -1.3382207 0.45615855 -0.15305847 0.43045393
0.9747418 0.6603747 0.82680666 0.6809439 0.054288674 0.70138806 0.9248904 -0.06084082
0.5467731 0.2151733 -0.12237912 0.32014215 0.16417794 0.46046078 -0.24537823 -0.9943649
-0.05588473 -0.009686858 -1.7859907 0.09427551 -1.5461344 0.3531406 0.1232128 0.339249
-2.0551217 -0.6053565 0.18523411 0.0052752295 -0.15180591 0.34538725 0.21190672 -0.06890338
0.9506918 0.21129741 -0.018546678 0.021251813 -0.037668616 -0.10565907 -0.43295738 -0.44151893
0.09452848 -0.40403226 -2.4935353 0.69439244 3.1825464 -1.1192777 0.4732448 0.0325404
2.5923262 0.29027322 -0.029988712 -0.020474827 -0.12647103 -0.42313653 0.66371477 -0.282697
0.26760602 0.2845303 -0.005753825 0.13871668 0.3137759 0.048018083 0.11991833 0.25121105
-0.70699203 -1.755741 0.5238983 0.1681639 -1.5208658 0.050082278 0.12692988 -0.03535262
-0.65189725 -1.8094257 1.9156262 0.15082122 0.016788337 0.1411062 -0.57049143 -0.06680776
-2.0466244 -1.0345534 -0.30837214 0.18072496 0.29810008 -0.8642302 0.038248856 -0.19472536
0.057756756 3.0932057 0.5679567 -0.9809759 -0.25510067 0.23533043 0.5701456 -0.21655452
0.15532763 0.27670738 0.110700056 0.23537344 0.07383792 0.021300176 0.75797 2.2680073
0.13784368 -0.11495065 -0.6517468 -0.34128746 0.7206179 0.16410396 -0.05756847 0.0040661353
-0.16975465 -0.054041557 -0.07718814 -0.20668933 -0.036738284 -0.13237005 -0.029163828 -0.050819665
0.050214075 0.034580305 -0.1439566 0.16027603 0.14721005 0.015366566 -0.16343698 0.1168811
-0.074652955 0.09499813 -0.117992625 0.055335127 -0.115564935 -0.06670687 -0.10711403 0.07954905
-0.1823726 -0.12159272 -0.13501978 -0.051317245 -0.12686454 -0.2739667 -0.036599442 0.017491844
-0.1857992 0.06266762 0.0366162 -0.017794717 0.04304212 -0.058467153 -0.04162317 0.00554298
0.11990322 0.0031039154 -0.08655228 0.031337313 -0.07359957 -0.1460632 -0.032751884 0.046984546
-0.14331545 0.040578548 0.03625716 -0.06352565 -0.058276255 0.07990575 -0.072692566 -0.044214852
-0.114680946 -0.08565247 -0.0760316 -0.004752239 -0.14329019 -0.019615443 0.032211486 -0.059300486
0.04111807 -0.031554606 0.06958534 -0.06786311 -0.15689592 0.032368306 0.03739675 0.013634715
0.077055834 -0.13107857 0.10246288 -0.0591541 -0.14054097 -0.053350575 -0.07037963 0.0008284356
0.08162045 0.08129669 -0.16576746 -0.050774895 -0.03031764 -0.07327058 0.09462964 -0.0891845
-0.16918157 -0.01975224 -0.045401435 0.072342746 -0.103300355 -0.07154738 -0.060911663 -0.050781786
0.08891834 -0.070668824 -0.16548507 0.08536189 -0.001635133 0.030358575 -0.11673872 -0.17522784
0.10863361 -0.15415719 -0.13687561 0.041223206 -0.01283727 0.1655368 -0.16215068 -0.012140148
0.07096059 -0.13238361 0.071429774 -0.11325453 -0.086859055 -0.03582675 0.08087919 0.07119409
0.07452006 -0.087988794 -0.060286812 -0.020758314 0.08373239 0.10194551 -0.08634737 -0.10418336

sequential.2.bias f4 [128]
00000000: 8b6c 1c40 98ef 1bbe dfa1 de3f dee2 74bd
00000010: 6a98 5340 6ff8 f7be d6a0 1140 d4e8 6abd
00000020: 7ead 4f40 04e0 d73d d9a4 e03f 0fcb 463f
00000030: ae98 f33f 2ae2 013f 29a0 f33d 7f7d 4bbd
00000040: 4278 57bf d4e3 8a3f 200f dcbd f3fc b33d
00000050: fda0 f13f 591c 02bd 0b67 1e3f c0e4 513e
00000060: ea3d 6cbc 896b 1e3f b8df 66be 29fc b5bb
00000070: 3b93 5540 c159 1c40 fcd9 dabd 5a86 c93e
00000080: 7c64 ab3d 0bca f93f fe80 ec3f 2b6a 613f
00000090: 11d4 eb3f bb9c 08c0 1df3 653f 7ce7 0b40
000000a0: 7500 84bd ad67 733f aa0e 1d3f 32c2 243e
000000b0: c786 e53f c9fb 6c3d af20 b83f 9aba 5340
000000c0: fc20 7ebb e186 1040 8cf9 5140 bfcb b03f
000000d0: d597 1d3e e4dc 1440 1e7f aabe 74b9 2440
000000e0: 851c 02bd 3c40 7abc 97e4 713e e488 5440
000000f0: b706 0340 af9b 78c0 6f6c dd3f 1adc 5640
00000100: a6d0 273e 2931 1c3c 088f 4d40 bb1a 02bd
00000110: cf30 84bc 4ccc 233f ac62 1040 891f ba3d
00000120: 02b9 4b40 2543 ba3f dfae aebd a3ef e53f
00000130: 9eec 363c 58f2 123e e82a 0b3d d511 5440
00000140: 971e 883e 2198 2640 348c 19c0 68fd a83f
00000150: 4965 abbd fd64 c93d cd40 4d3f 3448 083f
00000160: 2f70 7240 888b 5440 49f0 d53f 8a78 5640
00000170: 945d eabe b733 f13d 6bd5 373f b9ef 5540
00000180: 4f7d 1140 0499 5740 c4ec 5540 d0e2 653e
00000190: 4321 5040 3f8f 1640 14b7 813d 7716 02c0
000001a0: 9b01 5d3e 683e 55be 98bb 5440 4838 de3e
000001b0: fb1a afbc 6d46 2d3e e835 87be 9f11 f43f
000001c0: 6ac2 1740 1379 f43f bda5 5440 76fd d3bd
000001d0: a1b4 bdbc f562 1040 ee9d 5040 71c0 1c40
000001e0: 524c 533d a17b 1b40 0e23 2140 acb8 203b
000001f0: 004c 26bf 08b4 d93f e56a 963f 48f8 a33f
2.444125 -0.15228117 1.7393149 -0.05978667 3.3061776 -0.48431727 2.2754416 -0.05735095
3.2449641 0.105407745 1.7550308 0.7765359 1.9030969 0.50735724 0.118957825 -0.04968023
-0.84167874 1.0850778 -0.10745072 0.087884806 1.8877255 -0.031765316 0.6187598 0.20497417
-0.014419058 0.61882836 -0.2254628 -0.0055537415 3.3371112 2.4429781 -0.106861085 0.39360315
0.08368775 1.9514784 1.8476865 0.88052624 1.8424093 -2.134566 0.89824086 2.1860037
-0.064454 0.9508007 0.613505 0.16089705 1.7931756 0.05785731 1.4384974 3.3082643
-0.0038776984 2.2582324 3.2808561 1.3812178 0.1538995 2.325982 -0.33300108 2.5738192
-0.03176548 -0.015274104 0.23622356 3.3208551 2.0472848 -3.8845022 1.7298716 3.357184
0.16388187 0.009533205 3.211855 -0.031763773 -0.016136555 0.6398361 2.2560225 0.09088046
3.183167 1.4551741 -0.08529448 1.7963756 0.011164812 0.1435026 0.033976465 3.3135884
0.26585838 2.6030352 -2.3991823 1.3202333 -0.08368928 0.09833715 0.80177003 0.53235173
3.7880971 3.3210163 1.6713954 3.3511071 -0.4577452 0.11777442 0.71810025 3.3427565
2.2732732 3.3687143 3.342576 0.22449803 3.2520301 2.352493 0.063337475 -2.0326211
0.21582644 -0.20824587 3.3239498 0.43402314 -0.02137517 0.16921397 -0.26408315 1.9067878
2.371241 1.9099449 3.3226159 -0.10351078 -0.02315742 2.2560399 3.2596393 2.4492457
0.051586457 2.4294207 2.5177646 0.0024524136 -0.64959717 1.7008066 1.1751372 1.2810144

sequential.4.weight f4 [1, 128]
00000000: 52d9 e6be d28d 78bc 55a8 6d3f 49c8 6e3d
00000010: b725 50be 5d9a a13a ed15 5cbe f6a5 af3d
00000020: 53a6 13be 328a d1bf e08a f0bd bd69 123f
00000030: 5915 a6ba ca22 093f 6888 f6bc b339 c5bd
00000040: aa68 5840 bba2 d2be c183 8ebc 0bcc a1b9
00000050: d61f 96be f864 32be 5068 ef3e da4e 4a3d
00000060: 5843 513d 6501 653f 18f7 c2bc 6413 78bb
00000070: c9b2 40bf 43f7 afbe 67bf 873c 7bbb 0d3f
00000080: 887f 653e afff 8cbe 99b3 d8be 1cb1 bbbe
00000090: f14b 1ebf 7f86 2d3f 3e12 a3bf e94c 4cbe
000000a0: f43a 913d c3bb 4abf 9e95 2a3f cfa4 b1bb
000000b0: 4d3b 5ebf e4f3 f93d c909 7f3f 363d 90be
000000c0: d545 183f 241c 90bd 1a83 1dbf 4484 543f
000000d0: 7585 fe3d 3ba5 0440 ad76 173f cd7c 1040
000000e0: f41c d63d 8ba5 363c e381 223f 80ec 77be
000000f0: 69d7 06bf 2f68 943f c706 77be 777c a9be
00000100: 5d11 593b 03eb 8abb 48a7 d7bd 7579 11be
00000110: 7e7d 263f bb98 9e3e ca85 58be 9e94 313c
00000120: fa21 dfbd 3663 c9be ac9f d1bb 6739 e6be
00000130: 8f93 4bbe 09d4 933d 6220 e43c 0f8f 57be
00000140: 3333 5dbf ff1d 1e40 28fd 283f ec0a b0be
00000150: 33e9 943d 0614 7ebc 31d0 64bf e84b 633f
00000160: d968 cbbe c6bb 73be 4009 14be 6ace aebe
00000170: 1701 3f40 315a bb3e 510e 2a3f 109b aebe
00000180: 6c96 82be 3409 b7be a8d0 87be a2b2 e03e
00000190: 9d22 eebe fdca e7bd 6488 fbbf c206 093f
000001a0: 595a b0ba 7a5e e5bf fe2d 57be f0e5 923f
000001b0: fca0 8f3c 0f71 0f3e 44bd 89bc 106c 37bf
000001c0: 83b0 d0be 6ca1 45bf 0040 abbe 8ac5 34be
000001d0: 30d1 923d 1b26 b7bc 1e5e 2dbe 8229 84be
000001e0: 5ee2 863f fdc3 bdbe 45bb 52bf c0e5 0e3b
000001f0: c948 4440 233d ebbe 6767 50bf 072f 4dbe
-0.45087677 -0.015170531 0.9283498 0.058296476 -0.20326887 0.0012329329 -0.21492739 0.085765764
-0.14418916 -1.6370299 -0.11745238 0.57192594 -0.0012671157 0.5356871 -0.03009434 -0.09630146
3.3813882 -0.41139778 -0.01739681 -0.00030860337 -0.29321164 -0.17421329 0.46759272 0.049391605
0.051089615 0.8945525 -0.023799464 -0.0037853355 -0.75272804 -0.34368333 0.01657076 0.553642
0.2241193 -0.2753882 -0.42324522 -0.3665856 -0.6183463 0.6778335 -1.2739942 -0.19951214
0.070913225 -0.7919275 0.6663455 -0.005421258 -0.86809236 0.122047216 0.99624306 -0.281717
0.59481555 -0.070366174 -0.6152817 0.8301432 0.12427799 2.0725849 0.5916546 2.2576172
0.10454741 0.011147867 0.6347944 -0.24211311 -0.5267244 1.1594294 -0.24123679 -0.33102772
0.0033121922 -0.0042394414 -0.10529953 -0.14206488 0.65035236 0.309759 -0.21144786 0.010838656
-0.108951524 -0.39333504 -0.006397208 -0.4496567 -0.19880508 0.07218177 0.027847473 -0.21050666
-0.8640625 2.4705808 0.66011286 -0.34383333 0.07271042 -0.015507704 -0.89380175 0.887877
-0.3972843 -0.23802099 -0.14456654 -0.34141856 2.9844415 0.36592248 0.66428095 -0.34102678
-0.25505388 -0.3574921 -0.2652638 0.43886286 -0.46510783 -0.11318014 -1.9650998 0.53525937
-0.001345466 -1.7919457 -0.21013638 1.1476421 0.017532818 0.14007972 -0.016813882 -0.71649265
-0.40759668 -0.77199435 -0.33447266 -0.1765348 0.071688056 -0.022357037 -0.16930434 -0.25812918
1.0537832 -0.3706359 -0.82317 0.0021804422 3.0669425 -0.4594508 -0.8140778 -0.20037471
