plots/100轮/model_valueH1.pth (torch, 71930 bytes, 5 tensors)

sequential.0.weight f4 [128, 4]
00000000: 5422 8cc0 7ad6 41ba cd0c b4be 296c 1a3c
00000010: 6fdf bdc0 4808 51bc d490 cfbf a806 47ba
00000020: a36b a33d 8f34 43b9 6132 18be f294 b8bc
00000030: 8788 d9c0 39da 70bc 5aae 55c0 b104 053d
00000040: 3619 8c40 9db3 a9bc 1fc3 4dbf 2eb8 573e
00000050: 31fa 86c0 e8aa 8c3c d6b0 15c0 b763 c5bb
00000060: 6231 ad3f 80f8 4fbc 6b7d 05be 0753 e5bc
00000070: 6caa 773f 4931 303e a129 d43f d464 d2bc
00000080: c13f bec0 60d2 cc3b 47f4 80bf 349c c03a
00000090: 88b8 1f40 b1a9 43bc 058f 3f3f fd90 013d
000000a0: c582 93c0 724f 40bc ee2c 8640 fee5 54bd
000000b0: c17d ab3f 7f6b 76ba 4611 c0c0 b5de aabd
000000c0: cbde c3c0 92ea 163c d101 90bf 97af 733c
000000d0: 63c2 9bbe 4e8c 79bb 9a7c 1cbf fc09 1c3d
000000e0: 1e50 0ec1 54bd 4c3c d3a0 5abe b5ef b2bb
000000f0: ae17 4340 4ce0 233d 86ed 4fc0 9879 473c
00000100: b863 b53f 6d83 8c3c b83f a43e 1389 2d3d
00000110: 8096 b540 1119 4fbb 03ce 0040 e867 603e
00000120: b559 98bf a7a5 043b 5935 e9be 3f48 3e3d
00000130: e5fe c6c0 4d71 463c 73e1 ebbf 3f08 9e3b
00000140: d2f5 8c3f 1c4f 0e3e 01bb a6be 7b38 89be
00000150: fb92 aa3f d5db c03c d15b 513f 0065 8a3d
00000160: 75e9 81c0 c8ba 353d e1af 1340 3a02 153f
00000170: ab42 b040 ef0a 8e3b 7dc9 b33f 2688 71bb
00000180: 4f37 bdbe 0cb0 8639 c186 35c0 3fb6 5a3c
00000190: 4864 0d40 1838 b23c 5ade 3dc0 e099 b83b
000001a0: 4933 71c0 bd5c febd dfb2 4cc0 af43 8b3e
000001b0: 32a7 df40 a0d8 8339 1893 253f f32c 243a
000001c0: 886e d9be c49b fb3d 8141 7c3f e218 9d3c
000001d0: 456e ab3f e624 273e 9426 b73e 4d73 12bd
000001e0: 4d48 823f 47af 8fba d982 66be 369d 823d
000001f0: bbcd 1f3f cdd4 cc3d 7a67 38bf d656 d93d
00000200: b953 8d40 1e7a b1bd 1171 bb3f d4b2 e138
00000210: 8948 1cc0 40d4 98bc 0595 65bf db5c d03c
00000220: 4a6a 8e40 aaa8 6e3b 9fc1 4ac0 9a46 26bd
00000230: 8c2e acc0 c7ae 8fbe a540 0cbf 2d26 17be
00000240: 82bc 223f 4ce8 55bc f191 8e3e aa2d 31bb
00000250: 9bdb 9abe 04c9 0e3e 8861 a13f 3761 f23b
00000260: 601a 4640 c92b 3d3b f42c e7bf aee6 8bbe
00000270: f278 fe3f 2fad 83bc 82c5 9a3f 04fe 473d
00000280: fd57 1a40 e8ba bebc 237e 313f 76de a93c
00000290: 003f 3abe 37ca 633b 0d9c a83e 220c 873d
000002a0: eb34 4dc0 7f71 b6bc 396b a7c0 65e6 96be
000002b0: 7f45 05c1 acd5 5fbd 2fc5 233f 6716 373c
000002c0: c6be 80bf a7af 9c3c 8b4d e0be 28a6 8b3d
000002d0: d16d c7c0 c4b5 bdbc c945 a8bf 7e03 96bd
000002e0: d785 4c3f 7882 9b3d 9a92 b13f 86c5 ac3c
000002f0: 694b 0c3f b41a 15ba 4ec9 4abf e864 7a3b
00000300: 61a2 f9c0 c097 bebc b730 963c e63d 58bb
00000310: e0ca 6640 17c2 2dbd ea6a 1b40 62e4 aabc
00000320: e13f be3e 5226 f43d c53a bcbe f6e1 b53d
00000330: 52a3 c1c0 a6d0 e13d ad35 30c0 8317 973d
00000340: daf5 aa40 38b6 463c 1143 dd3f e58c dd3b
00000350: 5fae 913f 2f60 8f3e da4c 2a3f 3325 273e
00000360: 1e91 85c0 6ef2 223c f15e d33f d5b4 68bd
00000370: c4ca 12bf f04d e03c f190 34bf 4503 d43d
00000380: e2ab dc3c 51de 06b9 165d 4ebf 5050 88bb
00000390: 4511 c03f 183f 3fbb 7ec9 33c0 716e 893d
000003a0: 70db b73f e405 a73d 47fa da3f 8b22 d83c
000003b0: ad87 bb3f c997 583c 6ca9 f7be 0110 fa3c
000003c0: 2ddc d63e 54c1 603e 0adf c53c 53c6 04be
000003d0: aaa8 2040 2c57 b83c a625 14bf 116c 473e
000003e0: 3021 9e40 6519 623c fe5c 5abe 4b7a 8cbc
000003f0: 96cc 2c3f e7e4 843d a93a 483f 3fcc 103e
-4.3791904 -0.0007394325 -0.35166016 0.009425201 -5.9335246 -0.012758322 -1.6216073 -0.00075922394
0.079795144 -0.00018616229 -0.14862968 -0.02253196 -6.797916 -0.014700466 -3.3387666 0.032475177
4.3780775 -0.02071553 -0.80375856 0.21066353 -4.218041 0.017171338 -2.3389182 -0.00602385
1.3530695 -0.012693524 -0.13036124 -0.027993692 0.9674442 0.17206301 1.6575204 -0.025682844
-5.9452825 0.0062506646 -1.0074548 0.001469499 2.495638 -0.011942313 0.74827605 0.031632412
-4.609713 -0.011737691 4.1929846 -0.05197715 1.3397752 -0.00094001734 -6.0021086 -0.08343259
-6.1209464 0.009211199 -1.1250554 0.014873407 -0.30421743 -0.0038078013 -0.61127627 0.03809546
-8.89456 0.012496311 -0.21350412 -0.005460704 3.0483203 0.040008828 -3.2488723 0.012174986
1.4171057 0.017152512 0.32079864 0.042367052 5.6746216 -0.0031600634 2.012574 0.21914637
-1.1902376 0.0020240338 -0.45548514 0.046455618 -6.218615 0.012111974 -1.8428177 0.0048227604
1.1012518 0.13897365 -0.32564548 -0.26800904 1.3326105 0.023542324 0.81780726 0.067575455
-4.059748 0.04436758 2.3076098 0.5820652 5.508138 0.0043347995 1.4045864 -0.0036854832
-0.3695626 0.00025689637 -2.8363497 0.013349115 2.2092457 0.021755263 -2.9666963 0.0056335777
-3.7687552 -0.12420032 -3.1984174 0.27200076 6.9891596 0.00025147665 0.6467757 0.00062628015
-0.4246714 0.12285569 0.9853745 0.019176904 1.3393027 0.1632267 0.3577162 -0.03575449
1.0178314 -0.0010962271 -0.22510852 0.06377642 0.62423295 0.10001526 -0.7203289 0.10612266
4.41647 -0.0866587 1.464388 0.000107621454 -2.4419272 -0.018655896 -0.8968051 0.025434902
4.4504747 0.003641645 -3.1680677 -0.040594675 -5.380682 -0.28063032 -0.5478614 -0.14760657
0.6356889 -0.013055872 0.2784572 -0.0027035275 -0.3024567 0.13943869 1.2607889 0.007396843
3.0953598 0.002886521 -1.8060594 -0.27324432 1.988066 -0.016073791 1.2091525 0.048826233
2.4116204 -0.023282483 0.69333094 0.02073596 -0.18188095 0.003475798 0.32931557 0.06594111
-3.2063549 -0.022270916 -5.2318387 -0.29472652 -8.329467 -0.054647133 0.63972753 0.011174775
-1.005822 0.019126726 -0.4380916 0.06818801 -6.2321553 -0.023157962 -1.3146297 -0.07324885
0.79891723 0.07593244 1.3872864 0.02109028 0.54802567 -0.0005687878 -0.79213417 0.0038207117
-7.8010716 -0.02326572 0.018333776 -0.0032995879 3.6061325 -0.042421427 2.4284005 -0.020860855
0.3715811 0.119213715 -0.36763588 0.08880989 -6.0511866 0.11026125 -2.753276 0.073775314
5.342511 0.012128405 1.7286092 0.0067611807 1.1381339 0.2800307 0.66523516 0.16322784
-4.1739645 0.009945495 1.6513349 -0.05681308 -0.57340646 0.027380913 -0.70533663 0.10352186
0.026937429 -0.00012862055 -0.8061079 -0.0041599646 1.500527 -0.0029181894 -2.809173 0.06710518
1.4363842 0.081554204 1.7107629 0.026383659 1.465078 0.013219782 -0.48371446 0.03052521
0.41964856 0.21948749 0.024154205 -0.1296628 2.5102944 0.022502504 -0.57869947 0.19474818
4.941551 0.0138 -0.21324536 -0.017148158 0.67499673 0.06488972 0.7821451 0.14140414

sequential.0.bias f4 [128]
00000000: 3a91 9c40 30a3 b73f d4e9 aabf 2d5a b8bd
00000010: c43c 3cc0 88f8 cac0 03a3 0641 4428 d43f
00000020: 6848 9840 fd23 eb3f a0d9 963f a744 06c0
00000030: b363 8d40 96c0 2141 991a 55bf 854c 88bf
00000040: d81f 2940 8bbb da3e 38fd dec0 d6e3 bf3e
00000050: 09b8 233e 3476 2040 eabc 5bc0 c583 14c0
00000060: 8e92 70bf d1ad eb3f 984a c63f e25d 22bf
00000070: 2327 0740 a477 e13d edc9 1ac0 f678 4a3f
00000080: 0f50 0c40 1b6c 4f3f fad9 4e40 4e2d b33f
00000090: 7c59 1241 7f46 5e40 56ce 0f40 8efa 72bf
000000a0: b35b 75c0 7f78 a340 20d5 13c0 9bd6 a8be
000000b0: 4fa4 fd40 61d6 d93f 3277 8340 7e94 3cc0
000000c0: 2f69 ed3e e1c1 8b40 5500 aebd bbca 12bf
000000d0: aada 01c0 b4c6 823f 7774 75c0 08c1 7940
000000e0: d5fd 2cbf 662a 273f daf9 11c1 17d7 cb3f
000000f0: 16ff ad3f 1d83 d7c0 b74a 14bf f569 4640
00000100: e838 0f41 063f 053f 1d44 3c40 3ff3 3640
00000110: 99c5 47c0 292f 8d40 b349 8dc0 ae21 57bf
00000120: 4fa0 4140 91c6 6340 b43e 4940 a7fa 1740
00000130: a518 b03f 5c30 9e40 3ab3 0e40 b92e 52c0
00000140: 4c91 8e3f c5bd 9b40 3a93 7f3f 3aba 0cbf
00000150: 5c4c 57bf 966b 45bf dbfb b23e 4715 fe3e
00000160: 981c 87bf e503 f040 438a 6e3f f22d 423e
00000170: 1e2e 8a3f e041 d3bf 9b96 9840 c6f6 11c1
00000180: 1fc5 7340 7a27 2a3f 7be4 7d40 43cf abbf
00000190: 6066 f6be b89a 3941 8b4d 0740 81f9 9d3f
000001a0: 89f8 2a40 0181 a43f 244b 27c0 53c6 98bf
000001b0: cd27 c83f 032e 9040 1a92 6dc0 ab70 1540
000001c0: 0f31 0640 a0ab eb3e 8f3d 2440 fcb7 5b3f
000001d0: cb42 523e 8b0f d2bd 61e6 1541 9f42 7cc0
000001e0: b1a3 b33f e010 593f 78e5 2fc0 31f0 0a40
000001f0: 817e ff40 9f66 0dbe 0741 b83f 8b7a 2d40
4.892728 1.4346676 -1.3352609 -0.09001575 -2.9412088 -6.3428383 8.414798 1.6574788
4.7588387 1.8370358 1.1785164 -2.0979402 4.4184203 10.109518 -0.8324371 -1.0648352
2.6425686 0.4272121 -6.9684105 0.37478513 0.15988173 2.5072145 -3.4334054 -2.3205426
-0.93973625 1.841242 1.5491514 -0.63424504 2.1117637 0.11009148 -2.4185746 0.7909082
2.1923864 0.8102433 3.2320542 1.3998201 9.146847 3.4730527 2.2469687 -0.94913566
-3.8337219 5.108459 -2.309883 -0.3297623 7.926307 1.7018548 4.1083 -2.9465632
0.4636931 4.367417 -0.08496157 -0.5734059 -2.0289712 1.0216889 -3.8352334 3.9024067
-0.67574817 0.6529907 -9.123499 1.5925015 1.3593471 -6.734755 -0.57926506 3.100217
8.951393 0.5204929 2.9416573 2.8585966 -3.1214354 4.412007 -4.4152465 -0.84035766
3.0254095 3.5589945 3.144452 2.3746736 1.3757521 4.9434032 2.2296891 -3.2841017
1.1138091 4.866915 0.99834025 -0.5497166 -0.8410089 -0.7711729 0.34957775 0.49625608
-1.0555601 7.5004754 0.9317972 0.18962839 1.0795324 -1.6504478 4.7683845 -9.122747
3.8089063 0.66466486 3.9670703 -1.3422626 -0.4812498 11.600273 2.1141078 1.2341768
2.6714194 1.2851869 -2.6139612 -1.1935524 1.5637146 4.5056167 -3.7120423 2.3350017
2.0967443 0.46029377 2.5662572 0.8582761 0.20533292 -0.10256871 9.368745 -3.9415662
1.403433 0.84791374 -2.7483807 2.1709101 7.9841924 -0.13808678 1.4394845 2.7106044

sequential.2.weight f4 [128, 128]
00000000: 3249 84bf 8de9 cdbe 4b0e 923e 5b31 aabd
00000010: d6b5 553d 4082 173e fb07 593c 6d47 6a3d
00000020: 77c6 bdbf 8e67 30bf 75cb 92bd a3ea 483e
00000030: 1130 98bf 0de4 bbbd 5c4c 00be 84a2 983d
00000040: beb1 d1be 59d7 3e3e aa95 e0bb 6f92 b7bd
00000050: a53f 2cbe 59ce c2bf e09d a5be d515 2ebe
00000060: f8f1 d7be 2c4c 42bf e2e3 7e3c 9e69 0abe
00000070: 9b68 e2be 3ed7 2abf e060 a0bd 2e0b a9be
00000080: 4949 313e c8dc 09be 8e9a db3c 0335 cdbd
00000090: 93c6 bcbe 9924 33bf 1d81 2ebe 17bf ccbe
000000a0: 4c04 14be 8efe 71be feae b2be 5204 93be
000000b0: bf17 50bf a91a 47be f456 d0bf b387 a43d
000000c0: 5f76 36be 3417 863e 3f39 1cbe a99b f7bb
000000d0: 8792 cdbe e2b7 9cbe 935a b5bd 62d6 f5be
000000e0: d38b e3be 306d 9abd 57e5 cebe 48fc f7be
000000f0: 80e2 d73d 3932 22bd 614a 03bc c36b 123d
00000100: 5cca d1bd 6d36 0fbf d948 773e 41c8 a3be
00000110: 0a83 eabe de9d 29bf b6a3 babd fd9c 85be
00000120: 44c6 aabe 1025 25bf 7c34 08bf 7295 32bd
00000130: b8eb 93bf 5693 0abf 594f adbd f544 b23e
00000140: c968 21be 6274 9c3d 83f2 bf3d ef3f 59bc
00000150: 97e0 863d 8b00 4d3b 1064 15be 6aed d6bd
00000160: 939b 233d 1e88 8a3e 34d2 18be 0b8c 87be
00000170: 4fe3 a1be d449 253c d786 ffbe c7dd 81be
00000180: 794f 79bf 2c9f a83c ba45 b43d f99d 03bf
00000190: 8928 f5bd a5db aabd 1ddd a6bf 98da 0d3e
000001a0: 6d94 05bf f0b6 cebd 6f09 183d 6925 9e3e
000001b0: a7a8 8f3e b34b 9dbf 5453 b1bc 2984 84bf
000001c0: 340c 77be a3b3 14bf 0622 6bbf b647 95bf
000001d0: 5406 c6bd 7bae 98be 3867 b6be 0093 89be
000001e0: 4819 72be 4974 edbd b53e ecbe 962a f5bd
000001f0: 6529 e83e f803 c7bd 8e56 3bbf c6a4 70bf
00000200: d153 1f3f aa77 e7bd bf54 86bd 2d58 0e3e
00000210: 1d7e 143f 32e1 d0c0 51b1 3c3e 00e4 a3bf
00000220: d6c8 403f 96ea 10c0 e91b 8d3d 195d 0d3e
00000230: 4b10 923e 0c1b 403f cc7e 8abe 42a6 f2be
00000240: f95c cfbf aa9b debe 80d2 a7be ae43 82be
00000250: b044 82bf 0dc5 9bbd a399 983d 9d74 bebb
00000260: 5a04 8f3c d833 5cbe cf14 c33e 3db9 dfbc
00000270: 1b81 1abf fac8 b3bf a071 87be d7b7 a1be
00000280: 2fb6 f3be a334 533e dc48 a83d 022c ab3e
00000290: 23c5 073f 40ac bfbe 17b9 f43e 76e5 17bf
000002a0: 23c6 fa3e 7f21 73be ace9 353d 20fb debc
000002b0: d215 0e3f a654 f4bd 4b3b 15bf 0660 733f
000002c0: 0336 d2bd 9a1b 93be bba4 52be 32e1 003f
000002d0: eb26 febf eabb 25bd 77a8 4c3c a39b 783f
000002e0: 5fe1 15bf 1ab5 a0bd e74a a7bf 8b50 bbbf
000002f0: 5485 1abf f515 5cbf 41b3 813d d963 ccbf
00000300: 69c3 263f d226 103e d936 813d 3fff c6be
00000310: 4dcd e13e 1ab7 d23e 19cf 9e3f 58dc 18bc
00000320: 8353 e7bd 3ed9 c23d 8399 57bc 9e83 2ebe
00000330: 95d3 36c0 8156 c23e 1f18 87be 2202 74be
00000340: 5e04 b1bd ac16 a0bd 14cc e73e b673 5b3e
00000350: ad0c e7be 7b96 1b3f 7c79 35be aef4 de3d
00000360: f647 8f3e 9f04 663f 1a62 c3be 7ad2 df3e
00000370: 02a1 48bc 0f05 7cbf d80c c13e 9973 2d3d
00000380: 6d15 ccbe bc6b ac3e ca66 38be 0f44 f53c
00000390: 9073 a03d 969d 763f d259 63c0 6a8c ebbe
000003a0: 9eea 8abe d322 803d d197 643e fecc 8b3e
000003b0: 863a 793e 0a47 1ebf f6e4 543e 6078 0c40
000003c0: e4e3 7d3e a681 8abf 8a0a 90bf 9940 80bf
000003d0: 1c24 263d cfcd 7a3d 94b6 543f f29d a3bf
000003e0: 101e dc3c f985 17bf 2234 2a3d 29e8 033f
000003f0: 73fe 573e 97ba 923c 5a3e a33e ccd6 5a3e
-1.0334837 -0.40217248 0.2852653 -0.08310195 0.052175365 0.1479578 0.013246532 0.057197023
-1.4826192 -0.6890801 -0.071677126 0.19620757 -1.1889669 -0.091743566 -0.12529129 0.074528724
-0.4095592 0.18636836 -0.006853779 -0.08963477 -0.16821153 -1.5219222 -0.32347012 -0.17000516
-0.42176795 -0.7589748 0.015557261 -0.13516852 -0.44220433 -0.66734684 -0.078309774 -0.33016342
0.17313112 -0.13463128 0.026807096 -0.10019877 -0.3687025 -0.6997772 -0.1704144 -0.3998954
-0.14454764 -0.23632261 -0.34899133 -0.28714234 -0.81286234 -0.19443764 -1.6276536 0.08033695
-0.17818592 0.26189578 -0.15256213 -0.007556398 -0.40150854 -0.3060904 -0.08855166 -0.48015124
-0.44442615 -0.07540357 -0.40409347 -0.48434663 0.10541248 -0.039598677 -0.008013339 0.0357473
-0.10243675 -0.5594242 0.24148883 -0.3198872 -0.458031 -0.6625651 -0.09113257 -0.26096335
-0.3335439 -0.6450968 -0.53205085 -0.043599553 -1.1556311 -0.54131067 -0.084624 0.34818235
-0.15762629 0.07639386 0.09372427 -0.013259872 0.06585806 0.0031280841 -0.14588952 -0.10494502
0.03994329 0.27056974 -0.14923936 -0.26474032 -0.31618735 0.010088403 -0.49907562 -0.25364515
-0.9738689 0.020583712 0.08802362 -0.5141292 -0.11970622 -0.08342675 -1.3036228 0.13852918
-0.52179605 -0.10093486 0.03711837 0.30887917 0.2805836 -1.2288727 -0.02164618 -1.0352832
-0.24125749 -0.58086604 -0.9184879 -1.166251 -0.09669176 -0.29820618 -0.35625625 -0.26869965
-0.23642457 -0.11594445 -0.46141592 -0.11971013 0.45344082 -0.09717554 -0.73178947 -0.94001424
0.6223727 -0.11302121 -0.06559133 0.13900824 0.58004934 -6.5274897 0.18427016 -1.2803955
0.7530645 -2.264318 0.06890089 0.13805045 0.28528056 0.7504127 -0.27049863 -0.4739247
-1.6200248 -0.43478137 -0.32777786 -0.2544226 -1.0177212 -0.07605944 0.07451179 -0.005812241
0.01745813 -0.21504152 0.38101813 -0.027310008 -0.6035325 -1.4045708 -0.26453876 -0.3158557
-0.47599933 0.20625548 0.08217022 0.33432013 0.5303518 -0.37436104 0.47797462 -0.59334505
0.4897929 -0.23743246 0.0444123 -0.027219355 0.55502045 -0.11930208 -0.582936 0.95068395
-0.10264208 -0.28731996 -0.20570652 0.5034362 -1.9855627 -0.040462412 0.012491337 0.9711248
-0.58547014 -0.078470424 -1.3069733 -1.4633955 -0.6035969 -0.85971004 0.06333018 -1.5967971
0.6514192 0.14077309 0.063092895 -0.38866612 0.44101945 0.4115532 1.2406951 -0.009329878
-0.112952255 0.09514092 -0.013159159 -0.17042395 -2.856664 0.37956622 -0.2638559 -0.23828939
-0.08643411 -0.07816824 0.45272887 0.21430859 -0.45126858 0.6077649 -0.17722124 0.10886513
0.2798459 0.898508 -0.38160783 0.43715268 -0.0122454185 -0.9844522 0.37705112 0.04234657
-0.39860097 0.33675945 -0.18007961 0.02993968 0.07834542 0.9633421 -3.5523572 -0.46005565
-0.27132124 0.06256642 0.22323538 0.27304834 0.24338731 -0.61827147 0.20790467 2.194847
0.24793965 -1.0820816 -1.1253216 -1.0019714 0.04056178 0.06123143 0.8309109 -1.2782576
0.026869804 -0.591888 0.041553624 0.51526123 0.21093158 0.017911239 0.31883508 0.21371001

sequential.2.bias f4 [128]
00000000: 5cc4 a0be d317 fc3f 24a1 913f 009e 7d40
00000010: c803 34bf 60e5 1c40 7369 1e40 6b38 943e
00000020: 87ff 1b40 3226 16bd 7c06 d23d 4fb9 7e40
00000030: 788a 2740 b4b8 0040 4cb3 7d40 75b4 3540
00000040: 4ebd 16be 55fc cfbf db24 07be b7a9 1c3f
00000050: 10a1 4640 c2bd 1140 1e7c 8fbe 73c9 2d40
00000060: bf68 923d 83a3 1f3d 1696 f33f 45a1 1a40
00000070: fb54 3940 9694 2b40 a0bd 0540 a52a 1f3f
00000080: a610 0240 756f 2640 2e7a 3e40 a7e4 ea3e
00000090: cc14 6140 502b 5340 5f4a e73e 473b 1c3e
000000a0: ea3f 1940 fd2f d73f 924a 3140 d29d 30be
000000b0: 521b 0540 4ac1 1e40 8f6c 7d40 8949 2940
000000c0: bc1f 0a3f d0ef eb3f e5e8 8abd 928c 2040
000000d0: e469 4540 3927 7e40 2658 0540 e891 2140
000000e0: ac19 c63e bfe4 b73e 144c 2bbd 4fac 28bd
000000f0: d22b 2940 c1a9 1040 38c8 1040 2ee2 7e40
00000100: 1f41 dbbd 781c 02bd e35a 7bbc a932 283d
00000110: d170 0640 30b7 51bd 0af6 3440 9b98 593f
00000120: 61e9 643e 268c 8cbd 75fd 5b3d ab97 edbe
00000130: 9f62 963d e334 0b3f e512 0f40 139c 2440
00000140: 24f6 1dbe fbf1 00bd 1a46 0d40 2eae 163d
00000150: f17b 00bd a4f6 763f 6833 3b3f c103 3d3d
00000160: 199a 0d40 4804 213f 92f9 f8bd 1262 f13f
00000170: edef 2640 1d58 3140 1be3 a2be 7a6a 2040
00000180: 8f0e 0940 4634 2ebd 67fc 6bbc 4cd1 0940
00000190: 3359 88bd ba88 7d40 21a4 bfbc 10bc 1a40
000001a0: 3377 453f cbd8 8740 1027 4240 bf31 b93d
000001b0: b817 673d 280f 453f 92de 7d40 ded6 05bd
000001c0: 1c0c 443f 360c f43e f202 05be feb8 2d40
000001d0: 489b 9d3f 3774 0940 e333 dcbc 7939 a93d
000001e0: e9f3 353f fb97 6ebe 5f0d 00bd ca6a f53f
000001f0: 51e6 2fbd e253 3140 3751 44bc dab0 1140
-0.3139981 1.969477 1.1377301 3.9627686 -0.7031827 2.4515 2.475186 0.28949293
2.4374712 -0.03665752 0.10255143 3.9800603 2.6178265 2.0112734 3.9640684 2.8391392
-0.14720652 -1.6248881 -0.13197653 0.61196464 3.1035805 2.277207 -0.2802438 2.7154205
0.07148885 0.038974296 1.9030178 2.416093 2.8958118 2.680944 2.0896988 0.62174445
2.0322661 2.6005528 2.9762073 0.45877573 3.5168943 3.2995186 0.45173928 0.15256988
2.394526 1.681152 2.7701764 -0.17247704 2.0797925 2.4805474 3.959751 2.6451132
0.5395467 1.843256 -0.06782702 2.5085797 3.084588 3.971144 2.0835052 2.5245304
0.3869146 0.35916707 -0.0418206 -0.04117995 2.6432996 2.260361 2.2622204 3.982555
-0.1070578 -0.03176543 -0.015341493 0.04106394 2.1006358 -0.05120009 2.827517 0.8499848
0.22354652 -0.06862669 0.053708512 -0.46404776 0.07343029 0.54377574 2.2355282 2.572026
-0.15425926 -0.03148077 2.2074037 0.036787204 -0.0313682 0.96470094 0.73125315 0.046146158
2.2125304 0.6289716 -0.12156977 1.8858054 2.608394 2.771003 -0.31813893 2.5064988
2.1415136 -0.04253032 -0.014403439 2.1533995 -0.066576384 3.9614701 -0.023393692 2.4177284
0.7713501 4.245214 3.0336342 0.090426914 0.056419104 0.7697625 3.9667096 -0.032675616
0.7658098 0.47665566 -0.12989405 2.714416 1.2313013 2.1477182 -0.02688021 0.08262915
0.710753 -0.23300163 -0.03126275 1.9173214 -0.042944256 2.7707448 -0.011982254 2.2764192

sequential.4.weight f4 [1, 128]
00000000: 01f7 1d3e a9d4 9ebe 6b86 e1bf 5bda b1be
00000010: b79d 783f 26f8 ecbe 6327 e4be 6e25 963f
00000020: 0c55 aabe 82af 223e 83fa 3c3d 17dc d4be
00000030: d618 1d40 8c0f cdbe cf8c b8be 061a debd
00000040: 0b60 bb3b eff0 7b3f a895 a23d 7df2 933f
00000050: 3952 a2be c13a 18bf ba45 98bc 5421 e9be
00000060: 4aee 953c a495 fcbc 4e03 bd3f dfd3 c2be
00000070: 3e79 23be bbd5 f8be f288 b4be d605 443f
00000080: 9526 61be b25d f5be 8f8b 02bf d53e 36c0
00000090: cb25 b7be 336e ecbf 6d0d 8d3f f085 9a3e
000000a0: 802b d4be b708 a33f 1385 dfbe 8eee 7d3f
000000b0: 2241 f1be 64be d3be 0daf 97be e6cf 75be
000000c0: fc48 a13f 541f 9c3f fc18 a93c 5bdd c2be
000000d0: 221b edbf 8b17 cfbe 71c9 aebe 0655 b1be
000000e0: 6f84 2c3f 5e8f 9e3f 7f78 88bc 8884 83bd
000000f0: 11cd 95be 839c 35be 1406 6f3f f45e e5be
00000100: a2ae 2bbd 0168 323e 69cc 3bbc 6400 493d
00000110: db61 12be 89b9 0fbd 38bd 67be 8c6d 3d3f
00000120: 4d5e 14c0 2ae2 193d c07f 903f b006 2540
00000130: 1329 b43c 5a52 b93f 181b 84be 46f2 babe
00000140: d832 093f 4c88 19be ca4e 25bf 33de a73c
00000150: c7b2 b73c 9dc3 873f 13bd b43f 0555 213e
00000160: c03f 88bf 0ee6 0d3f a110 47ba 7eb1 c8be
00000170: c884 34be ecb4 74bd 439e 9a39 1265 37be
00000180: 76c4 9fbe 23ef abbb ece6 183e 9738 9cbe
00000190: ebb9 d43c 5245 f8be 9500 443d acdb 82be
000001a0: f1be 333f 007e 4bbf c1bf 95be c855 ad3b
000001b0: 0579 1140 c4d5 ac3f 21a2 b5be e687 f9bc
000001c0: c5c4 4a3f aa28 a7bf 800c 823d e959 9abe
000001d0: d133 a03f 167f b1bf 27ba 4a3e e546 8e3c
000001e0: e7fb 1d3f 3bcc 713f 5ac9 0a3e 0be8 f13f
000001f0: 966f 07be 86fb b7be 3161 ddbc 975c 1bbe
0.15426256 -0.31021622 -1.7619146 -0.34736905 0.97115654 -0.46283072 -0.445613 1.1730173
-0.3326801 0.15887263 0.046137344 -0.41574165 2.4546409 -0.40050924 -0.36044928 -0.10844807
0.0057182363 0.9841451 0.07938701 1.1558377 -0.31703356 -0.5946465 -0.018587936 -0.4553324
0.018302102 -0.030833073 1.4766634 -0.3805227 -0.15964219 -0.48600563 -0.3526073 0.76571405
-0.21987374 -0.47923046 -0.509942 -2.847585 -0.3577102 -1.847113 1.1019722 0.3018031
-0.41439438 1.2737035 -0.43656215 0.9919213 -0.47120005 -0.41356194 -0.2962574 -0.24005088
1.2600398 1.219706 0.020641796 -0.38059506 -1.8523905 -0.4044765 -0.34138063 -0.3463518
0.6738958 1.2387502 -0.01665902 -0.06421763 -0.29258016 -0.17735486 0.9336865 -0.44799006
-0.04191459 0.17422487 -0.011462309 0.04907264 -0.14295141 -0.03508905 -0.22630775 0.7399528
-2.3182557 0.037569202 1.1288986 2.5785332 0.021992242 1.4478257 -0.2580192 -0.36512965
0.53593206 -0.149934 -0.6457335 0.020491695 0.022424115 1.0606571 1.4120201 0.15755089
-1.0644455 0.5542916 -0.00075937255 -0.39197916 -0.17628777 -0.059742853 0.00029491083 -0.17909649
-0.31204575 -0.005247013 0.1493184 -0.30511925 0.025967559 -0.48490387 0.047852118 -0.2555822
0.7021323 -0.79489136 -0.2924786 0.005289767 2.2730114 1.3502736 -0.35475257 -0.03046031
0.79206496 -1.3059285 0.063500404 -0.3014672 1.2515813 -1.3866909 0.19797574 0.01736779
0.617125 0.94452256 0.13553372 1.8898939 -0.1322616 -0.35934085 -0.027023884 -0.15172039
