plots/100轮/model_actionH.pth (torch, 5818 bytes, 4 tensors)

fc_state.0.weight f4 [128, 3]
0.15218537 0.041457474 -0.12447889 0.097286984 0.018954078 -0.21053337 0.30223945 -0.11084569
-0.15713184 0.037803724 0.10676727 -0.020004125 -0.03738114 -0.023340505 -0.7205527 -0.76690054
-0.04207734 0.27716064 -0.039713807 -0.11462745 0.15134336 0.14406273 0.014317578 -0.14382042
-0.0011416611 -0.019355355 -0.038862634 -0.15518662 -0.09153056 0.14432237 -0.18850698 0.12675127
-0.113379605 -0.78268325 -0.018231928 -0.004342339 -0.35544726 -0.09191819 0.1171892 -0.6153041
0.021605594 -0.28093 -0.7016804 -0.030748617 0.017909028 0.14726233 0.03169569 0.06047853
0.83239776 -0.0045570163 -0.57448876 0.05522678 0.17180406 -0.032234974 -0.12804855 -0.18078089
-0.5914976 0.14935584 0.1603891 -0.25428924 0.005247044 -0.12961517 0.026671275 -0.4238645
-0.05316036 0.048665993 -0.17429896 0.11646164 -0.11074219 -0.10422802 0.15736553 -0.18695356
-0.0062602526 -0.1596411 0.23361231 0.26452395 -0.15175337 -0.34364286 -0.13174903 -0.09464197
0.29237056 -0.121113956 -0.2421053 0.10242434 -0.75995666 -0.036688134 -0.09054864 0.063694194
0.18192798 -0.0397074 0.1677311 0.015323458 -0.65876085 -0.015609502 0.12340021 -0.08132341
0.035819594 -0.14874266 -0.13893083 -0.021150043 -0.18104409 -0.18047592 0.22027765 0.19811927
0.060707934 -0.1251682 -0.07582054 0.26146078 0.10707511 -0.075113006 -0.15614043 0.10903242
0.15075694 -0.1982742 -0.045520652 0.019974902 0.3216961 -0.16787495 0.10917559 -0.24513765
0.19514742 -0.11403287 -0.3018576 0.037679315 0.11166149 0.094940655 -0.2620462 0.049605925
0.0756408 0.12592989 0.14348723 -0.17838405 0.022679036 0.16922496 -0.017266044 0.032357343
-0.10482561 -0.26485968 -0.04623008 0.0002571533 0.42864528 -0.21266882 -0.12067398 0.124125734
-0.41269466 0.10313981 0.36002278 -0.102530085 -0.17716356 -0.76570183 0.13490742 -0.012394637
-0.3800848 0.1402218 0.17648949 -0.11302575 -0.17883158 -0.12780882 0.18420869 0.29645547
0.009407529 1.506104 0.16351719 0.15812245 0.19632222 -0.13891292 0.12752412 -0.067550115
0.19517921 0.04904028 0.071018815 -1.1725767 -0.019441368 0.22213295 0.21985556 0.015591778
0.3627194 0.03895584 0.0068257144 0.25244296 0.015094413 -0.168308 -0.1538158 -0.042299308
0.12997986 -0.17664878 0.09625683 0.053240493 0.25189635 -0.12700665 -0.1505276 0.6270568
0.23330663 -0.16841854 -0.09493556 -2.31114 -0.013987762 -1.1269444 0.07075071 0.1899067
-0.071206555 -0.12250112 -0.093768194 -0.047303423 0.1834919 0.12731278 -0.064884216 -0.75815177
-0.00046836794 -0.11396391 0.434188 -0.12785685 -0.10023686 0.16499323 -0.0634407 -0.1795305
-0.17648351 0.0037411947 0.10462295 -0.2490061 -0.17453851 0.34433007 -0.032491967 -0.13426352
-0.20693743 -0.31221408 -0.119139455 0.24048458 0.032327544 0.15268762 -0.07453188 -0.12270503
0.055071734 0.16330433 0.03237557 0.025482265 -0.11451217 -0.057236835 0.0662097 -0.087223634
0.057657715 0.069061674 -0.0048371144 0.14370313 0.12817919 0.14528677 0.3272045 0.022573335
0.033401873 -0.42297202 0.022051107 -0.3679349 0.08852097 -0.00024395164 0.12319923 -0.6987845
00000000: 7bd6 1b3e 50cf 293d caee febd 663e c73d
00000010: 9545 9b3c 0f96 57be 21bf 9a3e 1103 e3bd
00000020: 2be7 20be 14d8 1a3d cca8 da3d b1df a3bc
00000030: f71c 19bd 9634 bfbc 2476 38bf 9853 44bf
00000040: 4a59 2cbd 00e8 8d3e f2aa 22bd ccc1 eabd
00000050: c1f9 1a3e 2e85 133e 4694 6a3c a945 13be
00000060: caa3 95ba 1f8f 9ebc 6d2e 1fbd 3ee9 1ebe
00000070: 6074 bbbd 3ec9 133e f907 41be 16cb 013e
00000080: 9133 e8bd ee5d 48bf 205b 95bc 2e4a 8ebb
00000090: 2ffd b5be 9b3f bcbd e400 f03d 9284 1dbf
000000a0: 37fe b03c 0fd6 8fbe 54a1 33bf 86e4 fbbc
000000b0: f4b5 923c f0cb 163e 57d3 013d 56b8 773d
000000c0: 0518 553f 0653 95bb b211 13bf 7a35 623d
000000d0: 67ed 2f3e d208 04bd 291f 03be a01e 39be
000000e0: 636c 17bf bdf0 183e 0a3d 243e 3332 82be
000000f0: 65ef ab3b d7b9 04be b87d da3c c504 d9be
00000100: adbe 59bd fe55 473d 6d7b 32be 7183 ee3d
00000110: cdcc e2bd 8075 d5bd 6e24 213e c170 3fbe
00000120: ce22 cdbb f578 23be 1138 6f3e af6f 873e
00000130: 3c65 1bbe f5f1 afbe 38e9 06be a6d3 c1bd
00000140: 98b1 953e 980a f8bd 74ea 77be dac3 d13d
00000150: 858c 42bf 4c46 16bd 9171 b9bd 1a72 823d
00000160: 544b 3a3e 3aa4 22bd b4c1 2b3e 3e0f 7b3c
00000170: 8da4 28bf ffbe 7fbc 40b9 fc3d e38c a6bd
00000180: 91b7 123d ff4f 18be e243 0ebe db42 adbc
00000190: 9f63 39be aece 38be 7790 613e c7df 4a3e
000001a0: e2a8 783d 182c 00be cd47 9bbd 30de 853e
000001b0: 324a db3d d9d4 99bd 47e3 1fbe 644c df3d
000001c0: 0760 1a3e 6408 4bbe dd73 3abd 68a2 a33c
000001d0: 5ab5 a43e 69e7 2bbe 7497 df3d 5d05 7bbe
000001e0: bad4 473e 118a e9bd 148d 9abe a055 1a3d
000001f0: c7ae e43d 3f70 c23d eb2a 86be 952f 4b3d
00000200: 90e9 9a3d c4f3 003e 51ee 123e 4faa 36be
00000210: 63c9 b93c 4f49 2d3e 8571 8dbc 2289 043d
00000220: cfae d6bd b09b 87be c15b 3dbd 88d2 8639
00000230: 6577 db3e dbc5 59be eb23 f7bd a235 fe3d
00000240: b74c d3be f73a d33d e854 b83e 4bfb d1bd
00000250: 5d6a 35be 0905 44bf 2c25 0a3e e012 4bbc
00000260: 7a9a c2be 4e96 0f3e a9b9 343e 0b7a e7bd
00000270: a01f 37be 51e0 02be 34a1 3c3e 03c9 973e
00000280: 0922 1a3c 04c8 c03f 0d71 273e daea 213e
00000290: b108 493e 303f 0ebe af95 023e b757 8abd
000002a0: 0fdd 473e 76de 483d 5072 913d fe16 96bf
000002b0: 8143 9fbc d276 633e d121 613e a874 7f3c
000002c0: 5bb6 b93e 2990 1f3d 3eaa df3b 3440 813e
000002d0: 8f4e 773c ef58 2cbe e481 1dbe 0a42 2dbd
000002e0: 7119 053e 6be3 34be 4d22 c53d b412 5a3d
000002f0: 8ff8 803e 080e 02be e823 1abe cb86 203f
00000300: efe7 6e3e e975 2cbe 936d c2bd b8e9 13c0
00000310: ed2c 65bc b73f 90bf c0e5 903d e776 423e
00000320: bed4 91bd dee1 fabd 8a09 c0bd 3cc1 41bd
00000330: 4de5 3b3e 485e 023e 04e2 84bd 3c16 42bf
00000340: 488f f5b9 e965 e9bd e44d de3e e8ec 02be
00000350: fc48 cdbd fcf3 283e 33ed 81bd d8d6 37be
00000360: 18b8 34be d52e 753b 8f44 d63d 75fb 7ebe
00000370: 39ba 32be 084c b03e 4c16 05bd 607c 09be
00000380: 68e7 53be 86da 9fbe 63ff f3bd 9741 763e
00000390: e369 043d 255a 1c3e 2ca4 98bd c64c fbbd
000003a0: e692 613d 4039 273e 3f9c 043d 2fc0 d03c
000003b0: 5b85 eabd 2c71 6abd f498 873d 4ea2 b2bd
000003c0: 7f2a 6c3d 3570 8d3d a880 9ebb ea26 133e
000003d0: 6841 033e 0ec6 143e 5987 a73e b7eb b83c
000003e0: 67d0 083d ca8f d8be 86a4 b43c f761 bcbe
000003f0: 7b4a b53d 45cd 7fb9 e14f fc3d 8ae3 32bf

fc_state.0.bias f4 [128]
0.05097462 0.047450185 -0.096866876 -0.061196774 -1.0685965 0.11344405 0.17993645 0.11222522
-0.26164502 0.04387877 -0.030657986 0.28679255 0.029216906 -0.44127393 -0.06661587 -0.4515195
-0.06685727 0.04470678 -0.50278324 -0.07820159 -0.11582231 -0.09498576 -0.005201837 0.080644704
0.043638922 -0.15643804 0.27656293 0.17540863 0.059503272 -0.08156829 0.17278942 -0.0093989195
-0.083544254 -0.08619306 0.055026814 0.7277042 -0.11779038 0.12876849 -0.03332435 -0.17536545
-0.051331587 -0.030362107 -0.022555668 0.057848446 0.06901886 -0.15883413 -0.63446826 -0.04471243
-0.89365345 -0.49410158 0.28026906 0.028871879 0.17590094 -0.93566215 -0.035332292 -0.022661649
0.06368469 0.35867953 0.5094271 0.66283834 -0.16045564 -0.10185207 0.22366938 0.45511147
-0.08965137 0.15878588 -0.083951004 0.09941789 -0.054826025 -0.840668 -0.05054179 -0.11738088
0.90931684 0.07797966 -0.18228957 0.07940617 -0.110854864 0.012994141 -0.3581981 0.033301555
-0.11897371 0.07220902 -0.25030294 -0.32775086 -0.419312 -0.78880394 0.2960599 -0.13126329
0.5202414 -0.10132978 0.06275519 -0.5321255 -0.058496 0.115822986 -0.73520124 0.12987968
-0.46399346 -0.118509166 -0.24428299 0.15411177 0.045827586 -0.033318326 0.07834418 -0.038038872
0.38317826 0.16467226 -0.027913243 0.0961241 -0.52297574 0.08632581 -0.052811246 -0.069524035
0.08197747 0.34309468 -0.059264548 0.09399773 0.01567804 0.34792045 0.0012891609 -0.10344663
0.13844647 -0.4196163 0.7939185 -0.2430425 -0.22353218 -0.032212272 -0.05085224 -0.66092366
00000000: c3ca 503d 205b 423d 2462 c6bd 78a9 7abd
00000010: c5c7 88bf 5b55 e83d 4341 383e 56d6 e53d
00000020: 56f6 85be 3aba 333d 7526 fbbc 79d6 923e
00000030: 4b58 ef3c a8ee e1be e76d 88bd 902d e7be
00000040: 77ec 88bd 751e 373d 67b6 00bf 2828 a0bd
00000050: 3f34 edbd e587 c2bd 2c74 aabb 0d29 a53d
00000060: babe 323d 4b31 20be a899 8d3e 529e 333e
00000070: b4b9 733d 470d a7bd b6ef 303e edfd 19bc
00000080: 4019 abbd fd85 b0bd cc63 613d d34a 3a3f
00000090: 153c f1bd e3db 033e 1d7f 08bd 0093 33be
000000a0: 1241 52bd f4b9 f8bc aac6 b8bc 7ef2 6c3d
000000b0: c359 8d3d 6aa5 22be 836c 22bf 6224 37bd
000000c0: 79c6 64bf e2fa fcbe 6d7f 8f3e b884 ec3c
000000d0: 601f 343e 8e87 6fbf 98b8 10bd eca4 b9bc
000000e0: 1e6d 823d d8a4 b73e d069 023f c6af 293f
000000f0: 7c4e 24be d197 d0bd 9609 653e 5f04 e93e
00000100: 239b b7bd c498 223e 81ee abbd 9b9b cb3d
00000110: 4191 60bd 0536 57bf e804 4fbd 6365 f0bd
00000120: fdc8 683f cdb3 9f3d 1eaa 3abe b49f a23d
00000130: e007 e3bd 61e5 543c be65 b7be 3667 083d
00000140: 7da8 f3bd 53e2 933d b527 80be f6ce a7be
00000150: 10b0 d6be 0eef 49bf 2a95 973e e269 06be
00000160: 8a2e 053f fd85 cfbd cb85 803d 6039 08bf
00000170: 8099 6fbd 9a34 ed3d 2636 3cbf 2eff 043e
00000180: 8d90 edbe efb4 f2bd 5225 7abe 7acf 1d3e
00000190: b5b5 3b3d cc78 08bd ea72 a03d a6ce 1bbd
000001a0: f12f c43e d89f 283e 50aa e4bc b6dc c43d
000001b0: bde1 05bf 96cb b03d 9b50 58bd 9e62 8ebd
000001c0: cee3 a73d 1baa af3e 62bf 72bd e281 c03d
000001d0: 3c6f 803c a122 b23e 10f9 a83a d4db d3bd
000001e0: e9c4 0d3e f3d7 d6be 3e3e 4b3f 22e0 78be
000001f0: 9fe5 64be 04f1 03bd 704a 50bd 4b32 29bf

fc_mu.weight f4 [1, 128]
-0.11141993 -0.042777915 -0.19835988 0.2015456 -0.123768896 0.15062875 0.17324655 -0.020168023
-0.0063188914 0.10095566 0.11401781 0.15961964 0.096709915 -0.320522 0.039972942 0.038595
0.49387753 0.12039585 -0.03155653 -0.07511717 -0.1335249 0.02034457 0.08419477 -0.07997558
0.08835836 -0.2097023 0.07105316 0.18318701 0.0648035 0.17272376 0.0008058208 -0.16236554
-0.17628197 -0.17996849 -0.13874567 0.03228769 -0.08953841 -0.013872801 0.026955867 -0.10424807
-0.069656365 -0.11628202 -0.184283 -0.1848727 0.10100646 -0.13065135 0.18845564 0.026787294
0.0052218637 -0.0323662 0.11498154 0.16214539 0.13847467 -0.5067141 0.20113191 -0.19961293
-0.008687132 0.41911528 0.0632579 0.056083694 -0.1978163 -0.16505452 0.055584904 0.018741125
-0.15384394 -2.3917837 0.17207056 0.15622766 -0.08774584 -0.28855634 -0.09989684 -0.099835336
0.04779046 0.09015409 -0.15527332 0.12948725 -0.19902173 0.081989795 0.051295135 0.13781662
-0.08040053 0.094616264 0.073245615 -0.12531374 0.12640193 -0.24096785 0.29438174 -0.0918901
0.19143628 -0.19884825 0.058964018 -0.02617283 -0.07366488 -0.11185657 -0.095117114 0.19009337
-0.009003266 0.08995806 0.099139504 0.14037123 -0.18042973 0.035383917 0.16858293 -0.06653715
0.0066697807 0.044063907 0.19201836 -1.9658805 -0.03357252 0.12633973 -0.17741446 0.12462367
-0.10240332 0.010232247 -0.15792891 0.16716054 -0.17292975 0.019947583 0.18589792 0.16206528
0.108414724 0.044858176 -0.25325727 0.049272858 -0.11245096 0.0873504 -0.1756274 0.39595535
00000000: 2230 e4bd e537 2fbd da1e 4bbe f861 4e3e
00000010: 8c7a fdbd 6c3e 1a3e 8b67 313e 6937 a5bc
00000020: b40e cfbb d7c1 ce3d 2b82 e93d 5573 233e
00000030: d90f c63d 761b a4be abba 233d ca15 1e3d
00000040: 84dd fc3e 1992 f63d 6c41 01bd 08d7 99bd
00000050: c0ba 08be a8a9 a63c 4f6e ac3d 3dca a3bd
00000060: 3af5 b43d 33bc 56be 5284 913d 6095 3b3e
00000070: b3b7 843d 7fde 303e b83d 533a 2743 26be
00000080: 4383 34be a949 38be 5813 0ebe 1940 043d
00000090: ea5f b7bd bf4a 63bc 8dd2 dc3c 0380 d5bd
000000a0: ffa7 8ebd 4525 eebd afb4 3cbe 454f 3dbe
000000b0: 7adc ce3d 78c9 05be 84fa 403e 0771 db3c
000000c0: 2b1c ab3b 6c92 04bd 717b eb3d 7109 263e
000000d0: 4ecc 0d3e 04b8 01bf 86f5 4d3e 5567 4cbe
000000e0: 7954 0ebc 4796 d63e 5c8d 813d 04b8 653d
000000f0: 5b90 4abe 0d04 29be ffac 633d fd86 993c
00000100: 4489 1dbe fc12 19c0 4433 303e 25fa 1f3e
00000110: 17b4 b3bd a8bd 93be b796 ccbd 7876 ccbd
00000120: eebf 433d b5a2 b83d f8ff 1ebe 4e98 043e
00000130: 5acc 4bbe 44ea a73d d91a 523d cd1f 0d3e
00000140: 08a9 a4bd 2cc6 c13d cc01 963d 3f52 00be
00000150: 826f 013e 47c0 76be 34b9 963e e030 bcbd
00000160: df07 443e e09e 4bbe 4184 713d 6768 d6bc
00000170: 9ddd 96bd 0f15 e5bd c3cc c2bd d6a7 423e
00000180: 6f82 13bc ee3b b83d a709 cb3d 7abd 0f3e
00000190: 92c2 38be baee 103d 01a1 2c3e a144 88bd
000001a0: 2d8e da3b 5b7c 343d 76a0 443e f9a1 fbbf
000001b0: 5783 09bd 345f 013e 23ac 35be b23a ff3d
000001c0: d5b8 d1bd 28a5 273c 1eb8 21be 222c 2b3e
000001d0: 7f14 31be 1d69 a33c 065c 3e3e 71f4 253e
000001e0: 8a08 de3d 35bd 373d f0aa 81be 56d2 493d
000001f0: b04c e6bd c4e4 b23d abd7 33be a9ba ca3e

fc_std.0.weight f4 [1, 128]
-0.100775085 -0.09616601 -0.035130017 0.15668452 0.22804677 0.08856326 -0.15828979 -0.09356067
-0.016256355 0.18883567 0.069679566 0.2094428 0.25366467 -0.00773411 0.14820485 0.17339294
-0.04737443 -0.06828013 0.16419561 0.031512376 -0.18523374 0.12772578 0.018067641 -0.13837999
0.0939329 0.111087196 -0.11187956 -0.16933024 0.14554487 0.1987438 -0.07618717 -0.03826035
-0.11658025 -0.13480674 -0.12244051 -0.10885027 -0.053394083 -0.08595265 -0.006505789 0.20832701
-0.11495996 0.0088236295 -0.031236751 -0.1959579 -0.089361586 0.062429667 0.29289028 0.16797043
0.1521641 0.2261682 0.062505275 -0.05467785 -0.13192673 -0.046806846 0.084535465 -0.036399174
-0.05398471 0.08220472 -0.36516315 -0.58199537 0.11489212 0.1146634 -0.18863143 -0.1538901
-0.07826863 0.07628816 0.20859279 0.12739101 0.019936465 0.22007717 -0.115012735 0.059433054
-0.24597993 -0.011306847 0.11125826 0.045992587 0.17760906 -0.032296807 0.20390145 -0.05925091
0.10141625 -0.10291817 0.07419835 0.09755431 0.12760213 0.29509693 0.34816694 0.039430346
-0.03137913 0.19910273 0.051001515 0.13600963 -0.079599604 -0.20130378 0.23239006 -0.10877046
0.060743503 0.099037714 0.08923225 -0.09950777 -0.15057954 0.18638623 -0.03620897 0.013513123
-0.15729651 -0.13461779 0.043116923 0.5584834 0.2624499 -0.14276104 -0.13324998 0.12703362
-0.1239806 -0.13732389 -0.1922964 0.061717313 -0.070482686 -0.1891557 0.017390966 0.20085922
-0.063219 0.21131611 -0.59849566 0.20311058 0.13081911 -0.1367019 0.06257897 0.1561812
00000000: 2b63 cebd aff2 c4bd 7ee4 0fbd e871 203e
00000010: 1885 693e a860 b53d b816 22be bd9c bfbd
00000020: 0c2c 85bc 235e 413e 29b4 8e3d 2c78 563e
00000030: 56e0 813e 6b6e fdbb 03c3 173e eb8d 313e
00000040: b10b 42bd 74d6 8bbd e522 283e 1f13 013d
00000050: eaad 3dbe 8cca 023e 9702 943c 7cb3 0dbe
00000060: e45f c03d af81 e33d 1c21 e5bd e864 2dbe
00000070: b709 153e 7f83 4b3e 0508 9cbd e2b6 1cbd
00000080: a0c1 eebd c70a 0abe 17c2 fabd e4ec debd
00000090: c1b3 5abd f107 b0bd 832e d5bb ad53 553e
000000a0: 2170 ebbd fc90 103c 37e4 ffbc 30a9 48be
000000b0: 3503 b7bd 40b6 7f3d b7f5 953e 7100 2c3e
000000c0: e8d0 1b3e a398 673e c402 803d e2f5 5fbd
000000d0: cd17 07be 89b8 3fbd ee20 ad3d 4d17 15bd
000000e0: 121f 5dbd f35a a83d aaf6 babe a6fd 14bf
000000f0: 8f4c eb3d a5d4 ea3d 9928 41be 5e95 1dbe
00000100: 4e4b a0bd f83c 9c3d 5999 553e ca72 023e
00000110: cc51 a33c e95b 613e cc8b ebbd 1370 733d
00000120: 2ae2 7bbe 5b40 39bc 5fdb e33d b962 3c3d
00000130: 26df 353e a849 04bd 8bcb 503e 15b1 72bd
00000140: 53b3 cf3d c3c6 d2bd 4ef5 973d 8eca c73d
00000150: 22aa 023e f216 973e f042 b23e b781 213d
00000160: 6787 00bd 96e1 4b3e f7e6 503d 1c46 0b3e
00000170: 1e05 a3bd 9422 4ebe a9f7 6d3e 0cc3 debd
00000180: 2ece 783d 49d4 ca3d 66bf b63d bbca cbbd
00000190: 8631 1abe 08dc 3e3e db4f 14bd 2566 5d3c
000001a0: 5612 21be 3fd9 09be 5f9b 303d c5f8 0e3f
000001b0: d55f 863e f32f 12be af72 08be 1a15 023e
000001c0: 8ae9 fdbd a29e 0cbe 59e9 44be 4bcb 7c3d
000001d0: 3a59 90bd 08b2 41be 8077 8e3c 0aae 4d3e
000001e0: f778 81bd 4063 583e 0337 19bf 38fc 4f3e
000001f0: 72f5 053e 95fb 0bbe 6729 803d f7ed 1f3e
