policys/model_value2.pth (torch, 71930 bytes, 5 tensors)

sequential.0.weight f4 [128, 4]
00000000: 082f ae40 fcbc 823d 9f1d b140 e79c a7bd
00000010: b9aa d1c0 611e 05be 138f 793e bcd7 f2ba
00000020: e47c a7c0 7d36 5cbe 3d17 8fbf 024c 133e
00000030: 691e 9940 50b2 b23d 3c7f 0541 2d9b c3bb
00000040: e867 8c40 60a0 5abe 541b 9340 fa7e 9cbf
00000050: 78af 9540 e320 343e d485 c940 96a2 cd3b
00000060: d28a b440 5fe7 21be 0ecc b340 675f 86bf
00000070: 9049 c0c0 e32b 2e3c 263b 1c40 88df c9ba
00000080: 88f4 c940 099d e23d 7a88 7040 cc68 86bf
00000090: 6719 9ec0 8bbe 443d 113f d23e 285c 38be
000000a0: 2e3c 8040 f400 803e 506b 8440 ba2f 60be
000000b0: f9d7 f6c0 c8ef 323c 4f7c c6be 4bee 90b9
000000c0: 3521 0fc1 180a 34be 9cf6 1cc0 6c41 07bf
000000d0: 545b 0041 2330 073c 6ca4 f040 abaa 853e
000000e0: 480e a240 db4d 06be 058d b540 6e2b 90be
000000f0: 5f8e 7f40 f662 403f af01 5940 4237 373e
00000100: bcc7 3040 4459 9b3c 40bb a440 34de d33b
00000110: a3e9 98c0 56ac 22be d95d cfbf 03ab 80bd
00000120: bc14 ca3e ccf7 1d3b 0d6b d9bc c01f 5f3c
00000130: ee3b 27c1 a6b0 ffbc fa58 19c0 12ee 21bb
00000140: c0e6 a540 83d8 463d 7d47 8640 89f7 dfbd
00000150: 7ef6 3b40 d6bd 1ebe 2561 0b41 ec6e cc3d
00000160: 8d72 70bf 6a3a d1bc f7e7 f0c0 aea7 553f
00000170: 333f b040 bc88 debd 37f5 6040 6091 aebf
00000180: 2d09 9ec0 c02d 353f 3c52 e7bf 60aa 7e3e
00000190: ba05 0241 cb64 3b3e 22ad 9240 b035 d1be
000001a0: ca94 4ec1 1d2e 13bc 3dbf 97c0 3df9 453e
000001b0: ffa5 6740 4767 b23e 8c74 1c40 6a5d 26bf
000001c0: 47fd 2e40 4419 d43e 6192 cd40 5626 ffbd
000001d0: 47c3 2241 f1fe 7f3e 837e 4d3f 2c66 cc3e
000001e0: 43a8 92c0 363f 553c 82fe 26c0 0300 943d
000001f0: b437 f4c0 dba8 2b3e ea02 96bf 97f3 b7bd
00000200: 77cd c9c0 b6cf 84bc 336c 2ac0 7236 6dbe
00000210: 3741 0241 60d3 263c 2d3e 0440 5a3e 8dbe
00000220: 7935 9ec0 7371 94be 06dd c43e 9491 cfbe
00000230: 88c0 de40 5521 b73c 96a7 3840 e1cb a4be
00000240: 9ee3 0ac1 2d5d 0dbe dd4f 8840 2e6b 8bbe
00000250: 3d8a ae40 29f3 1e3f f891 b83f 8955 033e
00000260: 9914 0341 ac7a 0b3e 388e 5140 8017 90be
00000270: 2bbf 0641 584f 613e 0263 7440 b71a c9be
00000280: 2979 a5c0 0107 59be 40fc 2dbf d2e6 223e
00000290: 804b 87c0 98cb f03e 8dea 94c0 2c8e 89be
000002a0: 23f7 fa40 fd15 053e a660 2f3f 624d b9be
000002b0: 0747 80c0 b783 953e 6e8c 6fbe 8014 c53f
000002c0: d9b7 3740 a1a6 af3c fa57 d540 ae0c 003b
000002d0: 5425 0e41 723a 873e 1fc3 3740 a76d a4bf
000002e0: 68f6 0441 ebb4 9cbc 532a b03f 85a9 96be
000002f0: 36b7 e940 142f 353d 9662 de3f ad76 543e
00000300: 5d3f 9940 7fad 373d e2b3 2741 8716 a4bd
00000310: 8913 d940 d82a d73e dfda 8440 0b5e 9b3e
00000320: e00e 183f 45b2 323b a3ad dbbd 7b90 f5bb
00000330: 27f5 bf40 0648 2e3f dc56 6c40 028c 473e
00000340: 4f25 dc40 daed c83c c122 0c41 fed0 aebd
00000350: ea12 e340 1e14 a13d c32f cb40 90fb e9be
00000360: 4170 8fc0 b5de ddbe f53c 79bf e2ee 2bbe
00000370: e652 d8c0 62fb dc3e 68e0 69c0 10a4 e93d
00000380: 715c 6340 e83c b33c 3f7e 8240 2200 8e3b
00000390: 0306 20c1 5de8 cf3b 7a43 2dc0 3d6e abbe
000003a0: 5bc9 09c1 6efc 513f d6a3 09bf 0c2f a53e
000003b0: 9577 08c1 5bb8 edbc 07b7 d13f 12ec 10be
000003c0: 4c25 5e3f de60 b33e 0962 3cbf 9893 88bf
000003d0: 1d6e 90c0 a484 e4bd d93e 94bf 363f 1dbc
000003e0: 77f3 f3c0 6946 213e 7f3b 8cc0 661f 83bf
000003f0: 3485 af40 4437 f03d 8d98 d53f 19c4 46bf
5.443241 0.06383702 5.534866 -0.081842236 -6.55209 -0.1299987 0.24370985 -0.0018527429
-5.2339954 -0.2150516 -1.1178967 0.14384463 4.784962 0.08725417 8.343563 -0.005969426
4.387684 -0.2135024 4.597086 -1.222625 4.6776695 0.1759067 6.2975864 0.0062754853
5.641946 -0.15810917 5.618659 -1.0497864 -6.00898 0.010630581 2.4411101 -0.00154017
6.3111 0.11065108 3.7583299 -1.0500731 -4.940601 0.04803328 0.4106374 -0.18003905
4.007346 0.25000727 4.1380997 -0.21893206 -7.713864 0.010921426 -0.38766715 -0.00027643362
-8.945607 -0.17581975 -2.4525518 -0.528342 8.022297 0.008251223 7.520071 0.26106772
5.0642433 -0.13115637 5.6734643 -0.28158134 3.9930646 0.75151 3.3907278 0.17892173
2.7621908 0.018963464 5.1478577 0.0064656977 -4.77852 -0.15886053 -1.6200515 -0.06282618
0.39468944 0.0024103997 -0.026540304 0.01361841 -10.452131 -0.031212162 -2.3960557 -0.0024708551
5.1844177 0.048546325 4.1962266 -0.109358855 2.9369197 -0.15502104 8.711217 0.09982094
-0.9392479 -0.02554055 -7.528316 0.83458984 5.5077147 -0.10865924 3.5149667 -1.3638115
-4.93862 0.70772934 -1.8071971 0.2486968 8.126398 0.18300168 4.5836344 -0.40861273
-12.911325 -0.008983162 -4.7420945 0.19333358 3.6195066 0.3484442 2.4446135 -0.6498629
2.7342088 0.41425526 6.4241185 -0.12458484 10.172675 0.24999596 0.80271167 0.399217
-4.5830398 0.013015559 -2.609284 0.07226565 -7.6317997 0.16763632 -1.1719639 -0.08982008
-6.306331 -0.016212326 -2.662854 -0.231653 8.140922 0.010182232 2.066295 -0.27586633
-4.9440274 -0.28992805 0.38449878 -0.40540755 6.9610023 0.022354761 2.8852286 -0.32186797
-8.680571 -0.13805075 4.259749 -0.2723021 5.454375 0.6208978 1.4419546 0.12825598
8.192529 0.13621014 3.2743053 -0.2814293 8.421672 0.22002923 3.818543 -0.39278194
-5.17104 -0.21194078 -0.6796303 0.15908363 -4.2279663 0.4703033 -4.6536317 -0.2686628
7.842668 0.12996669 0.6850685 -0.3619185 -4.0086703 0.29202053 -0.23393413 1.5396881
2.8705962 0.02144176 6.6669893 0.0019538808 8.884113 0.26411778 2.8712842 -1.2845963
8.310158 -0.019129237 1.3762916 -0.29426208 7.3036146 0.04423435 1.7373836 0.20748396
4.788985 0.044843193 10.481417 -0.08012109 6.7836347 0.42024875 4.1517177 0.30345187
0.593977 0.0027266901 -0.10726478 -0.00749403 5.998676 0.6807865 3.6928015 0.19487002
6.8795543 0.024527479 8.758485 -0.08535956 7.096059 0.07865165 6.3495803 -0.4569974
-4.482453 -0.43333974 -0.9735864 -0.16790345 -6.7601194 0.4316054 -3.6543217 0.114082456
3.5525172 0.021879628 4.077911 0.004333512 -10.001468 0.0063448385 -2.7072434 -0.33482543
-8.611659 0.820258 -0.5376562 0.32262456 -8.529195 -0.029018572 1.638398 -0.14152554
0.8677566 0.3503484 -0.7358709 -1.0670042 -4.5134416 -0.11158112 -1.158168 -0.00959759
-7.62347 0.15749516 -4.3822627 -1.0243957 5.48501 0.11729291 1.668718 -0.7764297

sequential.0.bias f4 [128]
00000000: d234 87c0 11ac a73f 2665 4e3f 17af 5bc0
00000010: 9e0b c6be 3ebd c2bf 0480 47c0 2807 6ec0
00000020: 172b 65bf a9cf 933f 4373 dcbe 68ca dac0
00000030: 1844 89c0 ddb1 60bf 7eef 70c0 53c4 02bf
00000040: a444 67c0 917f 703f bb5d 8fbf aac7 8cc0
00000050: f974 88c0 0e54 17c1 7920 fb40 e507 a940
00000060: b9a8 ec3f 4eb1 f4bf d1ce 9dc0 9da4 11bd
00000070: b7e0 1ac0 ecf1 da3f 9d61 c740 846f 15c0
00000080: 032c 4540 ba27 f33e 67c6 b3bf c214 0640
00000090: 241e 8ac0 392b e83f b84a 37bf 379c 97bf
000000a0: c722 c63f f131 0040 3f97 e83f f7bb 83bf
000000b0: da3e 79c0 6483 8ebf 2665 083f 90ad 833f
000000c0: 3b9f 283f a5c0 a5bf 6048 5dbf e1d9 bd3f
000000d0: c0f9 5d40 0472 a4bf d735 0140 27d1 9640
000000e0: a396 83c0 8c00 f93f 36ff 8e3f 3e24 eac0
000000f0: 5546 77be b51e 833f 417e 2640 ad0f 25c0
00000100: 33d0 a1c0 2c67 2540 133f d53f 1d6a a2c0
00000110: 938f 7ac0 b29b 8b40 2f66 1b41 25e2 973f
00000120: e725 a1bf e905 46bf 7779 1dc0 7de0 4640
00000130: 33d4 1141 2eb7 e4c0 bf48 77c0 ee19 bfbd
00000140: bd71 0740 7d02 d33f 0dc6 e640 4858 703f
00000150: 1fdb 08bf 89be c0c0 b93b 89c0 5401 9a40
00000160: adaa c73f 29d8 e23f 380e f2c0 3d95 89bf
00000170: 4723 913f f4ca 9fc0 b332 dcc0 6781 9840
00000180: 961f 0c40 fa35 2540 1b8b fd3f 6330 71c0
00000190: fba8 3abd d857 de3f db66 68c0 c4d3 fc40
000001a0: 29a3 c2bf f45b eb3f 6aa3 0740 3322 aac0
000001b0: 1dd9 1bc0 60d1 40c0 9173 b73f c2cc 98bf
000001c0: 364a 07c1 f6aa 38c0 8007 2ac0 ede9 df3f
000001d0: 7a3d 843e 83cd b6bf 7468 3841 e153 d43f
000001e0: 8202 9cc0 65ad e9bf 9dd6 c2c0 b06a 13c0
000001f0: 2e22 bbbf c136 11c0 7e3d f73f b97a 8d3f
-4.225198 1.3099385 0.8062309 -3.4325616 -0.38680738 -1.5214002 -3.1171885 -3.7191868
-0.89518875 1.1547748 -0.43056688 -6.837208 -4.289562 -0.877714 -3.7646174 -0.51080817
-3.6135645 0.9394465 -1.1200479 -4.399373 -4.264279 -9.458021 7.847714 5.2822137
1.848899 -1.9116609 -4.931496 -0.035557378 -2.4199655 1.7105079 6.2306657 -2.3349314
3.0808113 0.47491246 -1.4044923 2.095017 -4.3161793 1.813819 -0.71598387 -1.1844548
1.5479363 2.0030482 1.8171157 -1.0291737 -3.8944612 -1.1133847 0.5327934 1.0287342
0.65867966 -1.2949415 -0.8643856 1.4832116 3.4683685 -1.2847295 2.0189111 4.7130313
-4.1121383 1.9453292 1.1171634 -7.316924 -0.24147923 1.0243746 2.601456 -2.5790818
-5.056665 2.584422 1.6659874 -5.0754533 -3.915013 4.362756 9.712447 1.1865889
-1.2589692 -0.7735277 -2.4605386 3.1074517 9.114306 -7.147361 -3.863815 -0.093311176
2.116317 1.6485134 7.211676 0.93884706 -0.5345935 -6.0232587 -4.2885404 4.812662
1.5598961 1.7722217 -7.5642357 -1.0748669 1.1338891 -4.9935246 -6.881189 4.765796
2.1894279 2.5814195 1.9808077 -3.7685783 -0.04557131 1.7370558 -3.6312778 7.9008503
-1.5206043 1.8387437 2.119349 -5.3166747 -2.4351265 -3.0127792 1.4332143 -1.1937487
-8.455618 -2.8854346 -2.6567078 1.7493263 0.25828153 -1.4281467 11.525501 1.6588098
-4.875306 -1.8256041 -6.088698 -2.3033867 -1.4619806 -2.268967 1.9315641 1.1053077

sequential.2.weight f4 [128, 128]
00000000: 5cb6 1bbf 3cfa a5be 8a7e 10bf 89d8 c03e
00000010: 5b09 47be b35b 69be cfa6 8d3d 8fde 6cbf
00000020: 5935 0c3e 7dc2 5ebf 8cf9 ebbd 7ee9 1ebf
00000030: 47a2 68be 6549 2a3d 8d28 ba3e a006 bb3c
00000040: 22d5 4fbe a612 aebe e839 ac3c 11c8 96bf
00000050: 0b01 85bf 8fb0 52bf 6f88 d33d 59b1 aa3e
00000060: d5f5 e5bf 809b 693e e4e5 21c0 f2db 863d
00000070: 66b1 a6be b704 633f 2a85 163f a21a 29bf
00000080: 8f62 07bf 8337 073f df55 d3be fedf d23e
00000090: 3403 27bf 746b 713d 50c7 373e e0bd 0a3e
000000a0: 5d12 a23d ecc5 94bb 65bc 1b3f ac6d 0dbf
000000b0: 034f 2cbe 3b54 b1be 5b36 253f 3536 143e
000000c0: 3a53 b73e dbf4 cdbd c0fe cbbe 2b50 383c
000000d0: 9bd3 f13e 2214 d6be 1ac3 8abd 05ed e8bf
000000e0: 6bff 99be 1e05 6c3e 479c 6cbf 5920 e4bf
000000f0: 1b6e 75be 9a82 e7be e49a 39bf 3971 d53e
00000100: 4462 79bf 9dbc 0b3f 74dd 0d3f 6a5e d5be
00000110: 1ee1 42bf a328 763f df6d c5bd b545 1dc0
00000120: d037 51bd 6e0e 1e3e d209 833e a12e c33f
00000130: aad2 c23f 41fc b2be c183 fabd eaec d43d
00000140: b676 2dba 096b 22bf e91d 4e3e 0505 ad3e
00000150: 8a3d f4be bac0 22bf 8f01 e0bd 9da3 743f
00000160: 544f 1e3f 202b f23d c5f9 53c0 b9cd 46be
00000170: 669f 553d 2663 9cbf f7ce b1bc b298 0abf
00000180: b685 b8bc 7a96 34bf 9bb2 7e3d 7826 13bf
00000190: e6ae 8c3b 8977 11bf c28a 96be 730a 0040
000001a0: 26c9 a8bc ea42 2dc0 8175 13bf 53c7 15bf
000001b0: fa64 203f a2f7 edbe ac51 4dbe ac96 e5bd
000001c0: a360 8fbf 3785 163f 0bbe bcbd 561d 853e
000001d0: 08e1 9ebe 8b95 b1bd d30b d23f 10ef b5be
000001e0: 4835 0cbf 4ac6 0abe bccf 3fbf 48ae 0e3f
000001f0: 7e14 e33d eb41 e9bd dbff f23e 39f7 973e
00000200: 733e bfbe 43a9 cc3c 09a2 52bd 6279 f3be
00000210: 79fa a2be 0f0e a6bd 3bbc 09bf 3b76 07bc
00000220: f1b4 743e eab5 8a3d 424c 2abd 0fd0 223e
00000230: 265b c73d 5155 22bf b4f2 39bf e13b 9a3d
00000240: 68a1 54bf 3c5f e83d 85db 04bf aa1c 413d
00000250: 47ba 32bf fefa f2bf da6a 79bf 240a 82bf
00000260: abe0 893e 146d 74be caa4 573c 5d21 1fbd
00000270: d2d5 463f 004e 60c0 aa94 89bb 4295 4d3c
00000280: 2f20 08be fb86 85bf d83e 633d 0250 9abf
00000290: 215e d73d 43e0 a1bc 98bf b8be cb96 f13d
000002a0: 026a 1f3e 2c9d e73c 1a85 97bf 73e3 cd3c
000002b0: 4fac b13d 9449 96bf febb f8be e2a4 33bf
000002c0: 376f efbd 136c 93bf e0ea 31bf 62d5 2bbf
000002d0: 27e7 4bbf 5cd8 e23e 6fa4 27bd 8a95 9b3e
000002e0: a459 d0bc 97d2 92bc 1c46 633e 279f 8c3c
000002f0: 28e1 db3e 76d6 89bb adf7 133c d96e 15be
00000300: 210c 123e 4b0d 6abf 2a37 07be 3667 1dbf
00000310: 97e1 37bf 6d3d aa3e a88e 3fbf 4c47 133f
00000320: 08b8 0c3e 724d 61bc 3ac8 96bf 6c56 d6bf
00000330: a12d 80bf 187c 43bd fffb 85bf 9469 48bf
00000340: a5dd 103e ed79 923d 4129 cabf 7a4d 3e3e
00000350: f7c4 723c 3476 aebf f1bb 393e b0b2 07be
00000360: c907 94be 38e4 e3bd 0334 f43b 24ab 443e
00000370: 7c20 39be d306 7b3d 7ecd 08bf 84bc 59bd
00000380: b3b2 253d 14cb 7fbd 3a63 04be 68fd 6dbf
00000390: fd15 d13d 9215 c8bf a888 83be 4c7b cabf
000003a0: c206 84be 2f05 bc3e 3332 1dbe 047b 483e
000003b0: 7e07 983a ba12 34be de4d 1ebe 33b9 79be
000003c0: 88e7 043e 1078 78be 5ab4 64bd 1ccc 76bf
000003d0: 8e6a 9cbd 91c4 20bd b9cf 543e db78 fc3d
000003e0: 4fc1 97bf 63d1 42bf 4ff0 fcbe f751 9a3d
000003f0: 542b e23d 5ae2 0bbe b731 61bd 4396 48bd
-0.60825133 -0.32417476 -0.56443083 0.37665203 -0.19437163 -0.22788887 0.06916582 -0.925271
0.13692226 -0.87015516 -0.11522207 -0.6207503 -0.22718154 0.0415739 0.36359063 0.022830307
-0.20296147 -0.33998603 0.021023706 -1.1779805 -1.0390943 -0.8230066 0.10328757 0.3333843
-1.7965647 0.22813225 -2.5296564 0.0658492 -0.3255722 0.8867907 0.5879694 -0.66056263
-0.52884763 0.5281908 -0.41276452 0.41186517 -0.6523926 0.058940366 0.17947125 0.13548994
0.07913659 -0.0045401957 0.6083434 -0.5524547 -0.16827016 -0.34634575 0.64536065 0.14473803
0.35805684 -0.10056468 -0.39842796 0.011249582 0.47231755 -0.41812235 -0.06775494 -1.8197333
-0.3007768 0.23048827 -0.9242596 -1.7822372 -0.23967783 -0.4521683 -0.7250197 0.41687945
-0.97415566 0.54584676 0.55416036 -0.41673595 -0.7612475 0.96155757 -0.09640097 -2.4573796
-0.051078618 0.15435192 0.2559343 1.5248605 1.522054 -0.3495808 -0.12232161 0.1039675
-0.00066171156 -0.6344457 0.20128597 0.33792892 -0.477032 -0.6357533 -0.10937797 0.95562154
0.61839795 0.11824632 -3.3121197 -0.19414414 0.052153967 -1.2217758 -0.021705134 -0.54139245
-0.022524696 -0.7054211 0.06218205 -0.57480574 0.0042933105 -0.5682302 -0.2940274 2.0006378
-0.020603728 -2.707209 -0.5760117 -0.5850727 0.6265408 -0.4647799 -0.20050687 -0.11210379
-1.1201366 0.5879702 -0.09215935 0.25998944 -0.3103106 -0.08671101 1.6409858 -0.35533953
-0.547688 -0.13552204 -0.7492635 0.5573468 0.11087893 -0.11389526 0.47460827 0.29680803
-0.37352332 0.024983054 -0.05142406 -0.47553545 -0.3183172 -0.0810815 -0.5380284 -0.008267934
0.23897149 0.067729786 -0.04157663 0.1589968 0.09734182 -0.6341143 -0.7263596 0.07530952
-0.83058786 0.113462895 -0.5189746 0.047146477 -0.69815487 -1.8982847 -0.9742867 -1.0159345
0.2692922 -0.23869735 0.013161847 -0.038850177 0.77670014 -3.5047607 -0.0041986303 0.012547793
-0.13293527 -1.0431818 0.055479854 -1.2055666 0.105160005 -0.019760257 -0.36083674 0.117963396
0.15567783 0.028273188 -1.1837494 0.02513287 0.086754434 -1.1741204 -0.48580927 -0.70173466
-0.116911344 -1.1517357 -0.69499016 -0.6712247 -0.79649585 0.44305694 -0.0409283 0.30387527
-0.025433369 -0.017922683 0.22194713 0.017165734 0.42945218 -0.004206474 0.0090312185 -0.14593066
0.1426244 -0.91426533 -0.13204637 -0.6148561 -0.718286 0.3324999 -0.7482705 0.57530665
0.13742077 -0.013751375 -1.1779854 -1.6745124 -1.0013925 -0.047725767 -1.0467528 -0.782861
0.1414705 0.07152162 -1.579384 0.18584242 0.014817468 -1.3629823 0.181381 -0.13251758
-0.2891219 -0.11127514 0.0074524893 0.1920591 -0.18078798 0.061285805 -0.53438556 -0.053158298
0.040453624 -0.06244953 -0.12928477 -0.9296479 0.10209272 -1.5631583 -0.25690198 -1.5818877
-0.25786406 0.36722705 -0.1535118 0.19578177 0.0011598913 -0.17585269 -0.15459391 -0.24387054
0.12978947 -0.2426455 -0.05583606 -0.96405196 -0.07637511 -0.03924996 0.20782365 0.12327739
-1.1855868 -0.7610075 -0.4940209 0.07535165 0.110434204 -0.13660565 -0.054979052 -0.048971426

sequential.2.bias f4 [128]
00000000: 9b0a d63f b70e 0d3f 8e98 913e 601c 82bd
00000010: 6072 f03f 5d7e bebd eabe f33f 975e b4bd
00000020: 8f94 e93f ed09 fe3f 0fc0 5a3f 3dc3 aebd
00000030: 5c5b 34bf c3c5 a3bd 1475 b23e 2bd7 7640
00000040: 970e 3fbf 2ea3 5940 d38b f23f dfe5 20bd
00000050: 8ba1 f3bb d164 cb3f 73b2 c7bd 575a 1f40
00000060: eb4d 0fbd 5a7e 8840 c61c 02bd bb6f c7be
00000070: 7974 3a3f 1b22 e83f 4c00 d83f 04c1 6140
00000080: 2e2d 373f e5c4 6f3f 77a4 9c3f 70bc 2640
00000090: fc73 593f 20ce 5640 bf7f a33e 50c1 4b40
000000a0: 88b9 8ebd c02e 09bd ce6c 56ba 26ff 583e
000000b0: b5ff a23f 1e77 8ebd df93 ddbf b53f f73f
000000c0: a3d1 473f 9c6b 8a40 adb2 0140 ef6e f43f
000000d0: fdec 543e 37c8 b1c0 ad1b a23e aaae 273f
000000e0: 7451 1bbe 4f84 83bd b616 9d3f 992c 0d40
000000f0: e271 ccbe 4f05 21c0 bcb5 8e3f 1927 f93f
00000100: 62a4 2d40 de33 f2bc 0427 1940 ef7a 1c3e
00000110: 0ccf 343f 75bf 6240 c2e9 0640 85ec d7be
00000120: 188c 0e40 d9fc 823f 4693 3dbe 38f7 6040
00000130: 6daf 123e 7700 f8bc 1845 c43f bbb0 da3f
00000140: fc09 0c3f fa65 9dbd a740 1f3f 7d88 2bbe
00000150: db37 8fbe d564 fd3f 802e bebd 15cb 43bd
00000160: faa8 1a40 5766 f13f 66b4 a83f ec93 fb3f
00000170: 2b1d 903e 2433 7bbd 37e9 253b fbe2 1240
00000180: 7727 403e 4ad3 f73f 05ee f33f 6ab8 77bc
00000190: 48a5 93bc fcb1 e13f 6e41 9b40 3634 7bbd
000001a0: 572e b53d 2d15 61bd bc91 a63f ca77 df3d
000001b0: a8b0 a9c0 fc58 6e3e f09f fdbc d776 0540
000001c0: b392 f63f 8787 6f40 2ad9 483f a0b7 b5bd
000001d0: dcb1 ccbc baf2 2d40 22f1 f03f ce68 283d
000001e0: 47b5 a7bd 44b7 f73f 5fe4 0c3f 0a3c 02be
000001f0: 9b40 fdbd dbf1 0640 e198 87bd cacb 743f
1.6721987 0.5510058 0.28436702 -0.06353068 1.8784904 -0.09301446 1.9042637 -0.08807104
1.8248461 1.9846779 0.8544931 -0.085333325 -0.70451903 -0.079967044 0.3485495 3.8568828
-0.7463164 3.4005847 1.8948921 -0.039281722 -0.007435029 1.5890142 -0.09750833 2.489889
-0.034986418 4.265424 -0.03176572 -0.3895243 0.72833973 1.8135408 1.6875091 3.5274057
0.71553314 0.9365981 1.2237691 2.6052513 0.84942603 3.3563309 0.319334 3.1836739
-0.06968981 -0.03349185 -0.00081796653 0.21191081 1.2734286 -0.069563136 -1.7310752 1.9316317
0.78054255 4.325636 2.0265305 1.9096354 0.20793529 -5.5556903 0.3166174 0.6550089
-0.1516779 -0.0642172 1.2272556 2.205847 -0.39930636 -2.515949 1.1149211 1.9465057
2.7131581 -0.029565748 2.3930063 0.1528127 0.7062843 3.5429356 2.1080174 -0.42172638
2.2273006 1.0233413 -0.18513212 3.515089 0.14324732 -0.03027366 1.5333586 1.7085184
0.54702735 -0.07685466 0.62208027 -0.16751285 -0.27972302 1.9796396 -0.09286213 -0.047801096
2.4165635 1.8859357 1.3180053 1.9654517 0.28147253 -0.06132807 0.0025316009 2.2951038
0.18765055 1.9361355 1.9057013 -0.015119651 -0.018023148 1.7632442 4.851737 -0.06132909
0.08846729 -0.054951835 1.3013225 0.1091152 -5.3028145 0.23276132 -0.030960053 2.0853784
1.9263519 3.742647 0.78456366 -0.08872914 -0.024987154 2.7179399 1.8823588 0.041115575
-0.08188873 1.9352803 0.55035967 -0.12718216 -0.12365838 2.1085117 -0.06620956 0.9562346

sequential.4.weight f4 [1, 128]
00000000: 925a 27bf 1963 4c3b ad0e a13c 46fb ee3d
00000010: 3694 9cbe 6af8 d93d 615b 6dbf f9d9 8c3d
00000020: 4814 a2be 910e 6440 36d9 06bf 19e8 a8bb
00000030: d439 28bf 8f02 113c b01e f4bc 2529 4fc1
00000040: 40fb 2ebf 183a c1c0 7ea3 3abf 361c de3c
00000050: c358 e0bd 73c9 2bc0 0a1b 913d eb48 bd40
00000060: 4ec3 e83c 3038 3d40 927b a8bd 9a52 d23d
00000070: 2789 e2be 6420 aabf d847 ebbf ab4f 4640
00000080: d31a 1f40 39de 3d40 b9cf a5be 2703 803f
00000090: 210b 1dbf 6b27 8240 5c3f 25bf 8d28 a4bf
000000a0: ef0c 8d3d 9638 16bc 0f30 c93c 33e6 e63c
000000b0: ff32 df3e 6bbc a53d 0741 aa3f 0f8b c9be
000000c0: a2de 83be 928e cabf a0f2 a9bf e1a6 fe3e
000000d0: 0a4c bb3c 7ef3 e93f 5877 553d 9ac6 3e3c
000000e0: 4f4b f03d f572 85bc 1924 973f ca05 dbbf
000000f0: d7df 253e f6bc 403f 1a1d eabc 90ce e4be
00000100: 1fed e7bf be52 37be 4805 dcbc 60ac 03be
00000110: 0541 433f 441d a8c0 4140 5cbf 5848 0dbb
00000120: 27b9 86bf 8481 1dbf 1a24 bebc 80c4 0240
00000130: 182e bfbd d2bc e43d f6a5 d3bc 68b8 c1bf
00000140: fd70 2dc0 b443 4abb bef9 bb3b f93d f8be
00000150: 0c33 6bba dc7a 86be 0fb2 da3c 2178 423b
00000160: a655 50bf 3940 c3be 7860 9dbe 4ef0 e8be
00000170: 878a 8cbc 3a8a 0f3e d5bb da3d cad4 e7bf
00000180: 71bb f1bd 6566 e2be 0bd7 bebe 1126 b73d
00000190: 9f29 a83c 7598 40bf 8a2e 2ac0 4302 933d
000001a0: 5586 3f3e e71f a6bd 0c02 cbbe 5435 b43d
000001b0: 7a1a fd3f 28ae 133e 0882 5b3d be7b c6be
000001c0: bc6d cebe 3af0 d8c0 c5d2 19bf 8e03 27bd
000001d0: c84a 283e 3a20 c9bf cfeb 92be 9659 bebb
000001e0: 9f6f d23d 31e6 52bf 5618 8e3e 811e 223c
000001f0: e053 e33d 1e9c dabe 33cd 36bd f2dd 04bf
-0.65372574 0.0031186996 0.019660318 0.1166902 -0.30581826 0.10643084 -0.9271756 0.068775125
-0.31656098 3.563389 -0.5267519 -0.0051546213 -0.6571324 0.008850708 -0.02979979 -12.947545
-0.6835213 -6.0383415 -0.7290572 0.027113061 -0.1095443 -2.6841705 0.070852354 5.915151
0.028413441 2.9565544 -0.08226694 0.10269661 -0.44245264 -1.3291135 -1.83813 3.0986125
2.4860122 2.9666884 -0.32385042 1.0000962 -0.61345106 4.067312 -0.64549804 -1.2824875
0.068872325 -0.009168765 0.024559049 0.02818594 0.43593594 0.080925785 1.3301095 -0.39363906
-0.25755793 -1.5824759 -1.3277168 0.49736694 0.022863407 1.8277433 0.05211577 0.01164403
0.11733114 -0.016290167 1.1807891 -1.7111142 0.1619867 0.7528833 -0.02857833 -0.44688845
-1.8119239 -0.17902657 -0.026857987 -0.12858725 0.76271087 -5.2535725 -0.86035544 -0.0021558013
-1.0525254 -0.6152575 -0.023210574 2.0432434 -0.093349636 0.11168827 -0.025835972 -1.5134401
-2.7100213 -0.0030863108 0.0057365587 -0.4848478 -0.0008972145 -0.2626561 0.026696233 0.0029673653
-0.8138069 -0.38134935 -0.30737662 -0.45495838 -0.017155899 0.14017573 0.10680357 -1.8111813
-0.1180333 -0.44218746 -0.3727344 0.089428075 0.020527659 -0.7523263 -2.6590905 0.07178166
0.18703587 -0.08111554 -0.3965 0.08799234 1.9773705 0.14421904 0.053590804 -0.38766283
-0.40318096 -6.7793245 -0.60087234 -0.040774874 0.16434777 -1.571296 -0.28695533 -0.0058090193
0.10275196 -0.82382494 0.27752942 0.009894968 0.11099982 -0.42697233 -0.044629287 -0.5190116
