policys/model_valueH2.pth (torch, 71930 bytes, 5 tensors)

sequential.0.weight f4 [128, 4]
000000 24 c7 10 40 46 f1 40 bc dc 57 ea 3e f8 c4 7d 3c
       2.2621546 -0.011776274 0.45770156 0.015488856
000010 0d 96 9f 40 5c 59 ba bd a1 18 19 40 03 88 a0 be
       4.9870667 -0.09099075 2.3921282 -0.3135377
000020 66 53 34 c1 4a 6f 00 be 89 ba 35 c0 59 9f f4 3b
       -11.270361 -0.12542453 -2.8395102 0.007465285
000030 4a 76 4d c0 1a b5 5c bb 42 b8 f6 40 e9 1f cc bc
       -3.2103448 -0.003367728 7.7099924 -0.02491756
000040 3e 9f 71 bf f2 4c 8e bb 95 11 78 bf c3 24 78 be
       -0.9438361 -0.0043426687 -0.9690183 -0.24232773
000050 41 76 30 c0 f9 70 86 bd 75 fa b8 3f ee d9 e8 3c
       -2.7572176 -0.065645166 1.4451433 0.02842423
000060 a3 5f 15 3e bd e6 b1 3a 64 3a 1a 40 d4 10 7f bc
       0.14587264 0.0013572794 2.409814 -0.015567977
000070 fc 3e 30 41 07 d5 0a be f6 26 b8 3f 70 6a 5d bc
       11.015377 -0.13557826 1.438689 -0.013514146
000080 b4 63 3c c1 3e 54 b9 3c a9 c7 9c bf 02 d6 03 ba
       -11.774342 0.022623178 -1.2248431 -0.0005029143
000090 9a 0b f2 bd 9a 5a ed ba 22 de d2 40 4a 43 4c 3b
       -0.11818619 -0.0018108666 6.589616 0.0031168037
0000a0 32 9f 04 c1 84 ef 82 be 1f 44 fa be 1e 5c 49 3d
       -8.288866 -0.2557336 -0.48880097 0.049160115
0000b0 6d 21 3e c1 af 82 1e be 24 f4 31 bf 23 ac d4 3c
       -11.883161 -0.1547954 -0.69513154 0.025960987
0000c0 9e 08 67 c1 5d 8a 2f bf 69 58 0d c0 35 fe aa 3b
       -14.439604 -0.685705 -2.2085211 0.005218292
0000d0 6c 93 f3 be 8e 9e 42 bc db 78 06 40 61 75 3a bc
       -0.4757341 -0.011878623 2.1011264 -0.011380524
0000e0 ff 14 06 41 9b f5 b5 bd 1a 3a 6a 40 91 42 f2 bb
       8.380126 -0.08884736 3.6597962 -0.0073931892
0000f0 09 36 e5 3e 03 bc 92 3e da 15 86 bf 31 fa 24 3d
       0.44767788 0.28659067 -1.0475419 0.040277664
000100 1c 52 36 c0 46 6b db bc 65 82 13 bf 46 7f 41 3e
       -2.8487616 -0.02678455 -0.5762084 0.18896207
000110 98 e9 59 c1 a6 65 2f bd d2 8c e8 bf 53 b7 1f 3c
       -13.61953 -0.04282155 -1.8167975 0.009748298
000120 c0 62 2c 3f f5 b0 16 3b 7a df a6 3f 00 2b c0 3e
       0.6733818 0.0022993658 1.303695 0.37532806
000130 9d ce 6a c1 f5 34 13 bf 36 76 59 40 8f 2b c0 bc
       -14.675443 -0.5750268 3.39784 -0.02345827
000140 7e c5 47 40 c2 17 40 be 79 b7 13 41 93 f3 82 3d
       3.121429 -0.18759063 9.232293 0.06394114
000150 f6 17 3c be a8 0e 9b 3a d0 a1 0c 40 4d 3f 67 bd
       -0.18368515 0.001182993 2.1973763 -0.056456853
000160 0e e2 9d 3d f9 d6 28 bd 4c d2 25 40 c3 93 db 3f
       0.07709132 -0.04122064 2.5909605 1.7154468
000170 69 f3 12 41 8f 74 c9 bd e1 5d cf 40 5f 1d bc bc
       9.184426 -0.09836685 6.48021 -0.022963224
000180 8b 5b 72 c1 e9 25 8d be 40 c6 4e c0 47 1b 75 3b
       -15.147349 -0.27567986 -3.2308502 0.0037400292
000190 91 d7 fb bf 7b ae 5c be a9 1a bb 40 1b 48 80 bd
       -1.9675161 -0.21550934 5.8470044 -0.06263753
0001a0 64 74 a1 40 fa ed 9c bd 17 00 7a bd 0e 7b 0b 3d
       5.045458 -0.07662578 -0.061035242 0.0340529
0001b0 e2 1e b6 40 62 b0 24 bd d9 59 91 3f 80 20 da bd
       5.69127 -0.040207274 1.1355544 -0.1065073
0001c0 6f 41 09 c0 74 01 d9 3a 50 71 2c 41 65 f9 c3 bc
       -2.1446187 0.0016556219 10.777664 -0.023922632
0001d0 0b aa 04 41 24 d1 53 bc 67 d0 86 40 4e 1c 54 bb
       8.291514 -0.012928281 4.2129397 -0.0032365504
0001e0 73 65 b9 c0 39 60 22 bd 32 2f d7 bd 45 ef fc 3d
       -5.793634 -0.039642546 -0.10507049 0.123503245
0001f0 d2 8f f5 c0 8b 17 4c be c6 6c 29 3f 8e 7a 22 be
       -7.673806 -0.19930856 0.661816 -0.15867063
000200 85 0c 28 c0 de 03 50 bb 54 0e ca 3f ce 6e d1 bc
       -2.6257641 -0.0031740586 1.5785623 -0.025565531
000210 46 03 33 41 d8 78 87 3d 6c ab 0e 3f 96 c9 86 3a
       11.188299 0.06614846 0.5573032 0.0010283466
000220 f2 20 f0 bf 94 3f ff bb df 37 3f c0 38 7d 66 3b
       -1.8760054 -0.0077895615 -2.987785 0.003516985
000230 52 51 fe c0 60 71 b7 bd a2 f6 9c 40 02 83 0c bd
       -7.947427 -0.089571714 4.9051065 -0.034304626
000240 e7 ac e4 bf f4 b8 85 be 03 68 c9 3f 8c b7 16 3d
       -1.7865266 -0.2611767 1.5734867 0.036796138
000250 5d c9 be 40 9a db 28 bd e3 4b 65 40 b2 0b 2c 3d
       5.9620805 -0.041225053 3.5827568 0.04200334
000260 e4 a7 18 41 38 fb ea bd ff 74 04 41 18 ef 9a bc
       9.540989 -0.114736974 8.2785635 -0.018912837
000270 3a a9 c3 40 9d 2c a7 bc ec 63 d1 bf 7f 47 1d 3e
       6.1144075 -0.020407015 -1.6358619 0.15359305
000280 03 68 ec c0 47 5c d2 bd 42 cf 8c 40 ee ce e8 bd
       -7.3876967 -0.10271507 4.4003 -0.11367594
000290 22 0f c3 40 63 23 82 bd c2 0d 5e 40 16 75 56 3e
       6.0955973 -0.06354406 3.4695897 0.20943102
0002a0 79 6a 8f 3f 7a 34 e7 be 6a 3c 9f 40 ba e7 40 bd
       1.1204368 -0.45157224 4.976125 -0.04709599
0002b0 49 f5 e3 c0 98 ff 46 3d b7 36 09 be 69 1a 18 3c
       -7.123692 0.048583597 -0.13399778 0.00928364
0002c0 cf 87 34 c1 75 04 c1 3c c1 04 ca 3f 12 44 95 3c
       -11.283156 0.023561696 1.5782701 0.018220935
0002d0 c1 fb 21 c1 25 26 1c be 55 0b d4 bf 76 33 28 3c
       -10.123963 -0.15248926 -1.6565958 0.0102661755
0002e0 c4 e7 81 40 4f 28 21 bf 1b c5 31 41 51 67 d0 3c
       4.0595417 -0.6295213 11.110621 0.02543989
0002f0 5e 8b 57 c0 8e 45 b5 bd e9 f3 f3 c0 b2 79 b7 bc
       -3.3678813 -0.08851157 -7.623524 -0.022396896
000300 7d 12 fc c0 ec 98 2b be 9e 52 b4 3f 2f 44 2c bb
       -7.877257 -0.16757554 1.4087713 -0.0026285758
000310 fa 3a a7 40 38 2a 01 be 72 5e 6e c1 62 85 cb 3d
       5.2259493 -0.12613761 -14.898058 0.0993755
000320 f7 31 f7 bf 74 c4 a4 be 99 29 16 c0 3d 61 93 3d
       -1.9312123 -0.32181132 -2.346289 0.07196281
000330 2f 84 8c c0 a5 dd 38 3e 29 4e b8 3d 39 4b c0 3c
       -4.3911357 0.180533 0.08999283 0.023473369
000340 1e 9f cb be 23 b9 46 3a 13 76 66 bf f1 db 67 3c
       -0.39769834 0.0007580688 -0.90023917 0.014151559
000350 64 31 c1 bd 78 03 2d bc 0a 1d 2e 3f 27 88 80 3f
       -0.09433249 -0.010559909 0.6801306 1.004155
000360 7c d1 5b c0 10 c8 09 be 7f e9 76 c0 90 3e ff 3d
       -3.434661 -0.13455224 -3.8580015 0.12463105
000370 df 4b 1a c0 26 88 23 be 0f a3 ba 40 f7 a0 b2 3d
       -2.4108808 -0.15969905 5.8324046 0.08722108
000380 47 0b 30 41 8e 81 4f bd fb 53 7c 3e 5f 43 12 3d
       11.002753 -0.050660662 0.24641411 0.03570878
000390 b8 27 7e bf e0 4e b1 bd 4f ad 19 3e a9 78 f8 be
       -0.99279356 -0.08657622 0.15007518 -0.48529556
0003a0 c3 e0 78 c0 76 2b 16 3c 00 65 f6 c0 67 45 68 3f
       -3.8887184 0.009165635 -7.699829 0.907309
0003b0 d9 ab 1d c1 0b fe ad be 7e 74 61 c0 1f 85 8d bd
       -9.854455 -0.33982882 -3.522735 -0.069101565
0003c0 c3 7f b4 40 b1 44 6a be a5 a5 0a 40 aa c7 e1 bc
       5.640596 -0.22877766 2.1663601 -0.027561028
0003d0 dc fa a8 c0 99 1c 1f be 42 dd c0 3e cf 5f be 3e
       -5.2806225 -0.15538253 0.37668806 0.3718247
0003e0 d4 21 2c c1 d4 c6 6d be bd 80 83 c0 0d f3 c0 3e
       -10.758259 -0.23220378 -4.109465 0.37685433
0003f0 4e 5a 36 41 0c ea 53 bd 12 f5 c8 bf a6 6b f7 bc
       11.397047 -0.051736876 -1.569979 -0.030202698

sequential.0.bias f4 [128]
000000 00 3a 36 41 07 7f c2 40 f0 3e 2e 40 a2 00 3a c0
       11.38916 6.0780063 2.7225914 -2.9062886
000010 30 a1 3e 41 d8 d7 21 41 34 be 45 41 3e d6 41 40
       11.914352 10.115196 12.358936 3.0287013
000020 94 69 7e 3f da 56 9c c0 48 6e fa 40 1a 83 61 bc
       0.9937985 -4.885602 7.825962 -0.013764167
000030 fd c3 38 c0 b5 bd 3e 41 d0 26 32 bf bd b2 6e 40
       -2.8869622 11.921315 -0.69590473 3.7296593
000040 c8 1e 1d 41 52 7d 07 40 2d 15 47 41 5b 6b ca 40
       9.820015 2.117024 12.44267 6.325605
000050 fd 11 8e 40 d6 cf 3e 41 e2 20 22 40 5e fd 78 40
       4.439696 11.925741 2.533257 3.8904643
000060 0b 76 a8 40 aa 3c 73 40 d3 1a 7d c0 b2 19 68 40
       5.2644095 3.8005776 -3.9547622 3.6265683
000070 ff 12 85 40 5e 51 e5 40 dc 8f 5f 40 7f 1d 96 c0
       4.158569 7.1661825 3.4931555 -4.6911006
000080 2e ee 18 c1 18 e0 a2 bf 65 c7 df c0 d2 52 97 40
       -9.558149 -1.2724638 -6.99309 4.72886
000090 a5 53 d9 3e 8c c5 ae 40 d6 0a bb 3f fa ac 82 40
       0.42446628 5.4616146 1.4612682 4.0836153
0000a0 d6 e5 99 3f ac db b8 c0 63 ff af 40 1e 79 84 40
       1.2023265 -5.7768154 5.499925 4.139785
0000b0 09 a3 fe be 98 4d a1 3e 92 e0 5b 40 1b b2 ef 40
       -0.4973376 0.31504512 3.4355817 7.4904914
0000c0 2e a7 ef 40 83 1f ed 3e b7 d1 23 c1 a6 dc e2 40
       7.4891577 0.46313104 -10.2387 7.0894346
0000d0 45 b6 01 c0 20 b2 db c0 2d 01 93 c0 17 40 2f 41
       -2.0267498 -6.865494 -4.5938935 10.953147
0000e0 6f 0d 66 40 a1 66 ab 40 5a c2 a1 40 08 a3 d7 3f
       3.59457 5.356278 5.0549746 1.6846628
0000f0 52 d2 b2 40 6d 93 16 c1 f8 0e c9 c0 54 6b 89 40
       5.588174 -9.410993 -6.2830772 4.2943516
000100 07 1b a9 40 26 1a 04 40 32 ec 03 c0 ea 9c 40 40
       5.284549 2.064096 -2.0612912 3.0095773
000110 ab 0d b6 bf c3 11 bb 40 b5 84 f1 40 e0 b0 19 41
       -1.4222921 5.845918 7.5474496 9.605682
000120 70 6c 4f 40 45 6d 8a 40 1c ce 1c 40 25 33 db 40
       3.2409935 4.3258386 2.45008 6.849993
000130 0e 36 06 41 7c 23 70 40 fa d3 b4 c0 34 69 0f 41
       8.388197 3.7521658 -5.650876 8.963184
000140 69 3b 2c 3c e8 6d 9f c0 35 c7 d3 40 96 43 dc c0
       0.010512211 -4.9821663 6.6180673 -6.88325
000150 22 56 67 40 d8 ec 31 c1 ed 3c 88 c0 4f aa bf bf
       3.6146321 -11.120323 -4.257437 -1.4973849
000160 67 57 e1 bf d7 c3 0b 41 f2 f7 fe 3f 8a 47 4d 40
       -1.7604798 8.735312 1.9919417 3.2074914
000170 54 f6 48 c0 e7 67 82 40 71 73 f0 3f 20 c8 7d 3f
       -3.1400347 4.0751834 1.878523 0.9913349
000180 2d 19 d4 bf d0 e0 e0 40 84 30 c0 c0 1c 5a 48 c0
       -1.6570183 7.027443 -6.0059223 -3.1304998
000190 25 d7 2a 40 20 53 f2 40 79 1e a0 40 9a 04 28 c0
       2.6693814 7.572647 5.00372 -2.6252809
0001a0 c7 7f bf 40 bc 79 9a 40 b9 87 0d c1 11 b9 f0 bf
       5.984348 4.82736 -8.845635 -1.8806478
0001b0 83 75 7e 40 39 01 43 3f 96 7f 84 c0 1a 09 22 41
       3.9759223 0.7617374 -4.1405745 10.127222
0001c0 bf 47 bb c0 bb 60 ce 40 e0 69 ee 40 78 ab 24 40
       -5.852508 6.449308 7.450424 2.5729656
0001d0 ef 62 fd c0 b7 a8 b6 40 9f 8b 02 41 c5 df ae 40
       -7.918327 5.708095 8.159087 5.4648156
0001e0 82 cd 2e c0 d6 e0 59 40 42 65 16 40 43 dc 4e 41
       -2.7312932 3.404348 2.3499303 12.928775
0001f0 22 65 08 41 ce 4d 0f 40 e8 e4 83 be ac d8 dc c0
       8.524691 2.2391238 -0.2576058 -6.901449

sequential.2.weight f4 [128, 128]
000000 08 5e f3 3e c0 4d 37 3f 80 2b 9a c0 a7 c4 a6 bf
       0.47532678 0.7160301 -4.81781 -1.3028764
000010 e9 aa 21 be 85 17 43 bf 8e 75 f1 be 11 0a b1 3f
       -0.15787853 -0.7620776 -0.4716 1.3831197
000020 ca 50 b6 c0 61 3e 07 3e 93 11 94 bf 28 f7 3f c0
       -5.697362 0.1320739 -1.1567863 -2.9994602
000030 e1 76 a8 bf 6d 37 26 bf f6 17 0f 3f 31 7b 8a 3e
       -1.3161279 -0.64928323 0.55895936 0.27047113
000040 96 cc 64 3e 8a 7b 9e c0 cf b9 0f be 66 c1 51 3f
       0.22343668 -4.9525805 -0.14035724 0.8193573
000050 0b f6 b5 3f 6d ba 59 bf be 52 25 bf fb 32 a3 3f
       1.4215711 -0.8505009 -0.6457938 1.2749933
000060 a8 66 0b c0 1d 55 b0 3f c8 13 a0 40 40 c2 9c bd
       -2.1781406 1.3775975 5.0024147 -0.07654238
000070 79 5a fd 3e 72 8a b1 3f 82 6b 69 be e9 70 74 c0
       0.49483088 1.3870375 -0.22794917 -3.8193915
000080 90 08 55 be 65 7a 58 3e a4 6c bf bd dd e3 d3 3e
       -0.20804048 0.2114044 -0.093468934 0.41384783
000090 f1 48 7c 40 22 d1 d9 3e 12 9b bf 3f fd 7f a8 3d
       3.941952 0.42542368 1.4969199 0.08227537
0000a0 b5 87 76 bf e7 d3 00 40 e8 51 2a 3f ae 0c 99 3e
       -0.9630082 2.0129335 0.6653123 0.29892486
0000b0 4f 2e be bf ff 47 cd bf e2 cc a8 3f d7 5b 24 be
       -1.4857882 -1.6037596 1.3187525 -0.16050659
0000c0 3d b2 26 bf 9a 43 02 40 d4 05 3f bf 30 82 3a 3e
       -0.6511572 2.035376 -0.7461827 0.18213725
0000d0 bf 9b 84 bc 82 99 23 3e 7e ec 44 3d ef 9d d1 3d
       -0.016187547 0.15976527 0.0480771 0.102352016
0000e0 f0 b8 86 3f dd 8c ab be 0e 53 3c bf b6 b5 6b 3f
       1.0525188 -0.33505908 -0.7356423 0.92074144
0000f0 d9 72 06 40 b6 68 79 3f 88 7a 1e bf c8 51 68 3f
       2.1007597 0.974254 -0.6190572 0.9074979
000100 57 01 08 40 f8 c7 c0 c0 26 a0 6d 3e 2f 86 d1 bf
       2.1250818 -6.0244102 0.23205623 -1.6369075
000110 e9 c6 ae bc 2e b9 17 bf 9d 71 99 3e 5c 33 e2 bf
       -0.021335082 -0.59266937 0.29969493 -1.7671924
000120 57 4b 2d 3e a9 77 ac 3f 08 4f c4 3f 89 85 01 40
       0.16923271 1.3474017 1.5336618 2.0237753
000130 48 b7 2c be 51 f6 af 3f 22 08 78 3d 21 ac 21 bf
       -0.16866791 1.3747045 0.06055463 -0.6315327
000140 58 9a dd 3f fb d6 de bc c8 f5 30 40 4d 0f 4f bd
       1.7312727 -0.02720212 2.7650013 -0.0505517
000150 c8 20 0e 40 bd 29 3c 3e fa 87 4e be a7 22 26 3e
       2.2207508 0.18375297 -0.20169058 0.16224156
000160 32 2a db 3f d7 fd 19 3f fb 08 0e bd 36 09 99 be
       1.7122252 0.60152954 -0.034676533 -0.2988984
000170 76 a5 91 3e 2b 92 08 3f fd 4f 84 be 00 29 59 c0
       0.2844655 0.53348035 -0.25842276 -3.3931274
000180 64 c3 b8 bf 29 94 38 3f b2 96 c7 3d 45 5f 85 3e
       -1.4434628 0.72101074 0.0974554 0.26049247
000190 04 8a 0e 3e 4c b8 8c c0 c5 2b 48 3f 8f 9a 7b 3f
       0.13919836 -4.397497 0.78191787 0.9828271
0001a0 c5 c5 bc 3d 1b a6 ec 3e 72 e1 86 3d 72 16 6f 3f
       0.09217409 0.46220478 0.06585969 0.93393624
0001b0 a5 a1 c5 be 31 f7 88 3f 84 8f a4 3e 20 f9 0b 3f
       -0.38599887 1.0700437 0.32140744 0.5467701
0001c0 63 87 a0 bd 2c 19 a4 3f 08 d6 b1 3f 26 d9 fd 3f
       -0.07838323 1.2820182 1.3893442 1.9831893
0001d0 89 33 c9 be 1a a8 b3 3e 0a a3 b8 bf c9 96 b1 3f
       -0.3929713 0.3508919 -1.4424756 1.3874141
0001e0 d9 f5 a8 3e 5b fa 41 3f 5c 86 ea 3e 01 ec 79 be
       0.33000067 0.7577264 0.45805633 -0.24406435
0001f0 b3 d4 90 3e db 21 c7 3f a1 ab 0c 3f 12 10 71 3f
       0.28287277 1.5557207 0.54949385 0.94165146
000200 39 4f ae 3d b3 a0 46 3d 89 76 76 be a3 ca c8 ba
       0.08511204 0.0484931 -0.24068655 -0.001531918
000210 28 96 1f 3f 5a 24 3a 3e fb 06 51 3f 29 e7 92 bf
       0.62338495 0.1817793 0.81651276 -1.1476794
000220 bd e7 11 be f1 bd f1 3d 47 b1 44 bd b9 e3 2a be
       -0.14248557 0.118038066 -0.048020627 -0.16688432
000230 0c a2 7c bf 88 f2 51 3f d3 b8 1d bf 98 9c 52 c0
       -0.98684764 0.820107 -0.61610144 -3.2908077
000240 be 01 98 3f e5 8e f8 be 6f ad 46 3f d3 66 a8 bd
       1.1875532 -0.4854652 0.7760839 -0.08222737
000250 81 4d 76 c0 38 80 95 3f 51 57 b0 3e 9c 76 dd bf
       -3.8484805 1.1679754 0.34441617 -1.7301822
000260 c8 4e 42 be 4c 60 74 bf f3 07 0c bf f4 17 46 c0
       -0.18975365 -0.9545944 -0.5469963 -3.095212
000270 65 6b 96 bf 17 a3 26 c0 dc dd 0e 3f 73 b2 9a be
       -1.1751524 -2.6037042 0.5580728 -0.3021427
000280 b2 74 73 3d 9d fb 74 c0 e5 45 69 bd 39 b7 e9 be
       0.05943746 -3.8278573 -0.056951422 -0.456476
000290 73 03 a9 3e 30 39 ad be cf bc 21 c0 9a c2 81 c0
       0.33010444 -0.33832693 -2.527149 -4.055005
0002a0 45 fd bd bb dc 7b 02 be a2 2d 10 c0 35 4d 04 be
       -0.0057980143 -0.12742561 -2.2527852 -0.12920077
0002b0 a5 b6 29 3d e9 92 60 bf 39 be 0f c0 5f c7 bf 3f
       0.04143395 -0.8772417 -2.2459853 1.4982718
0002c0 e8 98 ba bd 35 a2 17 bf 03 1c a7 be db 29 69 bf
       -0.09111196 -0.59231883 -0.3263856 -0.9107949
0002d0 d5 0a 19 be 4d 62 fa bd a5 81 97 be 7c 52 99 be
       -0.14945538 -0.12225781 -0.29591098 -0.29945743
0002e0 8c b6 27 c0 52 85 13 3d ae 8a 54 3e 9c 39 2c be
       -2.6205168 0.036015816 0.20756027 -0.16818851
0002f0 fc 6e 5c bf ca ca 70 bf 93 9a 18 bf e9 cd 75 bf
       -0.8610685 -0.9405943 -0.5961086 -0.9601732
000300 a1 30 24 c0 2e aa 28 3f 0f 09 35 c0 c9 a5 a9 bc
       -2.565468 0.65884674 -2.828678 -0.020708935
000310 b6 3e af bf 00 2d 97 be 85 c8 b2 3f 9b 2b 0b 3f
       -1.3691013 -0.2952652 1.3967444 0.5436341
000320 40 92 2d c0 7a da 4c bf 85 a7 92 bf d5 97 48 c0
       -2.7120514 -0.8002087 -1.1457373 -3.134267
000330 23 1b d3 3f c2 6e 0c c0 4b 43 e0 bf ba 33 d7 3f
       1.6492656 -2.1942601 -1.7520536 1.6812661
000340 0e fe 44 be ed 5e c7 be 71 53 8b 3d b5 9c ac bf
       -0.19237539 -0.3893961 0.068030246 -1.3485323
000350 27 19 73 3e 2d a2 51 be 28 79 aa bf 1b dc 21 3e
       0.23740064 -0.20472021 -1.3318224 0.1580662
000360 da d8 72 c0 4e 8e 25 3f 14 5b 6c 3a df 98 02 c0
       -3.7944856 0.64670265 0.0009016257 -2.0405805
000370 f5 1d 4e bd 2c 64 46 c0 9c 14 1e bf 57 c7 88 bf
       -0.050321538 -3.099864 -0.617502 -1.0685834
000380 99 53 56 be 34 c8 d2 be ab 61 5c be 9e d1 f2 bf
       -0.20930327 -0.41168368 -0.21521632 -1.897022
000390 21 e4 af c0 02 00 02 3f 78 3b 12 c0 25 45 de be
       -5.496598 0.5078126 -2.2848797 -0.43412128
0003a0 8a 25 10 c0 f6 bc 09 c0 d8 bb 25 3e 5f cf 04 bf
       -2.2522912 -2.1521583 0.16184938 -0.51878923
0003b0 d8 b2 1c bf 14 f6 56 bf e3 b5 19 be 61 2b 7f bf
       -0.61210394 -0.83969235 -0.1501079 -0.99675566
0003c0 26 49 f6 bd 97 57 1f c0 a0 7a c9 bf bc 44 66 bf
       -0.12025671 -2.489721 -1.5740547 -0.8994863
0003d0 6a c9 8a be ec eb 6f bf cb 9c 2b 3e a8 a0 f2 bf
       -0.27106792 -0.93719363 0.1675903 -1.8955278
0003e0 c8 55 15 bd e4 5d d0 bf e1 4e 13 be 4e 62 57 3f
       -0.03645876 -1.6278653 -0.14385559 0.84134376
0003f0 4d 23 c6 3e 81 b9 dd be 0c c9 9f be c0 ee 33 bf
       0.38698807 -0.4330559 -0.31208074 -0.7028618

sequential.2.bias f4 [128]
000000 bd 33 36 40 be 1e 02 40 0e 1a 18 3f 04 c6 2d bc
       2.8469079 2.0331264 0.59414756 -0.010606293
000010 05 23 68 40 8e 1f 96 bd 30 4b 91 40 18 1a e3 3c
       3.6271374 -0.07330237 4.540428 0.027722403
000020 22 ac 87 40 3a 4c d6 3f 4c 13 b7 3f 92 97 1c 3f
       4.2397623 1.6742013 1.4302764 0.6116878
000030 5a a1 95 40 9c a1 22 be 2e c4 ad 3d 3e 59 cf 40
       4.675946 -0.15881962 0.08484684 6.479644
000040 ea 28 1c 3e 39 d7 ee 3d 38 c7 3e 40 ee 4c 6c 3f
       0.15249982 0.11662144 2.9809093 0.92304885
000050 a7 19 06 bd 00 00 00 00 1f ef 80 3d f8 5b 3d 3f
       -0.032739308 0.0 0.06295609 0.7396846
000060 6b 8e 5a bd 2b 8c 84 c0 b7 1c 82 bd d2 66 b6 be
       -0.053358477 -4.1421103 -0.06353133 -0.3562532
000070 4e 08 31 40 85 28 7a 40 f3 3d 45 bd db ab 80 3d
       2.7661319 3.908723 -0.048154783 0.06282779
000080 75 2f d1 3f bf 6c 07 40 3b e8 f4 3f 6a 36 0d 3e
       1.6342608 2.1160123 1.9133371 0.13790289
000090 41 d6 76 be 51 12 1e 3e 6e db c4 3f a6 c9 88 40
       -0.24105169 0.15436675 1.5379465 4.2746153
0000a0 bf e1 1f bd cc 93 73 3f d3 35 24 3f a5 01 21 3d
       -0.039033648 0.95147395 0.6414463 0.03930821
0000b0 46 d8 70 40 d6 89 f8 3c c7 49 dc bd 82 19 58 40
       3.7632003 0.030339163 -0.107562594 3.3765569
0000c0 ca 13 84 3e dd 81 9b 40 9c 72 06 40 95 d2 26 40
       0.25796348 4.8596025 2.1007452 2.606603
0000d0 c8 64 10 40 ae 50 45 40 f8 be 7e 3f 24 ab a3 3f
       2.2561512 3.0830493 0.99510145 1.2786603
0000e0 a2 af ba bd 9d 63 8c 3f 3f 4e c3 be 03 1e 81 40
       -0.091155306 1.09679 -0.38145635 4.0349135
0000f0 9b ed 66 3d fd 47 fe 3a 4e 18 3d 40 c4 1e 80 40
       0.056378942 0.0019400116 2.9546084 4.0037556
000100 a3 f7 25 3e d1 d9 a6 bd a3 07 83 40 60 96 61 bd
       0.16207747 -0.08147014 4.094682 -0.05507505
000110 36 74 68 bd 03 e4 8a bd b8 e7 0e 40 81 08 f3 3c
       -0.056751452 -0.06781771 2.232893 0.02966714
000120 f6 8f a3 40 16 fd 27 40 ce 61 a3 40 00 82 e4 3f
       5.1113234 2.6248221 5.105689 1.7852173
000130 4e 26 7d bd 9f b9 53 40 17 83 f1 3d 3a f2 8a 40
       -0.06180411 3.3082044 0.117925815 4.3420687
000140 b9 60 ae 40 14 f8 1a 3f a1 a4 66 3e f4 89 42 bf
       5.449307 0.6053479 0.22523738 -0.7599175
000150 0e 9a 7c be 5b a9 c3 3d 20 d3 d1 bd 2a 38 0d 3f
       -0.24668142 0.09553786 -0.10245347 0.55163825
000160 d5 44 3c 40 2e c4 94 40 32 a6 08 40 95 f1 7a 40
       2.9417012 4.6489477 2.1351438 3.920995
000170 5b 61 33 3e b2 eb 1d 40 2e c3 ad 3f ba 4f 85 40
       0.17517607 2.4675107 1.3575189 4.1659822
000180 f5 35 8e 40 0d 17 66 40 d8 c8 6c 40 05 f1 26 bc
       4.4440866 3.595157 3.6997585 -0.0101892995
000190 09 58 a7 40 2b f9 34 40 ff e7 ac 3f bc b4 4a 3f
       5.2294965 2.827708 1.35083 0.7918203
0001a0 11 e0 40 40 b1 44 a8 3f 04 7e 96 40 ea 39 36 bc
       3.013676 1.3145963 4.702883 -0.011122206
0001b0 da 47 64 bd 61 4c 33 40 91 d3 08 bd ad 0f 7f 40
       -0.055732585 2.8015368 -0.03340489 3.9853318
0001c0 53 a4 8c 40 c0 1f 5e 40 c9 0a 72 40 3e a1 0f 40
       4.395059 3.4706879 3.7819083 2.2442164
0001d0 1a 28 c4 3f 85 0e 2b 40 53 63 8d 40 c4 e8 1a 40
       1.5324738 2.6727612 4.4183745 2.420457
0001e0 30 36 06 40 14 6b 3d 40 5b d3 01 40 77 c2 63 3c
       2.0970573 2.9596605 2.028525 0.0139013445
0001f0 03 c1 10 be 58 46 fc 3f e7 a4 7a bd a6 6f 9a 3f
       -0.14136128 1.9708967 -0.06119242 1.2065322

sequential.4.weight f4 [1, 128]
000000 bf 55 3a bf 34 a4 70 bb e4 08 55 3f 61 e4 1b 3e
       -0.7278709 -0.0036718966 0.8321669 0.15223838
000010 2d 63 ab 3f fd 0d a0 3c 9f 40 26 bf e6 2a 05 3e
       1.3389641 0.01953792 -0.64942354 0.13004646
000020 fb 64 1b c0 07 65 dc bf ec ed b1 bb ce ed d3 3b
       -2.4280384 -1.7218331 -0.005429974 0.0064675575
000030 58 5f 0f bf f0 2e b6 3e 7b 74 4c bb 6d 28 3b c0
       -0.5600486 0.35582685 -0.0031197357 -2.9243424
000040 a9 d7 d4 bc ff 86 17 bf 85 4e 0a c0 59 dc b6 3f
       -0.025981741 -0.5919036 -2.1610425 1.4285995
000050 e4 ed 26 bd 8b eb 52 be a4 9a b6 3f 2d d9 3d 3f
       -0.040754214 -0.20597665 1.4265943 0.7415951
000060 7e e6 bb 3c 20 79 80 40 e0 da 4e bd be 16 1b 3f
       0.022937056 4.014786 -0.050501704 0.60581577
000070 f3 60 26 bf 08 bf f7 be 8f f5 e3 3e 25 4c 4d 3f
       -0.6499168 -0.48387933 0.44523284 0.8019431
000080 db bd 06 40 f8 9c 19 c0 d5 c3 97 bf 56 d9 ad bc
       2.1053379 -2.4002056 -1.1856638 -0.021221798
000090 82 0a 60 be 44 83 35 40 ba 7f 2b bf c0 15 f3 bf
       -0.21879008 2.8361368 -0.6699177 -1.8991013
0000a0 e1 be cf 3d e2 19 fd 3f 46 de e6 3f 85 d5 de 3c
       0.10143829 1.9773524 1.8036582 0.027201423
0000b0 a3 63 ba bf 0a b3 f6 3f 0e c8 ab bc b4 c5 d4 3d
       -1.4561657 1.9273388 -0.020969417 0.103892714
0000c0 57 c9 ea 3d c6 44 ec be 6b 93 79 bf 88 94 94 3f
       0.11464184 -0.4614622 -0.97490567 1.1607828
0000d0 44 1b d7 3f 4d c1 f6 bf 46 f3 97 3f 04 b2 a2 3f
       1.6805196 -1.9277741 1.1871116 1.2710576
0000e0 ce ac 5f bc a7 cb ca 3f a5 20 a5 3f 48 a0 b0 3f
       -0.01365204 1.58434 1.2900587 1.3798914
0000f0 a6 ae 14 3f e1 13 d1 3f bf 47 24 bf 38 73 13 40
       0.5807899 1.6334192 -0.64171976 2.3039074
000100 e0 70 26 bc e7 ed cd bd 7d ec 8a be 1c b0 ee bd
       -0.010158747 -0.10055142 -0.2713355 -0.11654684
000110 da 22 c6 3c 7a 9e 86 3c 2c df fd be 34 00 4f 3d
       0.02418654 0.01643299 -0.4958433 0.050537303
000120 d0 3f 75 bf 06 7e 1b c0 1e 46 f2 be 6e 04 23 c0
       -0.95800495 -2.4295669 -0.4731912 -2.5471454
000130 88 8f 21 be 0d e6 4a 40 bb 01 5a 3e c1 fa f0 3f
       -0.15777409 3.1702912 0.21289723 1.8826524
000140 14 20 9f bf ed 60 55 40 0a 36 5b 3d 29 e0 ad bf
       -1.2431664 3.3340409 0.053518333 -1.3584033
000150 4b e8 44 3f da 85 88 bc bc 61 8e bb 86 2a 95 3f
       0.7691695 -0.016665388 -0.004345147 1.1653602
000160 df 9c ed 3c 12 af e2 3f 79 18 90 bf 7c d6 ed 3f
       0.029005466 1.7709677 -1.1257468 1.858108
000170 5b f2 fa 3c 3c 17 1a 40 3a e9 19 40 21 97 a4 40
       0.030633142 2.407668 2.40486 5.1434484
000180 4a 87 16 bf 15 67 7a bc e7 ec 26 c0 bf 3c 4b 3e
       -0.58800185 -0.015283366 -2.6082094 0.19847392
000190 a7 ca 9a bf 52 de 1d bf ef 4e 3f 3f 3c fe 83 3f
       -1.2093095 -0.6166736 0.7472982 1.0311961
0001a0 34 c1 2f c0 c6 7d 57 be 63 7f 14 40 61 47 b4 3c
       -2.7461672 -0.21044073 2.320275 0.022006692
0001b0 39 2a 84 ba f7 0b f6 3f c4 d4 27 3d ee c9 9f bf
       -0.0010083384 1.9222401 0.040974393 -1.2483499
0001c0 3c 5a f0 bf 54 fa f8 bf b9 9f c5 bf 29 1d 02 c0
       -1.8777537 -1.9451394 -1.5439368 -2.0330298
0001d0 98 6b 15 40 a7 12 51 bf 5d c8 d1 bf 7d a0 59 bf
       2.334692 -0.81669086 -1.6389271 -0.8501051
0001e0 fd 2a 92 3f ed e8 1a c0 cb c5 2b 40 6c ce 95 3c
       1.1419369 -2.4204667 2.6839473 0.018286906
0001f0 55 bf 04 3e 42 15 27 bf bc e0 c6 bc 63 d1 a0 bf
       0.12963612 -0.6526681 -0.024277084 -1.25639
