policys/model_action.pth (torch, 5818 bytes, 4 tensors)

fc_state.0.weight f4 [128, 3]
-0.7806588 0.08042726 -0.13946761 -0.75053185 -0.009914246 -0.5401392 -0.020688238 -0.09556269
0.09944006 1.6795332 4.2959275 0.9552084 0.15312952 -0.031747 -0.008758793 0.034998626
-0.041489813 0.16576485 -0.063053966 -0.08720305 -0.26237965 -0.71791816 0.0043507665 -0.13750766
-0.18909208 0.00054426474 0.13811636 0.3273934 -0.059181366 -0.1362659 1.9779971 6.003389
1.0662155 0.32217187 0.11799086 -0.075926565 0.23891763 -0.06861389 -0.059418194 -0.8890026
-0.009816257 -0.5719661 0.5141682 0.07931064 -0.2781326 0.43691605 0.6421415 0.04155133
0.31822369 -0.0044665956 -0.7442245 0.29644242 0.3106705 0.048263922 0.19741815 -0.15053962
-0.0023698944 0.44987273 0.707065 -0.05492705 -0.57404214 -0.11169914 0.061546754 0.6616412
0.055828277 0.5436971 0.4231376 0.7941456 0.1316207 0.1364722 0.07699693 0.12271241
0.38916567 -0.11582867 -0.115292855 0.08958876 -0.13973081 -0.07777822 -0.18572474 -0.07806478
-0.2189282 -0.1947503 -0.21255939 -0.37806687 0.15988351 0.048140842 -0.018062664 0.7494929
1.4466002 0.1929607 0.2896825 0.33386725 -0.0026286093 -0.026237182 0.0073146466 -0.113132976
-0.46669498 -0.13504744 -0.07958246 -0.5482691 -0.1688017 -0.12906747 0.24858697 0.16994378
0.11233784 -0.2767 -0.07158945 -0.3670692 -0.3284582 -0.03756932 -0.062445156 0.23350324
0.27482915 0.07425264 0.3362779 0.6220123 0.23370934 0.15769051 0.41935706 0.01594865
-0.36294478 -0.08168969 -0.334448 0.19209735 0.45962584 0.21040101 -0.9455984 -0.008776358
0.19950578 0.2608874 -0.007848339 -0.064054385 0.25781292 0.25711617 0.062002666 -0.19788472
-0.1165493 -0.0007354576 0.26790753 0.5338964 0.17164278 0.24857403 -0.09249821 -0.035638012
0.3123727 0.71463525 0.077471666 0.20655549 -0.14762865 -0.11840989 0.19318472 -0.0014784151
-0.098574854 0.37589812 0.3531612 -0.035716504 -0.23517194 -0.10256878 -0.2522347 0.43773302
0.6990382 0.22100498 1.7275239 3.7379966 0.81675124 -0.053859964 0.0005072437 0.067319825
0.2865859 0.5544843 0.21145125 0.067242995 -0.0056143724 0.08028698 -0.77878124 -0.029505592
0.26291943 -0.27310815 -0.024089377 -0.18999112 -0.18796454 -0.16719644 0.11775517 0.1572146
0.364156 0.022954289 0.21274489 0.022754317 0.19704655 -0.03324603 -0.11386156 0.58157253
-0.13296764 -0.1507949 0.16657484 -1.1971279 -0.0084728785 -0.7157594 0.67483926 1.2977922
0.12252179 0.32317322 -0.073227964 -0.21535476 0.37372157 0.60799706 0.063119866 0.06127663
0.15418993 0.22569704 0.046786897 -0.102632 0.23152871 -0.015377218 -0.053692423 -0.01883846
-0.031029934 -0.028115962 -0.04114358 -0.0036942915 -0.14082882 0.07004359 -0.18077922 -0.14869775
0.0858397 0.098991305 -0.09940923 0.050263148 0.15916592 0.37026867 0.06742461 0.19729409
0.3244492 0.1988549 0.30723396 0.6068528 0.033290733 0.24176311 0.23298335 0.036564935
0.24496342 0.42658246 0.12090548 0.26665002 0.19511294 0.14069498 1.7918974 5.7792673
0.97014153 0.014778602 0.27109498 -0.0134348525 1.9939106 6.1154366 1.5608345 0.020506823
00000000: 41d9 47bf 0cb7 a43d 99d0 0ebe db22 40bf
00000010: 5d6f 22bc 9046 0abf 617a a9bc 5fb6 c3bd
00000020: 3ba7 cb3d f2fa d63f 3d78 8940 8a88 743f
00000030: fccd 1c3e 2409 02bd 0a81 0fbc b85a 0f3d
00000040: 39f1 29bd 43be 293e 7022 81bd 8397 b2bd
00000050: a056 86be 7cc9 37bf e090 8e3b cfce 0cbe
00000060: 5ba1 41be fdac 0e3a 606e 0d3e 1ca0 a73e
00000070: 2968 72bd 4a89 0bbe 022f fd3f c31b c040
00000080: c079 883f b6f3 a43e 31a5 f13d 637f 9bbd
00000090: d3a6 743e 7085 8cbd 7e60 73bd ad95 63bf
000000a0: 5ed4 20bc 5f6c 12bf 87a0 033f 9e6d a23d
000000b0: 6567 8ebe 76b3 df3e 6363 243f ba31 2a3d
000000c0: 37ee a23e 855c 92bb 7f85 3ebf 4dc7 973e
000000d0: 3410 9f3e 64b0 453d fc27 4a3e 0f27 1abe
000000e0: 3b50 1bbb b855 e63e 3602 353f 30fb 60bd
000000f0: 6df4 12bf 85c2 e4bd 7318 7c3d 5161 293f
00000100: 31ac 643d bc2f 0b3f 7ea5 d83e 204d 4b3f
00000110: 94c7 063e 5ebf 0b3e 91b0 9d3d a550 fb3d
00000120: b940 c73e 9537 edbd a91e ecbd 507a b73d
00000130: 9815 0fbe 304a 9fbd a02e 3ebe 6de0 9fbd
00000140: b72e 60be 9f6c 47be 2ba9 59be fb91 c1be
00000150: 81b8 233e 552f 453d 27f8 93bc c4de 3f3f
00000160: 322a b93f 7d97 453e 4451 943e a6f0 aa3e
00000170: bf44 2cbb 5cef d6bc b4af ef3b 43b2 e7bd
00000180: a5f2 eebe e049 0abe 21fc a2bd 5d5b 0cbf
00000190: 5ada 2cbe 432a 04be 958d 7e3e be05 2e3e
000001a0: 6211 e63d 9fab 8dbe 7d9d 92bd 7ff0 bbbe
000001b0: ac2b a8be 4ae2 19bd 7ec6 7fbd 791b 6f3e
000001c0: 68b6 8c3e c511 983d 9e2c ac3e 333c 1f3f
000001d0: 8051 6f3e 9f79 213e f8b5 d63e bea6 823c
000001e0: e6d3 b9be ed4c a7bd c53c abbe 2bb5 443e
000001f0: 1454 eb3e 5d73 573e bd12 72bf b7ca 0fbc
00000200: 3e4b 4c3e 0993 853e 5296 00bc f22e 83bd
00000210: 0e00 843e bba4 833e 82f6 7d3d 4ba2 4abe
00000220: 66b1 eebd b9cb 40ba 2d2b 893e 6fad 083f
00000230: 20c3 2f3e 318a 7e3e b46f bdbd 2af9 11bd
00000240: 51ef 9f3e 56f2 363f 77a9 9e3d 4883 533e
00000250: f72b 17be e280 f2bd 37d2 453e 61c7 c1ba
00000260: 9de1 c9bd b875 c03e 8bd1 b43e 784b 12bd
00000270: ead0 70be 950f d2bd e824 81be 8b1e e03e
00000280: 2bf4 323f 214f 623e 811f dd3f 563b 6f40
00000290: 9c16 513f 449c 5cbd 8cf8 043a fade 893d
000002a0: 63bb 923e aff2 0d3f ad86 583e b2b6 893d
000002b0: c5f8 b7bb 806d a43d 355e 47bf b6b5 f1bc
000002c0: 609d 863e d5d4 8bbe 1657 c5bc 088d 42be
000002d0: c779 40be 8b35 2bbe 9f29 f13d ddfc 203e
000002e0: a872 ba3e a20a bc3c ccd9 593e 4367 ba3c
000002f0: 92c6 493e fd2c 08bd 4030 e9bd f0e1 143f
00000300: ab28 08be fa69 1abe 9892 2a3e 7d3b 99bf
00000310: d4d1 0abc 023c 37bf 44c2 2c3f 0e1e a63f
00000320: b4ec fa3d f676 a53e 8bf8 95bd f585 5cbe
00000330: 6f58 bf3e b2a5 1b3f fd44 813d 34fd 7a3d
00000340: f7e3 1d3e 201d 673e 9ea3 3f3d ba30 d2bd
00000350: dd15 6d3e baf0 7bbc 96ec 5bbd 1d53 9abc
00000360: 7d32 febc 7253 e6bc 2c86 28bd ed1b 72bb
00000370: 6e35 10be 0473 8f3d 301e 39be 3944 18be
00000380: bacc af3d f4bb ca3d 1197 cbbd bbe0 4d3d
00000390: 64fc 223e db93 bd3e ea15 8a3d 7607 4a3e
000003a0: 351e a63e 9ea0 4b3e c54d 9d3e b55a 1b3f
000003b0: dd5b 083d c090 773e 3093 6e3e 1dc5 153d
000003c0: b1d7 7a3e 0469 da3e 4b9d f73d 5a86 883e
000003d0: b0cb 473e 5812 103e e55c e53f c2ef b840
000003e0: 325b 783f f321 723c f6cc 8a3e db1d 5cbc
000003f0: 7638 ff3f a8b1 c340 6dc9 c73f edfd a73c

fc_state.0.bias f4 [128]
1.1773255 -0.17885616 -0.28337017 -1.0707818 0.19223037 0.20131996 0.17117368 -0.39157933
-0.45288908 0.3147574 -1.3050476 0.19323108 0.28540275 -0.6961919 0.29807034 0.022875784
0.0022810646 -0.23129383 0.2574282 -0.03474204 -0.16432247 -0.3262852 -0.31303114 -0.25830573
0.3290409 -0.2058584 0.12275555 0.13604808 0.10256912 -0.2971146 -0.18705879 0.54759574
-0.2081474 -0.19389978 0.017913863 -0.16022804 -0.24600294 -0.15011762 -0.1693574 -0.0655585
-0.1620682 0.037430994 -0.14193654 -0.92563975 -0.22552718 -0.27349502 -0.0026834204 0.30789214
-0.12000829 0.22626765 0.28867558 -0.2454048 0.1458465 0.093915 -0.69719386 -0.13033183
-0.0082463315 0.22337879 -1.2297776 -0.01593154 -0.23382492 -0.0056447573 -0.118835635 -0.78682745
-0.34767097 -0.011919328 -0.2684501 0.26888335 0.03025914 0.12439864 -0.36411607 -0.10786573
0.25662598 0.23772655 -0.21198905 0.23990156 0.045021184 -0.14061646 -0.098007046 -0.17484023
0.060583673 -0.15290807 -0.8616887 -0.13854481 -1.4957336 0.19142607 0.53346115 -0.2517953
0.88525087 0.07926253 0.24932182 0.2665782 -0.38509375 -0.120626196 0.2674295 0.22284928
0.8423089 -1.4857254 -1.3977915 0.18277994 0.023957483 0.24610424 0.28009722 0.0128335925
-0.16009311 0.35354674 -0.27174467 -0.13954805 0.3009177 -0.20234081 -0.37143415 -0.46709704
1.0686867 -0.18586934 -0.15637127 0.22655085 -0.074760385 -0.14956687 -0.32990772 -0.20748428
0.19418654 -0.17791834 0.6697874 -0.13446626 0.07412378 0.2027464 0.058880076 -1.3526516
00000000: 9ab2 963f 1226 37be e515 91be 610f 89bf
00000010: 0ad8 443e d226 4e3e 2748 2f3e 167d c8be
00000020: 14e1 e7be e227 a13e cd0b a7bf 5ede 453e
00000030: 4f20 923e a239 32bf ad9c 983e ff65 bb3c
00000040: ea7d 153b 4ad8 6cbe a1cd 833e ab4d 0ebd
00000050: 2644 28be db0e a7be 9e45 a0be a640 84be
00000060: 0d78 a83e 8bcc 52be 4367 fb3d 3050 0b3e
00000070: c20f d23d 681f 98be 578c 3fbe 3c2f 0c3f
00000080: 9824 55be aa8d 46be 18c0 923c d212 24be
00000090: 32e8 7bbe 6fb8 19be 076c 2dbe 8943 86bd
000000a0: 35f5 25be 3e51 193d d057 11be baf6 6cbf
000000b0: 99f0 66be 8a07 8cbe 53dc 2fbb 0aa4 9d3e
000000c0: e8c6 f5bd b5b2 673e 49cd 933e 654b 7bbe
000000d0: c958 153e 8256 c03d 4c7b 32bf b575 05be
000000e0: 9f1b 07bc 69bd 643e 5a69 9dbf dc82 82bc
000000f0: cd6f 6fbe a8f7 b8bb 1960 f3bd 866d 49bf
00000100: ee01 b2be 4949 43bc 4b72 89be 14ab 893e
00000110: 04e2 f73c b7c4 fe3d 6c6d babe b5e8 dcbd
00000120: 7b64 833e 976e 733e a813 59be c1a8 753e
00000130: 2268 383d c3fd 0fbe ebb7 c8bd 5109 33be
00000140: 9626 783d ef93 1cbe a197 5cbf b1de 0dbe
00000150: 3374 bfbf 3205 443e e990 083f 50eb 80be
00000160: cd9f 623f 6554 a23d 384e 7f3e f07c 883e
00000170: 022b c5be de0a f7bd 85ec 883e 9a32 643e
00000180: 8ea1 573f 402c bebf d5ea b2bf aa2a 3b3e
00000190: 7c42 c43c c002 7c3e e768 8f3e fd43 523c
000001a0: 73ef 23be 1404 b53e 1e22 8bbe afe5 0ebe
000001b0: e311 9a3e 6e32 4fbe 9e2c bebe 5827 efbe
000001c0: baca 883f 8854 3ebe ca1f 20be f2fc 673e
000001d0: f91b 99bd 0f28 19be aae9 a8be c276 54be
000001e0: d6d8 463e 3a30 36be 3077 2b3f 86b1 09be
000001f0: 35ce 973d c19c 4f3e 3c2c 713d b023 adbf

fc_mu.weight f4 [1, 128]
-1.055074 -0.049799044 -0.20084286 0.4111524 -0.012742103 0.13126571 0.20353234 -0.031362027
0.01750407 0.08480242 0.32676345 0.010960106 0.08712092 -0.021136846 -0.02862231 0.24656337
-0.20692961 0.33052492 -0.027618945 0.11468592 -0.13047425 -0.20490374 0.2989435 0.12198178
0.073781155 -0.21111575 0.1033291 0.19141035 -0.019883877 0.37679508 0.20319904 -0.01879866
-0.17376366 -0.1754954 0.06113189 0.039094463 -0.07756602 0.18326278 0.2643311 0.08250207
-0.06385499 0.07041053 -0.18709736 -0.02056409 0.31113175 -0.1306911 0.24141662 0.020729978
0.20097046 -0.0221085 0.0553027 0.37147605 0.17167051 0.1683198 0.4047446 -0.17387816
0.17647773 0.086467505 1.2351468 0.105261505 -0.20043166 0.02275036 0.29067406 0.012141152
-0.15794544 -0.112502605 0.37590888 0.15029655 0.09859929 -0.021399949 -0.105406664 -0.09278444
0.12100612 0.097763 -0.15723817 0.12665498 -0.009173759 0.30478105 0.26618898 0.36662877
0.09981962 0.30581102 0.2979885 0.0368462 0.2692597 -0.04404446 0.21788748 -0.09349294
1.6494465 -0.015419737 -0.028064193 -0.0192159 -0.075530246 0.07643684 -0.07535359 0.19079494
0.39350966 0.31377068 0.30261496 0.162299 -0.02654771 0.03404559 0.17574282 0.11156633
0.21321423 1.1301001 0.4124701 0.13164945 -0.023831334 0.33552936 -0.18427734 0.32825014
-0.49348664 0.21794227 -0.15429203 0.17324956 -0.14522664 0.23200668 0.39700764 0.37062472
0.1172054 0.25880006 -1.0869244 0.25340852 0.085566565 0.3045414 0.012448461 0.3329419
00000000: aa0c 87bf 15fa 4bbd c0a9 4dbe 9182 d23e
00000010: 41c4 50bc 856a 063e c86a 503e 7875 00bd
00000020: b264 8f3c e4ac ad3d 8a4d a73e 0492 333c
00000030: 746c b23d 2e27 adbc 5679 eabc 1c7b 7c3e
00000040: 5be5 53be 903a a93e 2041 e2bc 74e0 ea3d
00000050: 0b9b 05be 49d2 51be 1f0f 993e 95d1 f93d
00000060: 931a 973d ba2e 58be 359e d33d 1301 443e
00000070: 83e3 a2bc 49eb c03e 6913 503e a6ff 99bc
00000080: 1aef 31be 11b5 33be 6f65 7a3d 8421 203d
00000090: efda 9ebd 3da9 3b3e 6856 873e d8f6 a83d
000000a0: 68c6 82bd 6533 903d 7396 3fbe 0676 a8bc
000000b0: a94c 9f3e e3d3 05be eb35 773e ead1 a93c
000000c0: 33cb 4d3e e31c b5bc 1585 623d 1c32 be3e
000000d0: 65ca 2f3e 075c 2c3e af3a cf3e 1e0d 32be
000000e0: 94b6 343e e015 b13d 4a19 9e3f 5893 d73d
000000f0: f53d 4dbe f75e ba3c 3bd3 943e afeb 463c
00000100: 73bc 21be c467 e6bd 2177 c03e 57e7 193e
00000110: 6dee c93d f24e afbc 73df d7bd c505 bebd
00000120: 0fd2 f73d f837 c83d 0b03 21be d8b1 013e
00000130: 894d 16bc 430c 9c3e ec49 883e c4b6 bb3e
00000140: 3b6e cc3d 4393 9c3e f391 983e 0aec 163d
00000150: 68dc 893e f767 34bd e51d 5f3e 3a79 bfbd
00000160: 1021 d33f 11a3 7cbc e1e6 e5bc aa6a 9dbc
00000170: 9aaf 9abd eb8a 9c3d fc52 9abd c05f 433e
00000180: 197a c93e 8da6 a03e 59f0 9a3e b631 263e
00000190: 957a d9bc 6373 0b3d edf5 333e e37c e43d
000001a0: d554 5a3e 1fa7 903f 482f d33e 1dcf 063e
000001b0: ee39 c3bc 81ca ab3e 33b3 3cbe 6710 a83e
000001c0: 48aa fcbe 422c 5f3e bbfe 1dbe 5568 313e
000001d0: 4bb6 14be 2993 6d3e 9644 cb3e 86c2 bd3e
000001e0: 6209 f03d 7181 843e 5720 8bbf c3be 813e
000001f0: 863d af3d daec 9b3e a1f4 4b3c 5c77 aa3e

fc_std.0.weight f4 [1, 128]
0.139781 0.12984775 -0.008707994 0.38129961 0.10171834 0.06792521 -0.15074317 0.12476248
0.023750551 0.15208264 0.29408783 0.0907933 0.20945193 0.22787106 0.08127296 0.40721595
0.017131714 0.15615876 0.12659386 0.2589875 -0.14010355 0.06714698 0.23965153 0.0845409
0.0841886 0.11193849 -0.08036963 -0.1700433 0.08392326 0.42337412 0.15310423 -0.10523561
-0.09440426 -0.11899743 0.09886751 -0.05797725 -0.01307553 0.14289929 0.2238726 0.42959657
-0.08500219 0.23471251 0.1580711 -0.07589114 0.13550861 0.066438824 0.42502385 0.13396814
0.37307507 0.17301442 0.018526986 0.16969545 -0.12826411 0.2940409 0.3147576 -0.043048553
0.18188265 0.035976477 0.3075183 -0.11149765 0.120618604 0.3384908 0.05613872 -0.10322028
-0.05347326 0.10836238 0.43307558 0.09021938 0.24909869 0.15203093 -0.07650806 0.06517421
-0.005955023 -0.0070873043 0.113828145 0.035429418 0.40150645 0.19601485 0.43973428 0.1676895
0.3287148 0.12477816 0.31909502 0.33913767 0.295189 0.1414189 0.014991756 0.051985227
-0.03872992 0.42308682 0.07197672 0.091076836 -0.049319223 0.026318727 0.18788467 -0.10919645
-0.21202436 0.3175086 0.31417668 -0.10593586 0.11703804 0.14938849 -0.029195646 0.2457233
0.075490564 0.073302545 0.26380372 0.4232521 0.2095417 0.08362082 -0.10229816 0.35332185
-0.45043585 0.094236925 -0.17134699 0.041752018 -0.06815038 0.044324584 0.23939219 0.42602342
-0.063668735 0.442162 0.2793072 0.42473742 0.41193604 -0.057351686 0.285961 0.31589472
00000000: c022 0f3e cff6 043e f9ab 0ebc b439 c33e
00000010: b451 d03d 5f1c 8b3d 6b5c 1abe 7983 ff3d
00000020: 8490 c23c 8dbb 1b3e ae92 963e d6f1 b93d
00000030: 917a 563e 0857 693e 7072 a63d 9c7e d03e
00000040: cf57 8c3c 15e8 1f3e d2a1 013e 029a 843e
00000050: 4e77 0fbe 5b84 893d 3667 753e c823 ad3d
00000060: 136b ac3d 0240 e53d d598 a4bd d51f 2ebe
00000070: f5df ab3d 7ec4 d83e 5bc7 1c3e c485 d7bd
00000080: 0557 c1bd edb4 f3bd 0d7b ca3d 8e79 6dbd
00000090: bf3a 56bc 3154 123e dc3e 653e 15f4 db3e
000000a0: a115 aebd 7a58 703e 64dd 213e d06c 9bbd
000000b0: c5c2 0a3e 1411 883d ba9c d93e f22e 093e
000000c0: b203 bf3e b12a 313e e8c5 973c a5c4 2d3e
000000d0: ab57 03be 878c 963e e827 a13e ae53 30bd
000000e0: 723f 3a3e 125c 133d 0a73 9d3e e158 e4bd
000000f0: e306 f73d ab4e ad3e b7f1 653d 2765 d3bd
00000100: c706 5bbd 18ed dd3d 15bc dd3e f0c4 b83d
00000110: ba13 7f3e ffad 1b3e 42b0 9cbd 0e7a 853d
00000120: 5b22 c3bb 9e3c e8bb bb1e e93d 701e 113d
00000130: 4192 cd3e 1eb8 483e da24 e13e ccb6 2b3e
00000140: 4e4d a83e b18b ff3d 6c60 a33e 74a3 ad3e
00000150: 0323 973e 1ed0 103e fb9f 753c 76ee 543d
00000160: 44a3 1ebd d69e d83e 8868 933d 7e86 ba3d
00000170: f402 4abd 5f9a d73c d764 403e 63a2 dfbd
00000180: ea1c 59be 7d90 a23e c4db a03e e6f4 d8bd
00000190: a4b1 ef3d 4cf9 183e b52b efbc e49e 7b3e
000001a0: cc9a 9a3d a51f 963d 4811 873e 80b4 d83e
000001b0: 1992 563e 6441 ab3d b381 d1bd 9ae6 b43e
000001c0: 879f e6be 4aff c03d 9675 2fbe 2a04 2b3d
000001d0: 6d92 8bbd b28d 353d 3a23 753e be1f da3e
000001e0: c164 82bd 0f63 e23e 5a01 8f3e 2f77 d93e
000001f0: 48e9 d23e 9ae9 6abd 7b69 923e f4bc a13e
