policys/model_actionH.pth (torch, 5818 bytes, 4 tensors)

fc_state.0.weight f4 [128, 3]
000000 98 6e d0 3e 45 25 ac bb be 35 2e bf dc a2 e8 bf
       0.40709376 -0.0052534663 -0.68050754 -1.8174701
000010 31 03 ce 39 26 61 13 bf f6 bb 9d 3e d9 f4 df bd
       0.0003929376 -0.5757011 0.30807465 -0.10935373
000020 be 0b 39 be 7c de 8f 3e 9c fa a5 3d 7e 74 17 bd
       -0.18070886 0.2809943 0.081044406 -0.03697633
000030 a2 cd 59 3d c7 02 2a ba 4e d8 d8 be b8 18 49 bf
       0.053174622 -0.0006485399 -0.42352527 -0.7855334
000040 4a 54 68 bd ff ec 1c bf e4 31 b4 3d 8b 6c b3 bd
       -0.05672101 -0.6129913 0.087985784 -0.08760937
000050 de 6c a5 be 16 75 32 bf 18 86 29 ba 42 98 6d bf
       -0.32309622 -0.6970991 -0.000646682 -0.9281045
000060 d0 14 57 bf 5e 48 51 bd 06 02 4f 3f 06 18 50 be
       -0.8401613 -0.051094405 0.8086246 -0.20321664
000070 30 65 7d ba 4a 22 34 bf c7 67 74 bd 51 8a a4 3d
       -0.0009666262 -0.7036482 -0.059669282 0.08034194
000080 ef 06 e4 be de e9 76 be 74 26 f5 bc b4 7a e3 be
       -0.4453654 -0.24112651 -0.029925562 -0.44429553
000090 ff ee a0 be e3 73 7c bc 4d 4f ff be fa 2f 27 c0
       -0.3143234 -0.015408489 -0.4986519 -2.6123033
0000a0 64 58 0e bd 50 04 da bd c2 6b fd be f4 22 7b bc
       -0.034752265 -0.10645354 -0.49496275 -0.015328158
0000b0 c6 39 10 bf c7 31 b8 3e a7 27 06 3d 88 11 fd bc
       -0.56338155 0.35975477 0.03275266 -0.030892149
0000c0 49 b0 2e 3f 0e fd 55 bb 3e 27 99 bf b9 ae 75 3e
       0.6823774 -0.0032652053 -1.1965101 0.23992433
0000d0 0a 55 fb 3d 6a 06 02 be 3b a6 5d be d5 c8 b1 bd
       0.12272079 -0.1269776 -0.21645443 -0.08680884
0000e0 a4 e5 e5 3d 9e 7c 1b be 92 f9 82 3d 1c 9a 37 be
       0.11225441 -0.15184256 0.06395258 -0.17929882
0000f0 7c 77 8c bf 90 6f d5 bb f5 79 3d 3f 56 0e 6e bd
       -1.0973964 -0.0065135434 0.74014217 -0.05811914
000100 80 c6 4a ba 1a 84 ea be 7a 1e bb bd d9 aa cb 3c
       -0.0007735267 -0.4580391 -0.09136672 0.02486174
000110 e2 53 a2 be bc 35 d6 be 81 62 08 3e e7 c3 7a be
       -0.31704623 -0.4183787 0.13318826 -0.24488793
000120 49 db 4d 3e 61 75 19 be 55 9f 04 bf a6 41 96 3e
       0.20103182 -0.14986183 -0.5180562 0.2934696
000130 a5 63 cf be f7 96 3d bd 29 9c dd be 9c 38 c1 bc
       -0.4050571 -0.04628655 -0.43283203 -0.023586564
000140 42 96 22 3d 16 94 24 be 89 ce 63 be 4b 44 f4 be
       0.03969408 -0.16072115 -0.22246756 -0.47708353
000150 45 d2 2e bf dc 7e 2d bd 60 33 08 bf 91 96 aa 3e
       -0.68289596 -0.04235731 -0.5320339 0.33317998
000160 9b 4c 1f 3e b7 f0 07 bd 0b 97 13 bf 28 e6 39 3d
       0.15556566 -0.033188548 -0.5765235 0.04538551
000170 8f e1 6e bf 88 0f a6 be e0 e7 d2 3d c9 dd f2 bd
       -0.93312925 -0.32433724 0.10298133 -0.118587084
000180 79 73 04 be b7 74 bf bd 0a e6 3e be 92 81 7b be
       -0.12934674 -0.093484335 -0.1864244 -0.24561146
000190 99 65 10 be 36 5b 0a be 16 29 31 be ab 99 36 3e
       -0.14101256 -0.13511357 -0.1730083 0.17832057
0001a0 e4 b3 95 bd 11 2d 89 3f a3 32 ba bb 73 dc 96 3e
       -0.07309702 1.0716878 -0.005682306 0.29465064
0001b0 46 e1 db be df 7d 51 bd b3 0b 24 3f d0 65 8d be
       -0.42945307 -0.05114543 0.6408035 -0.2761674
0001c0 0a 73 ae 3d 9b 15 9b be 72 4f 9e 3f b9 2f 87 be
       0.08518036 -0.3028992 1.2367995 -0.26403597
0001d0 4d 71 ca 3e 3c 6a 24 be 9e f7 4f 3d 1b c4 da bd
       0.39539567 -0.1605615 0.050773256 -0.106819354
0001e0 2e 5f d2 be 10 71 01 be 76 86 fe be ed 15 8a be
       -0.4108824 -0.12640786 -0.4971196 -0.26969853
0001f0 21 7c 57 3d 84 d8 b9 bc 39 5d d3 be 05 44 f6 3c
       0.052608613 -0.02268625 -0.4128206 0.030061731
000200 57 34 9c ba 3c df 81 be ef 75 09 3e 70 34 58 be
       -0.0011917454 -0.25365627 0.13423894 -0.21113753
000210 43 58 18 3e 68 96 02 3e d5 da fe bd 4c 68 5c be
       0.14877419 0.12752688 -0.12444083 -0.21524161
000220 e0 ea 44 be b1 cd 8f bd 32 ce 28 bf 72 09 3d bd
       -0.19230223 -0.070216544 -0.6593963 -0.046151586
000230 c2 78 7d 3f c1 fc 12 3d 65 f7 9d bd 9d d1 89 be
       0.99012387 0.035885576 -0.077132024 -0.26917735
000240 ae b0 f6 3e e6 c4 22 3d c9 57 69 3f ff a3 cc bd
       0.4818167 0.03973856 0.91149575 -0.09992217
000250 10 dc ff bd 8c 22 27 be 4e 7f 1b bd de 95 6e 3d
       -0.124931455 -0.16321772 -0.037963204 0.058248393
000260 68 3d 97 bf c6 d1 c0 3e 3c e0 10 3e 95 d9 35 be
       -1.1815615 0.37660044 0.14148039 -0.17758782
000270 c5 a8 0a be d5 d3 dc bd 60 d5 6f be f1 08 94 3f
       -0.13540943 -0.10782591 -0.2342124 1.1565229
000280 9d a8 c5 bd aa d1 b1 3e ba ba f0 3e 23 4d 01 3e
       -0.09651301 0.34730273 0.4701746 0.12627082
000290 cd 8f 67 3e 4b 37 c8 be 14 75 ea 3d ce 11 cb bd
       0.2261345 -0.39104685 0.11448112 -0.09915505
0002a0 36 eb f3 be ed d5 3c 3d 74 c1 54 bf e1 e3 0f bf
       -0.4764039 0.046102453 -0.83107686 -0.5620709
0002b0 20 0e d3 34 f8 c1 3f bf 0f cf 3e 3f 29 1a 7e 3d
       3.931209e-07 -0.7490535 0.74534696 0.062036667
0002c0 80 d6 ed 3d 6f 6f 08 3e 43 4f 32 bc 4f 1d d7 3e
       0.11613178 0.13323759 -0.010883155 0.42014548
0002d0 74 b2 c2 bd 8f 72 d5 be 02 bc d3 3d ea 4d 59 be
       -0.095066935 -0.41688964 0.10338594 -0.21221128
0002e0 c8 9f a5 3d 8f 7f c2 bd e9 fe ae 3e 5d cd 13 bc
       0.080871165 -0.09496986 0.34178856 -0.00902113
0002f0 fd c3 5a 3e d3 c8 00 3f 33 6b 5e 3c bf d1 54 3f
       0.21363826 0.50306433 0.013575363 0.8313255
000300 db b8 b8 3f 3b 2c 97 bc 1b 3d 1b 3f 7a ea 49 bf
       1.4431413 -0.018453708 0.60640115 -0.7887341
000310 80 68 12 bd f3 c2 51 bf a1 11 ae 3e 34 f0 27 3e
       -0.03574419 -0.81938094 0.33997825 0.16400224
000320 09 2e a2 bd 14 54 23 bf fd 10 58 bd 96 23 36 bf
       -0.07918937 -0.6380017 -0.052750576 -0.7114805
000330 e6 13 24 be eb 3a 14 3d 2c 05 9c bd 2e a2 4e bf
       -0.16023216 0.036189 -0.07618174 -0.80716217
000340 53 49 a9 3b 22 31 ef 3e ca e3 31 3f 35 6e da bc
       0.0051662116 0.46717173 0.69488204 -0.026663879
000350 c6 a1 b3 3e e8 84 19 3e 71 a8 6e be 57 84 81 3c
       0.3508436 0.14992106 -0.23306443 0.015810175
000360 58 3e 58 bf 97 42 7b 3b f8 fc 3f 3e bc ff cb 3b
       -0.8447013 0.0038339251 0.18748844 0.0062255543
000370 72 e1 c6 bd b1 5d a4 be 9e 6c 58 be 1a 59 b2 be
       -0.09710969 -0.3210273 -0.21135184 -0.34833604
000380 85 66 8f 3d b3 c9 e6 bd ae 0e c2 bd 5f db 1f bf
       0.07001976 -0.1126894 -0.09475456 -0.6244411
000390 5e af 1e be 64 23 d3 3d d9 e1 f2 bc 65 3a 18 3f
       -0.15496585 0.103094846 -0.029648708 0.59464103
0003a0 71 66 54 bc 42 52 e8 be c6 38 3a 3e a2 68 3d 3c
       -0.012963877 -0.45375258 0.1818572 0.011560591
0003b0 8d bc 02 3e df 8f 38 3b d4 35 43 bc a3 23 3c bf
       0.12767239 0.0028161926 -0.011914689 -0.7349188
0003c0 ad 99 19 3e ca 89 23 bc 0d a3 8c 3e 41 79 a4 3e
       0.15000029 -0.009981582 0.27468148 0.3212376
0003d0 b4 1b 9b 3d 86 37 55 3d c0 17 80 3f 53 59 0e bd
       0.07573643 0.052054904 1.0007248 -0.034753155
0003e0 87 37 c3 3e f3 57 22 bf af 3b b5 3b 68 3a 1f be
       0.38128302 -0.6341545 0.0055307965 -0.15549624
0003f0 0a de e9 3f 1f 1b 3c 3c ff bc d6 3e 3d a0 a7 be
       1.8270886 0.011481076 0.41941068 -0.3273944

fc_state.0.bias f4 [128]
000000 61 84 cb 3e 28 da 4e 3e 2d 1c 21 be 02 e1 8c bc
       0.39749435 0.20200408 -0.15733404 -0.017197136
000010 c3 8f 16 bf 26 39 25 bf 9a 78 4f be 13 99 00 bf
       -0.5881311 -0.64540327 -0.2026085 -0.5023357
000020 ea 14 46 3f 97 6a 5b bf 30 bd e3 be 29 69 75 bf
       0.7737566 -0.8570952 -0.44480276 -0.95863587
000030 7b df 72 bf 7b 9c ae 3e 82 b7 73 bf a7 18 c3 bd
       -0.94872254 0.3410376 -0.95201886 -0.095261864
000040 2b c2 84 bf d8 72 7e bd b3 bc d9 be 34 5d 62 3c
       -1.0371755 -0.062121242 -0.4252678 0.013816167
000050 0a d4 16 3f d0 c5 77 bf 7a 88 8a bf a5 90 d3 3a
       0.58917296 -0.9678621 -1.0822899 0.001614113
000060 56 75 0c bf 14 18 dd bd d2 02 26 3f 31 fb fd bd
       -0.5486654 -0.10795608 0.64848053 -0.124014266
000070 4e 69 51 bf f0 2b 33 bc 59 87 10 3f 67 af 20 bb
       -0.8180131 -0.0109357685 0.56456524 -0.002451861
000080 62 fe a8 bd 52 24 42 3d df 0d 77 bd a9 a6 b6 3f
       -0.08251645 0.04739792 -0.060315963 1.4269611
000090 f9 13 63 3f 8d 95 f8 bd b5 20 9a bd d6 7e 7a 3d
       0.8870235 -0.121378995 -0.075257696 0.061156116
0000a0 f2 1c 03 3f 3a 49 2d bc 9a 77 16 3d 60 0f 5b bc
       0.5121604 -0.010576541 0.036735155 -0.013370365
0000b0 99 94 d0 bd e9 db 19 be 59 aa 8d 3c a6 a3 1e bf
       -0.10184593 -0.15025295 0.017293142 -0.6196846
0000c0 9c 6f 81 bf 56 b3 8f be c0 70 03 bf e0 fb 91 bc
       -1.0112185 -0.2806651 -0.5134392 -0.017820299
0000d0 b6 38 5a bd 2f fd 0c bf a1 dd d3 3b ce 5e 89 3c
       -0.05327674 -0.5507383 0.006465629 0.01676884
0000e0 bf 72 64 bf 9f b8 55 bf 7c 4f 97 3e 05 c7 07 3f
       -0.8923759 -0.83484834 0.2955283 0.53038055
0000f0 99 4d 93 bd 1a ed d5 3c 11 69 9a 3e 73 0a 82 3f
       -0.07192535 0.026114035 0.30158284 1.0159439
000100 13 f7 26 3e a4 6a f6 be e9 f2 96 bc ba 1c 3a bf
       0.16305189 -0.48128235 -0.018426375 -0.72700083
000110 8a e1 8d bb a5 e9 0e bf 09 b8 3d 3e b4 12 51 be
       -0.004329865 -0.55825263 0.18527235 -0.20417291
000120 05 48 8c 3f ef 68 d7 be d4 81 bb bd e1 f6 fb be
       1.0959479 -0.42072245 -0.09155622 -0.4921179
000130 24 10 73 ba 0b 58 98 bf a3 35 d4 be b4 d6 34 bf
       -0.00092721195 -1.1901869 -0.41447172 -0.7064011
000140 91 d6 6b bd 89 a4 03 bd 3e 00 ff bc 7a b1 05 3f
       -0.057577673 -0.032139335 -0.031128045 0.5222393
000150 7c 51 3a 3b 1e da c4 be e2 d8 55 bf 7a 4e 8a be
       0.0028429916 -0.3844766 -0.8353406 -0.27012998
000160 13 4d 38 3f 21 5d a1 3c e4 b2 fc be e4 92 4b bf
       0.71992606 0.019697728 -0.49355233 -0.7952101
000170 57 f6 d9 3e 42 21 65 bd bd 9c be be 7a 1c a8 be
       0.42570755 -0.05593992 -0.37228957 -0.32834226
000180 97 1a 8b bf 03 b3 93 bd 94 1f b0 be 3c c6 82 be
       -1.086749 -0.07211878 -0.34399092 -0.25541866
000190 8e 11 e7 bc 91 7f 31 bf 5e 42 40 be 8c 03 b3 3e
       -0.028206613 -0.69335276 -0.18775317 0.34963644
0001a0 fc 19 45 3d bb 63 27 be 4c a8 04 be 95 be 7c bf
       0.048120484 -0.16346638 -0.12954825 -0.98728305
0001b0 8a 2c e7 be e2 34 30 bd 83 69 60 3d a4 fd 0b bc
       -0.45151168 -0.043019183 0.054788124 -0.008544359
0001c0 41 ec cd bb 02 59 17 be 4f 33 b1 3e 40 5d 04 bf
       -0.006284267 -0.14780048 0.34609458 -0.5170479
0001d0 11 3a 1b bd 41 9b a1 be e9 bd 91 bd 19 2b 4a bd
       -0.037897173 -0.31563762 -0.071163006 -0.049357507
0001e0 80 4a a9 be 77 87 fa be eb 5d 8e bf ea b4 5d be
       -0.3306465 -0.48931476 -1.1122411 -0.21651044
0001f0 f1 85 89 be 88 7d 61 3e f3 5e c9 3a 9d 80 cd 3d
       -0.26860002 0.22020543 0.001536338 0.10034297

fc_mu.weight f4 [1, 128]
000000 38 fe be be 55 8f 38 bf eb 8e 63 be 84 3c 2b 3e
       -0.3730333 -0.7209371 -0.22222488 0.16722304
000010 b8 75 04 bc c1 d0 17 3e 5b aa 0d 3e 30 81 35 be
       -0.008084707 0.14825727 0.13834517 -0.17725062
000020 59 e1 0c bd c7 9a 84 3d 2b cf b2 3d bb 43 be 3d
       -0.034394596 0.06474834 0.087309204 0.09290262
000030 6d 5b ca 3d e5 09 22 bf ea 04 8b 3d 87 c1 6f 3c
       0.09880719 -0.6329635 0.06788047 0.014633543
000040 81 91 0a bf c0 86 c4 3d f5 43 96 bc 07 96 62 bd
       -0.5412827 0.09596014 -0.018342951 -0.05531886
000050 db e7 9d bd 45 6e 06 3d 40 79 c0 3d a6 de 96 bd
       -0.077102385 0.032820005 0.093981266 -0.073666856
000060 c5 f8 a7 3d dd 2a 67 be de ca 94 3d 12 44 34 3e
       0.08201746 -0.22574945 0.07265256 0.17604092
000070 e4 b3 8c 3d c3 e4 1a 3e 02 a9 f2 bb 33 23 15 be
       0.06870249 0.15126328 -0.007405401 -0.14564209
000080 04 6a 37 be 19 f7 3d be 21 89 06 be f6 35 31 3f
       -0.17911536 -0.18551292 -0.13138248 0.6922296
000090 05 34 42 bc c2 00 0a bc 26 6f a0 3f f7 29 c1 bd
       -0.011853223 -0.008423032 1.253392 -0.09431832
0000a0 0b eb a8 bd 7f cf b3 bd b5 e4 00 be ed f4 31 be
       -0.08247956 -0.08779811 -0.12587245 -0.17378588
0000b0 99 48 a7 3d 74 c5 0b be 16 d0 05 3f 2f ad 8f 3c
       0.08168144 -0.13649541 0.5227064 0.017538635
0000c0 13 d3 98 3d 5a c5 55 bc 73 e4 d5 3d ea cd 0c 3e
       0.07462134 -0.013047541 0.10443964 0.13750425
0000d0 b6 39 eb 3d c6 a8 2d bf 6c 17 34 3e 4e 6e 3d be
       0.11485617 -0.6783565 0.1758706 -0.18499109
0000e0 50 e2 c4 bd 0d c2 8a 3a 8d 91 52 3e 88 80 c5 3c
       -0.09613478 0.0010586396 0.20563336 0.02410914
0000f0 3e 6c 53 be 46 fc 18 be 81 08 f4 3c a4 76 c5 3d
       -0.2064676 -0.14939985 0.029789211 0.096417695
000100 4f 9d 74 bf 51 63 d9 be 83 1a 1b 3e d3 77 19 3e
       -0.95552534 -0.42458585 0.15146832 0.14987116
000110 81 29 63 bd 75 8a 37 be 4e 3e 8b bd e8 b9 01 be
       -0.055459503 -0.17923911 -0.06798993 -0.12668574
000120 a6 72 de bd c1 0e a5 3d 35 d7 24 be 08 25 02 3e
       -0.10861711 0.08059455 -0.1609772 0.12709439
000130 80 47 43 be 75 a5 1d 3e 5c bc 95 3d b2 67 04 3e
       -0.19070244 0.15395148 0.07311317 0.12930182
000140 f9 89 81 be a4 bd 8b 3d 4a a1 0f bf 52 e7 35 be
       -0.25300577 0.068232805 -0.5610548 -0.17764023
000150 ca 1c 76 bf e2 48 bf bd 30 6b 1f 3e b6 bd ce bd
       -0.9613768 -0.09340073 0.15568233 -0.10094778
000160 4f 5b 12 3d 68 c4 27 be 7a 1c 53 3d 75 4c 8b bc
       0.03573161 -0.16383517 0.05154083 -0.017004231
000170 b5 56 40 be e3 0f cc bd 9e f5 b0 bd 65 e7 35 3e
       -0.18783076 -0.09963968 -0.08640598 0.17764051
000180 3e 9c 24 3c c5 18 cc bd a8 fb cc 3b bf aa f8 3d
       0.010047017 -0.09965662 0.0062555857 0.12141942
000190 b5 3b 2f be 91 c4 0c 3d 83 7d 22 3e 81 2a b7 3e
       -0.1711262 0.034367148 0.15868191 0.35774615
0001a0 3f 2c 09 3c 10 a3 a1 3d 3e 50 0b 3e 99 40 07 be
       0.0083723655 0.0789243 0.13604829 -0.13208236
0001b0 82 23 b4 bc 59 a4 df 3d 22 98 44 bf 5c 9a d1 3d
       -0.021989588 0.10920019 -0.76794636 0.1023452
0001c0 ba b1 4e bd c6 8b 8b 3c 0b 03 83 bc 1f 2e 31 3e
       -0.050462462 0.017034423 -0.015992662 0.1730275
0001d0 76 7d 26 be 66 64 d7 3c d8 b0 24 3e ad 34 fc 3d
       -0.16258797 0.02629299 0.16083086 0.123147346
0001e0 1f cc b5 3d aa 6e 8e 3d 77 14 97 3c 38 63 15 3d
       0.08876824 0.06954701 0.018442376 0.036471575
0001f0 8a 1d 0e bf 66 98 f9 3d 34 27 18 be b4 86 5d be
       -0.55513823 0.12187271 -0.14858705 -0.21633416

fc_std.0.weight f4 [1, 128]
000000 c3 6f a5 3d df 54 bf 3e 17 61 6c bd ab cb 17 3e
       0.080779575 0.3736944 -0.05770978 0.14823787
000010 6a b5 f0 3d 91 3b 09 3d dc c9 47 be 3e 2c 90 3a
       0.11753352 0.033504073 -0.19510597 0.0010999513
000020 a2 ce 30 bd 7b 2d 96 3d 87 f0 ee 3c 3b 0e 99 3d
       -0.04316581 0.073328935 0.029167427 0.07473417
000030 21 f8 a6 3d 1c 0f a9 be 2a 19 c3 3c 61 ab 50 3e
       0.081527956 -0.3301934 0.02381571 0.20377876
000040 15 7d d6 3e da 62 87 bd 50 8a dd 3d 91 be 63 3d
       0.41892305 -0.06610651 0.10817397 0.05560166
000050 52 94 c2 be 56 38 66 3d dd bc 6e bd d7 df 10 be
       -0.38003784 0.05620607 -0.058285583 -0.14147888
000060 3a 3e 5a 3d b1 a6 9b 3d e5 a7 9f be a5 e6 4f be
       0.053282 0.07600153 -0.3118278 -0.20302828
000070 f2 57 68 3d 0b ae 4d 3e 40 7c 18 be 3f ac 59 bc
       0.056724496 0.20085923 -0.14891148 -0.013285696
000080 cf a2 19 be e1 e8 2e be 62 a3 9e bd 7b 80 4b bf
       -0.15003513 -0.17081024 -0.077460065 -0.7949292
000090 b7 18 b5 bd 9f 31 90 bd 7a a6 8c bd d4 b3 48 3e
       -0.088426046 -0.070407145 -0.068676904 0.19599849
0000a0 b3 38 30 be 83 b7 61 3d f3 f8 f0 3b 9c ac 2c be
       -0.17209129 0.05510665 0.007353896 -0.1686272
0000b0 94 da b3 bd a6 61 cb 3c a9 51 e5 3e 0d 61 ee 3d
       -0.08781925 0.024826836 0.44788864 0.11639605
0000c0 6d 8f 79 3e 1e 8e 2e 3e 5c 33 de bc 77 7b 57 bd
       0.24371119 0.17046401 -0.0271241 -0.05260798
0000d0 1a ce 26 be 9b 00 8c 3e 5d ea dc 3d 36 70 d4 bc
       -0.16289559 0.27344212 0.10786889 -0.025932413
0000e0 ed 98 1e be 8d 0b 8d 3d 85 77 8b be 29 15 ef be
       -0.15488024 0.06886969 -0.27239624 -0.4669583
0000f0 ed 3f a6 3d a2 0f 03 3e b9 45 5a be 89 86 20 be
       0.081176616 0.12798932 -0.2131566 -0.15676321
000100 c9 ca a7 3e 00 c3 18 bf 6d 24 57 3e ac 6d 56 3d
       0.327719 -0.59672546 0.21009989 0.052350685
000110 f3 b7 7d 3d c6 0d 8a 3d 7e 8d 3a be a3 ba 13 3d
       0.061943006 0.06740908 -0.18218037 0.036066663
000120 b7 8c cd be 2c b4 4e bd 89 fe 9a 3d f8 4e 85 3a
       -0.4014642 -0.050464794 0.0756808 0.0010170629
000130 44 57 4f 3e 6a 8d 9b bd 11 41 e1 3d 0a 09 ae bd
       0.20248133 -0.07595332 0.109987386 -0.08497818
000140 36 b8 79 3d 3b 89 95 bd 96 36 80 3e 88 7a b0 bd
       0.060966693 -0.07301565 0.25041646 -0.08617121
000150 7e f8 35 be 00 df 1b 3e dc e7 45 3e f0 43 d0 3b
       -0.17770573 0.15221786 0.19326729 0.006355755
000160 c2 1f 80 be 66 d2 6d 3e 78 ae 2b 3d ec 22 81 3d
       -0.2502423 0.23224792 0.041914433 0.06305489
000170 d1 a8 6f be b5 b4 1f be 92 1b 31 3e f5 f6 14 be
       -0.23404242 -0.15596278 0.17295673 -0.14547332
000180 d0 bb 34 3e c3 4b 3e ba 7a d8 33 ba 93 58 0d be
       0.1764977 -0.0007259214 -0.00068605656 -0.1380332
000190 dd ed fa bd bc 39 0a 3e be 2f 8c bd 18 e5 d7 3d
       -0.122524 0.13498586 -0.068450436 0.10541743
0001a0 31 c9 38 be 91 aa 60 bd e2 13 64 3c 11 97 98 3e
       -0.18045498 -0.054850165 0.013920756 0.29802755
0001b0 2b d2 4e 3e 07 f6 09 be ec eb bc 3d 2e 76 11 3e
       0.2019736 -0.13472758 0.09224686 0.14205238
0001c0 7b a3 1a bd 27 2b 22 be 75 d1 73 be d9 da 53 3c
       -0.037753563 -0.15836774 -0.2381037 0.012930595
0001d0 45 f6 c2 bc 54 2f 2f be 48 26 47 bb 83 aa 4b 3e
       -0.023799071 -0.17107898 -0.0030387808 0.19889264
0001e0 4e fe cf bd 89 7a 9b 3d d7 58 05 be d7 9f 54 3e
       -0.10155927 0.07591731 -0.13022171 0.20764099
0001f0 6b 25 b0 3e 8c 81 94 be f5 9f d6 3d 60 34 9d be
       0.34403548 -0.29005086 0.10479728 -0.3070402
