policys/model_value1.pth (torch, 71930 bytes, 5 tensors)

sequential.0.weight f4 [128, 4]
0	0xc0f16af6	-7.5443068
1	0xbddbc487	-0.10730844
2	0x3e221259	0.15827312
3	0xbae114c1	-0.0017172323
4	0xc0e4583d	-7.1357713
5	0x3f0f66cb	0.56016225
6	0xc082f3f9	-4.092282
7	0x3f4e3d3c	0.80562186
8	0xc1035b70	-8.209824
9	0x3c43e1be	0.011955677
10	0xc118d649	-9.552316
11	0x3e62701d	0.2211308
12	0xc08f0419	-4.46925
13	0xbebabc57	-0.36471817
14	0xc023b4f2	-2.557919
15	0x3d78df43	0.060759794
16	0x40fdfa4a	7.936803
17	0xbd7517a8	-0.059837013
18	0xbf0e7b0a	-0.5565649
19	0x3f0e56fc	0.5560148
20	0xc141c655	-12.110921
21	0xbccef8d4	-0.025265135
22	0xbd7f2f71	-0.062301103
23	0xbcb65405	-0.02225686
24	0x3f955402	1.1666262
25	0x3e401916	0.1875957
26	0xbe9a5538	-0.30143142
27	0x3dfdd413	0.123939656
28	0x4107b888	8.482552
29	0x3ecc40e5	0.3989326
30	0x4004826b	2.07046
31	0x3eaad9b9	0.33369234
32	0x41380938	11.502251
33	0x3e1a0ec2	0.15044692
34	0x3ff854a0	1.9400826
35	0xbf80c9ae	-1.0061548
36	0x4124597a	10.271845
37	0x3daec361	0.08533359
38	0x3f79bade	0.9755076
39	0xbee80c8d	-0.45322075
40	0xc0a0643f	-5.012237
41	0xbe8cecbf	-0.27524373
42	0xc024c4d1	-2.5745127
43	0xbc06b792	-0.0082224775
44	0x4129257c	10.571651
45	0x3e4c6109	0.19958891
46	0x4001acca	2.0261712
47	0xbf880b86	-1.0628517
48	0xc0e53a61	-7.1633763
49	0x3e6fddaa	0.23424402
50	0xc0ce4098	-6.445385
51	0x3d8b7664	0.068096906
52	0x402df507	2.7180803
53	0xbde4b545	-0.11167387
54	0x40c60343	6.187898
55	0xbe882d13	-0.2659689
56	0xc0418cd6	-3.024221
57	0xbef2171a	-0.4728325
58	0xbcde7495	-0.0271552
59	0xbe643857	-0.22287117
60	0x40aadc96	5.339427
61	0x3e03d2b7	0.1287335
62	0x4081a233	4.0510497
63	0xbd5145b4	-0.051091865
64	0x41011fc1	8.070252
65	0x3e861aa5	0.26192203
66	0x4016fdcf	2.3592412
67	0x3e816245	0.25270286
68	0xc11a308a	-9.63685
69	0x3d83d8da	0.064378455
70	0x40a6e10e	5.2149725
71	0xbcbdaef1	-0.023154708
72	0x3f4cc410	0.7998667
73	0x3c1afcff	0.009459733
74	0x401b083c	2.4223776
75	0xbd54ad1a	-0.051922895
76	0xc086342e	-4.1938696
77	0x3c577b2e	0.013151927
78	0xc02d93f4	-2.7121553
79	0xbe3f2256	-0.18665442
80	0x4117e626	9.493689
81	0x3dacd7f2	0.08439626
82	0x3f907d3c	1.1288218
83	0xbee635ae	-0.4496283
84	0x41295051	10.5821085
85	0x3dc2aed4	0.09506002
86	0x3ff84028	1.9394579
87	0xbf04a2f4	-0.51811147
88	0x415e214e	13.883131
89	0x3d89e53e	0.067331776
90	0x40f65266	7.6975584
91	0x3eb37f4d	0.3505806
92	0x407b595b	3.9273288
93	0x3cd80a3f	0.026372073
94	0x402d47e7	2.7075136
95	0xbc24e13a	-0.010063464
96	0x41381040	11.503967
97	0x3e0226d5	0.12710126
98	0x3ffc392d	1.9704949
99	0xbf669767	-0.9007477
100	0x411022d5	9.008504
101	0x3d1a6a3c	0.03769897
102	0xbdd31a4b	-0.10307749
103	0x3e6a64f9	0.2289008
104	0xc0bf5de8	-5.980213
105	0x3ea65bf4	0.3249203
106	0x402bd6b6	2.68498
107	0xbe5f391f	-0.21799134
108	0xc108dd80	-8.554077
109	0x3d97f9b3	0.07420673
110	0xc0531f71	-3.298794
111	0x3f959801	1.1687013
112	0x41068111	8.40651
113	0x3e93ba74	0.2885319
114	0x405f34a5	3.4875882
115	0xbdd3bc57	-0.10338657
116	0x40f8d9f2	7.7766047
117	0x3e970b88	0.29500985
118	0x3e79647a	0.24354735
119	0x3f423307	0.7585911
120	0x411fc2e7	9.985084
121	0x3f0e5135	0.5559266
122	0x4043a905	3.0571911
123	0xbf38c4d0	-0.7217531
124	0x40fc33da	7.8813295
125	0x3ebe58c4	0.37177098
126	0x3e51a370	0.20472503
127	0x3e694d64	0.22783428
128	0xbf76000a	-0.9609381
129	0x3f1bcf80	0.60863495
130	0x40da5d23	6.823869
131	0xbdd56c8a	-0.10421093
132	0xc11853bd	-9.520444
133	0x3c4fff62	0.012695165
134	0xbffd635e	-1.979595
135	0x3d7f11e7	0.062272932
136	0xc11f7d1f	-9.968047
137	0xbd860977	-0.06544774
138	0x3f392b1d	0.7233141
139	0xbda46587	-0.08027177
140	0xc088f1d5	-4.2795205
141	0xbe57ad6c	-0.21062249
142	0xc06d4792	-3.7074933
143	0xbd5d370e	-0.054007582
144	0x41232157	10.19564
145	0x3d01c9ea	0.0316867
146	0x415085a2	13.032625
147	0xbd39ec7d	-0.04539155
148	0x40ee4682	7.446107
149	0x3ee78fc1	0.45226863
150	0x3ff2716a	1.8940861
151	0xbf791f0e	-0.9731301
152	0xc11b027a	-9.688105
153	0x3e217a0a	0.1576921
154	0xc093e14f	-4.6212535
155	0xbf18b811	-0.59655863
156	0x40b1e422	5.5590982
157	0x3e4e0421	0.20118763
158	0xbedb5f48	-0.4284613
159	0x3f8e7178	1.1128378
160	0x412f705a	10.96493
161	0x3db7d8b5	0.089768805
162	0x3f9e157d	1.2350308
163	0xbee5303f	-0.4476337
164	0x40f66391	7.699654
165	0x3e709342	0.23493674
166	0x40c3617b	6.1056495
167	0xbeb82e38	-0.35972762
168	0xc0a7c209	-5.242436
169	0xbb36d03c	-0.0027895113
170	0xc08dcb2a	-4.4310503
171	0xbede624f	-0.43434379
172	0xc067a4b2	-3.6194272
173	0xbed5d58d	-0.4176449
174	0xc05e5c1d	-3.4743721
175	0x3d450195	0.048097212
176	0x40f4a951	7.6456685
177	0x3d9ad3e9	0.0755995
178	0x3ffb264a	1.962106
179	0x3e33eae8	0.17570078
180	0xc0a7825f	-5.2346644
181	0x3ec01b86	0.37521
182	0xbee26b31	-0.44222406
183	0xbe0b27e5	-0.13589437
184	0x4109ca1a	8.611841
185	0x3d5aae6d	0.053389
186	0x4035caf1	2.8405116
187	0x3e82a04c	0.25512922
188	0x4117321f	9.449737
189	0x3dda5361	0.106604345
190	0x3fab7b18	1.339694
191	0xbe957376	-0.29189652
192	0xc09b3c28	-4.8510933
193	0xbe2eaef9	-0.17058934
194	0x3fbb124c	1.4614959
195	0xbeccd2ce	-0.4000458
196	0xc0841ead	-4.1287446
197	0xbe7810d1	-0.24225165
198	0xbf78d7d8	-0.9720435
199	0x3d43d26f	0.047808107
200	0x40cbb0f3	6.3653502
201	0x3e7146cc	0.23562163
202	0x3f9cb3a3	1.2242321
203	0xbe560162	-0.20898965
204	0xc083f1aa	-4.12325
205	0x3deeb42f	0.11655461
206	0xbec203e5	-0.37893596
207	0xbd1807b8	-0.037116736
208	0x41051001	8.316407
209	0x3d9ccfce	0.07656823
210	0x40980e5a	4.751752
211	0xbefd2cc4	-0.49448216
212	0x40821d73	4.066095
213	0x3f6cb422	0.9246236
214	0xbfea62ba	-1.8311379
215	0xbc2df0a3	-0.010616454
216	0xc0d187ed	-6.5478425
217	0x3f1fed30	0.62471294
218	0xbfe384af	-1.7774867
219	0xbe3c854c	-0.18410224
220	0x4116c11b	9.422145
221	0x3e1b002f	0.15136789
222	0x40210245	2.5157635
223	0xbe9b5864	-0.30340874
224	0x41156197	9.336326
225	0x3c3c6a56	0.011499962
226	0x40332c71	2.7995875
227	0xbea16798	-0.31524348
228	0xc00de83f	-2.2173002
229	0xbe5e417e	-0.21704671
230	0xc0135736	-2.302198
231	0xbf736965	-0.95082694
232	0x405e7b05	3.4762585
233	0x3ed9dc95	0.42551103
234	0xbde7b911	-0.113145955
235	0x4014f449	2.32741
236	0x410e629b	8.899074
237	0x3e4f7039	0.20257653
238	0x40a1edc9	5.0602765
239	0xbc9ea8b6	-0.019367557
240	0x4103b097	8.230613
241	0x3e2d122c	0.16901463
242	0x3f852a71	1.0403577
243	0xbf73d3d4	-0.952451
244	0xbee22533	-0.44169006
245	0x3ec5d3f5	0.38638273
246	0xc08b8d29	-4.3609815
247	0x3e41b0d1	0.18915106
248	0x410a541a	8.645533
249	0x3e038f5b	0.12847655
250	0x40ca2974	6.31756
251	0x3d6fe212	0.058565207
252	0x4139fd37	11.62432
253	0x3ef923f9	0.48660257
254	0x402c5fc0	2.693344
255	0x3ee012b8	0.4376428

sequential.0.bias f4 [128]
0	0xc0fc16bf	-7.8777766
1	0x403d844a	2.9611993
2	0xbf48e7b1	-0.78478533
3	0x40410d3d	3.016433
4	0x40a72b3e	5.2240286
5	0xc0e9babf	-7.304046
6	0x40a86fea	5.2636614
7	0xbdbe4b9b	-0.09291764
8	0x3ecac72e	0.39605087
9	0x3ff85186	1.9399879
10	0x4010283d	2.252456
11	0x3f4c6d8d	0.7985466
12	0x40643e18	3.56629
13	0xc1358fce	-11.347609
14	0x40354f14	2.8329515
15	0xc02d1d0d	-2.704898
16	0x3fc47169	1.534711
17	0x3fe6a0ce	1.8017824
18	0xc058e37f	-3.3888853
19	0x40baea5a	5.8411074
20	0x3e8404c7	0.25784895
21	0x3f1e4761	0.61827666
22	0xc02c093b	-2.6880634
23	0xc0a68c26	-5.204608
24	0x3f137d98	0.57613516
25	0x3fc52f78	1.5405111
26	0xbde88420	-0.11353326
27	0xbf1acb9d	-0.6046694
28	0xc0652cc3	-3.580857
29	0x3fd6f355	1.6793009
30	0xbe90c796	-0.28277272
31	0x3fbc6ce4	1.4720731
32	0xc0c6563a	-6.1980257
33	0x410f9ea4	8.976231
34	0xc0e8979a	-7.268506
35	0x403540f3	2.8320892
36	0x3fbeb861	1.4900018
37	0xbd7e6809	-0.062110934
38	0x4033e22f	2.8106802
39	0x402601c9	2.593859
40	0x3f5d6db7	0.86495537
41	0xbf29bf41	-0.66307455
42	0x40ce147c	6.4400005
43	0x4057a008	3.3691425
44	0x40386324	2.881051
45	0x405ad0b6	3.4189887
46	0x3fda43a5	1.7051893
47	0x3e1075ec	0.14107484
48	0xc0f169f6	-7.5441847
49	0x3fbaa176	1.4580524
50	0x3f9275ae	1.1442163
51	0xc0e113bf	-7.0336604
52	0xc00946d9	-2.1449492
53	0x405ca919	3.447821
54	0xbf668d50	-0.90059376
55	0x3ddcdd34	0.10784379
56	0x3f3cb086	0.73706853
57	0x408173bd	4.045378
58	0x40a2e2e0	5.0901947
59	0xbfde3cc7	-1.7362298
60	0x4017ab95	2.3698475
61	0x41180a00	9.502441
62	0xc0931224	-4.5959644
63	0x3d8df66f	0.06931769
64	0xbffe552c	-1.9869742
65	0x3f98026f	1.1875743
66	0x3ef1091a	0.47077256
67	0x3f6eae2f	0.93234533
68	0x406ba03b	3.6816547
69	0x4090c84e	4.5244513
70	0x3fbe26ef	1.4855632
71	0x3f9ba4f6	1.2159717
72	0xc11c9559	-9.786462
73	0xbc2eae07	-0.010661609
74	0x3fd05c1d	1.6278111
75	0xc09701ef	-4.718986
76	0xc04af262	-3.1710439
77	0x410486c5	8.282903
78	0x40bb10ef	5.845817
79	0x3f95df61	1.1708795
80	0x404ee8c2	3.2329564
81	0x40dfd5bb	6.99484
82	0xc109a752	-8.60335
83	0x407bfbea	3.9372506
84	0xbd8dfa59	-0.06932516
85	0x4025d701	2.5912478
86	0x402d5784	2.7084665
87	0x40828adb	4.07945
88	0x40d9a9b1	6.8019643
89	0x3fa2db7b	1.272323
90	0xc103bcde	-8.23361
91	0x40bb7daf	5.859092
92	0xc0c3cf9d	-6.1190934
93	0x406843c7	3.6291368
94	0x3fb27870	1.3943005
95	0x4096b94b	4.710119
96	0x3f76ecc1	0.9645501
97	0x40f31e99	7.597485
98	0x3fe0570a	1.7526562
99	0xbfc5647a	-1.5421288
100	0xbf2e6dbb	-0.68136185
101	0x3fb2b1e4	1.3960538
102	0xc10cbf82	-8.796755
103	0x3f73cc59	0.95233685
104	0x403765ea	2.8655953
105	0xbf695d16	-0.9115766
106	0xc120b0d2	-10.043169
107	0x40a147d5	5.0400186
108	0x409f5ba3	4.979936
109	0x407530e2	3.8311086
110	0x3f8a851e	1.0821874
111	0xc00fe63d	-2.2484276
112	0x400b3a9e	2.1754527
113	0x3e30b928	0.17258132
114	0x3e919f4a	0.2844184
115	0x400d5bde	2.2087321
116	0xbdd4a3cc	-0.10382804
117	0xbf95c7c6	-1.1701591
118	0x3fb5f730	1.4216061
119	0x3f8d8f88	1.1059427
120	0x40024334	2.0353518
121	0x401836a2	2.3783345
122	0xc09015c3	-4.5026565
123	0x4090f832	4.5302973
124	0xc0ad0089	-5.4063153
125	0x4049be36	3.1522346
126	0xc0f8c5fe	-7.774169
127	0xc07106b8	-3.766035

sequential.2.weight f4 [128, 128]
0	0xbfbb0478	-1.4610739
1	0xbfd069de	-1.6282308
2	0xc07ff0da	-3.9990754
3	0x3ce93cca	0.02847137
4	0x3fb4b78c	1.4118514
5	0xbff61853	-1.9226173
6	0x3f0c5a7e	0.5482558
7	0xbf1814e0	-0.5940685
8	0xbf5d9dcb	-0.865689
9	0xbf3858fa	-0.7201077
10	0xbc568e4b	-0.013095449
11	0xbed3264f	-0.41240165
12	0x402af426	2.6711516
13	0xc00cb4ec	-2.1985426
14	0x3cc946e3	0.024569934
15	0xbf3c164f	-0.7347154
16	0xbe5acab4	-0.21366388
17	0xbf994234	-1.1973329
18	0xbe1f85e8	-0.15578425
19	0xbdd60a17	-0.10451143
20	0xbefe6a67	-0.49690554
21	0xbea83394	-0.3285185
22	0xc0c49a67	-6.143848
23	0xc004987d	-2.0718071
24	0xbeab2281	-0.33424762
25	0xbf662433	-0.89898986
26	0xbe3c5f9f	-0.18395852
27	0x3f23620a	0.6382147
28	0xbdb02e63	-0.086025976
29	0xbf4a2606	-0.7896427
30	0x3e6c2f78	0.23064983
31	0xbf627a18	-0.8846755
32	0xbee0a3ad	-0.43874875
33	0xbfd4d59d	-1.662769
34	0xbf454d2f	-0.770709
35	0x3d1496dc	0.036276683
36	0xbfaec2ec	-1.3653235
37	0xbecdb5de	-0.40177816
38	0xc02fa6c6	-2.744554
39	0xbf032842	-0.51233304
40	0xbf37b718	-0.71763754
41	0x3e502054	0.20324832
42	0x3e9a4db0	0.30137396
43	0xbe54854c	-0.20753974
44	0xbf27777a	-0.6541668
45	0xbe19c932	-0.15018156
46	0xbf6a0878	-0.9141917
47	0xbc7983e0	-0.015229195
48	0xbf2d019e	-0.6758059
49	0xbde1de37	-0.11028712
50	0xbdd28ba5	-0.10280541
51	0xbfaf7ea9	-1.3710529
52	0xbe620180	-0.22070885
53	0xbee72600	-0.4514618
54	0xc0184adc	-2.379569
55	0xbf0f7c68	-0.56049204
56	0xbee7aab0	-0.45247412
57	0x3e3cb57b	0.18428604
58	0x3f153864	0.5828917
59	0xbd573b0d	-0.05254655
60	0xbf5d51b6	-0.86452806
61	0x40eca7c3	7.3954787
62	0xc0e73f22	-7.2264566
63	0xbee2f005	-0.44323745
64	0xbcfdccb4	-0.0309814
65	0xbf5289b8	-0.8224139
66	0xbe58bb97	-0.2116531
67	0xbf286938	-0.6578555
68	0xbf12422c	-0.5713222
69	0xbf9b27eb	-1.2121557
70	0xbf6ed290	-0.9329004
71	0xbee1c71b	-0.44097218
72	0xbf287bd3	-0.6581394
73	0x3d96b97f	0.07359599
74	0xc01593e7	-2.3371522
75	0xc0d4f4e7	-6.6548953
76	0xbf0b2e3a	-0.5436741
77	0x3f44b08a	0.7683188
78	0x3e06fdcb	0.13182752
79	0xbf2b8456	-0.66998804
80	0xbd8abf0d	-0.06774721
81	0xbeb358d1	-0.350287
82	0xbf3e863e	-0.7442359
83	0xc00f3e85	-2.238191
84	0xbf155450	-0.58331776
85	0xc02ee931	-2.7329829
86	0x3f01a877	0.5064768
87	0x3e52f6dc	0.20601982
88	0x3e80c683	0.25151452
89	0xbd086e5b	-0.03330837
90	0xbffee694	-1.9914117
91	0x3e313940	0.17306995
92	0xc090f6a1	-4.530106
93	0xbf13c78f	-0.5772638
94	0xbde1a606	-0.110179946
95	0xbec2bbc4	-0.3803388
96	0xbf52a086	-0.8227619
97	0x3f9c954e	1.2233064
98	0x3ed9690f	0.42462966
99	0x3e124aa3	0.14286284
100	0xbf675c48	-0.90375185
101	0xbec90141	-0.3925877
102	0xbfa99db9	-1.3251258
103	0xbf4c7eca	-0.79880965
104	0xbf05ac32	-0.52215874
105	0xbe13b0ce	-0.14422914
106	0xbf967ab0	-1.1756191
107	0x3f0f41d0	0.55959797
108	0x3d5a8bb2	0.05335588
109	0xbef9da81	-0.48799518
110	0xbecb2307	-0.3967516
111	0x3e1b039d	0.15138097
112	0xbea7637b	-0.32693085
113	0xbf1779b9	-0.5917011
114	0xbeb0836e	-0.34475273
115	0xbf02bde1	-0.5107098
116	0xbed3bee8	-0.41356587
117	0xbe980362	-0.2969008
118	0x3e8f5fdc	0.28002822
119	0xbffe220a	-1.9854138
120	0xbe79911e	-0.24371764
121	0xbe282c60	-0.16423178
122	0xbebd6764	-0.36992943
123	0xbdccab14	-0.09993568
124	0xc00d06ac	-2.2035322
125	0xbd36025b	-0.04443584
126	0xbec7e869	-0.39044502
127	0x3e6beec5	0.23040302
128	0x3e8ddb9c	0.2770661
129	0x3e982745	0.2971746
130	0xbdf489bf	-0.119403355
131	0x3e6af92d	0.22946616
132	0xbf172072	-0.5903388
133	0x3e769eaf	0.2408397
134	0x3e233339	0.15937509
135	0xc017cbf9	-2.3718245
136	0x3fb23771	1.3923169
137	0x3fe0d808	1.7565928
138	0x3d38cd4b	0.045117658
139	0x3f5e1243	0.86746615
140	0x3f73d5db	0.9524819
141	0x3eb47599	0.3524597
142	0xbcfb4409	-0.03067209
143	0xbf127187	-0.5720448
144	0xc08a3ed9	-4.320172
145	0x3ebb6499	0.36600187
146	0x3d39794a	0.045281686
147	0xbdbdc061	-0.09265209
148	0x3fdf2998	1.7434568
149	0x400f94fb	2.243468
150	0xbf15fbf0	-0.5858755
151	0xbebfa248	-0.37428498
152	0x3fa95b21	1.3230935
153	0xbe5a5bfe	-0.21324155
154	0xbc5e02fa	-0.013550514
155	0x3dbeaa79	0.09309859
156	0xc0036886	-2.0532546
157	0xc0792944	-3.8931437
158	0x3ec427dd	0.38311663
159	0xc020770b	-2.5072658
160	0x3e3847e9	0.17996182
161	0xbf0b4ba1	-0.54412276
162	0x3ebb6acf	0.36604926
163	0x3e08892a	0.13333574
164	0xbfd55d5f	-1.666912
165	0x3f20b66c	0.62778354
166	0x3f73b7d5	0.9520238
167	0x3fdca7ef	1.7238749
168	0x3fe46e13	1.7846092
169	0x3f47fd94	0.78121305
170	0xbc9ab89a	-0.018886853
171	0x3d73902c	0.059463665
172	0xc0c48170	-6.1408005
173	0x3f738706	0.95127904
174	0xbf2ed201	-0.6828919
175	0x40381641	2.8763583
176	0x3e37d48f	0.17952178
177	0x3e034335	0.12818606
178	0x3e835184	0.2564813
179	0xbfe2f402	-1.7730715
180	0x3f83ecef	1.0306681
181	0x3f5d076f	0.8633947
182	0x3fc257f6	1.5183094
183	0x3f2af480	0.6677933
184	0x40032d63	2.0496452
185	0xbc0deb1f	-0.008662014
186	0x3feafdc6	1.8358696
187	0xc021fafd	-2.530944
188	0x3f808fd7	1.0043896
189	0x3f4a2859	0.78967816
190	0x403affc3	2.9218605
191	0xc09613c4	-4.689913
192	0x3e618f36	0.22027287
193	0x3f991f48	1.1962671
194	0x3fc6ba16	1.5525539
195	0x3f89fdf1	1.0780622
196	0xbdcfe577	-0.10151189
197	0x3fd2ec32	1.6478331
198	0x4027a855	2.6196492
199	0x3ee3d37f	0.44497296
200	0x3d973e8c	0.07384977
201	0x40147253	2.3194778
202	0x3fb8dab7	1.4441746
203	0x3fe0e890	1.7570972
204	0xbef7419e	-0.4829225
205	0xbee83c1d	-0.45358363
206	0xbeb0ba60	-0.34517193
207	0xc0ee9af9	-7.4564176
208	0xbe635fb9	-0.22204484
209	0xbfb0747f	-1.3785552
210	0x3e81ee4e	0.25377125
211	0x3f5addfe	0.85494983
212	0x4022d306	2.5441298
213	0x3f21619f	0.6303958
214	0x3f8acf9a	1.0844605
215	0xbd0a5875	-0.033775765
216	0xbe1caa56	-0.15299353
217	0x3f3c1128	0.7346368
218	0x3e2fe1c5	0.17175968
219	0xbe79befe	-0.24389264
220	0x3f7e6986	0.99379766
221	0x3fa50a32	1.2893736
222	0xc0a43c19	-5.132336
223	0x3fb2b48a	1.3961346
224	0xc09977ee	-4.79589
225	0xbec76949	-0.38947514
226	0x3ef21766	0.47283477
227	0x3fab73d7	1.3394727
228	0x3fd65ac1	1.6746446
229	0xc0352129	-2.830149
230	0x3dff8232	0.12476005
231	0x3de4139f	0.11136555
232	0xc0bd6974	-5.9191227
233	0x3dcb9816	0.099411175
234	0x3e89d532	0.26920468
235	0x3f0554be	0.5208243
236	0xbeda6b5b	-0.4266003
237	0xbfc177ed	-1.5114723
238	0xc05a96d9	-3.415457
239	0x3f7f5b48	0.9974866
240	0x3d00a311	0.031405512
241	0xbed22d83	-0.41050348
242	0xc0391d12	-2.8923993
243	0xc0a1c448	-5.05521
244	0xbf98f3dc	-1.194942
245	0x3ee9e3a6	0.45681494
246	0x3fc7a9ea	1.5598729
247	0x3dbbe7e6	0.091750905
248	0xbdad94d4	-0.08475652
249	0x3d3cf8cd	0.046135712
250	0x3fd55922	1.6667826
251	0x3e1e5c37	0.15464865
252	0x3ec9133f	0.39272496
253	0x3d072392	0.032992907
254	0x3dbbfe09	0.09179313
255	0xc01a386c	-2.4096937

sequential.2.bias f4 [128]
0	0x40ae8639	5.4538846
1	0x3fc3fb8d	1.5311142
2	0x3f7b3964	0.98134446
3	0x403ab92b	2.9175518
4	0xc0c62f32	-6.193261
5	0x4012633d	2.287307
6	0x401e670c	2.4750395
7	0xbd7bccaf	-0.0614745
8	0x409ddbba	4.933072
9	0xbd94d696	-0.072674915
10	0x3e401db0	0.18761325
11	0x403fe783	2.9985054
12	0xc0b436d4	-5.631693
13	0x4012be31	2.2928584
14	0x403d46eb	2.9574535
15	0x3f48c2cb	0.7842223
16	0x3f5b7f72	0.8574134
17	0xbe29c71f	-0.16579865
18	0x3f319f2d	0.6938351
19	0xbd68e179	-0.056855652
20	0x4036eee4	2.8583307
21	0x3fe94145	1.8223044
22	0xbd651dc1	-0.05593658
23	0x404dcdce	3.2156863
24	0x3e6dfe01	0.23241426
25	0xbd5d6c2d	-0.054058243
26	0xc0c23784	-6.069277
27	0x401b89fc	2.430297
28	0x3fd3f84d	1.656015
29	0x3ff2f853	1.8982033
30	0x3e959544	0.29215443
31	0xbdd6855d	-0.10474656
32	0x3fbb0494	1.4610772
33	0x3ff560c8	1.917016
34	0x3fc93a0a	1.5720837
35	0xbf0a6e64	-0.5407469
36	0x3fb165cb	1.385919
37	0x4098b596	4.7721663
38	0xbcf62ec8	-0.030051604
39	0x3e812f72	0.2523151
40	0x40495e1c	3.146369
41	0x3f1679b3	0.5877945
42	0x403f6096	2.9902701
43	0xbd4e9f8f	-0.050445136
44	0xbd4c94cc	-0.04994659
45	0x4014c98f	2.3248022
46	0x403bd4c7	2.934862
47	0x403cb037	2.9482553
48	0x3e36dcb1	0.17857625
49	0xc05d6a6b	-3.4596202
50	0xbd322662	-0.043493636
51	0x400bd81a	2.1850648
52	0xbccb23ab	-0.024797281
53	0x403f5240	2.9893951
54	0x3fcb3f07	1.587861
55	0x3fc62342	1.547951
56	0xbd0c7d07	-0.034298923
57	0xbe5fc4f6	-0.21852478
58	0x3eb0e273	0.34547767
59	0x3eacc4d0	0.33743906
60	0x3f7fa234	0.9985688
61	0x3f8f3632	1.1188414
62	0xbd806ce6	-0.06270771
63	0x4042597e	3.0367122
64	0xbd9a8ddd	-0.075465895
65	0xbcfd8705	-0.030948171
66	0x3f6d4b3e	0.92692935
67	0x3f63c6da	0.889753
68	0x3fdc3bf6	1.7205799
69	0xbd4ffae4	-0.050776377
70	0x3eef0df7	0.46690342
71	0x3e849482	0.25894552
72	0xbd7d4735	-0.061835486
73	0x3f060e52	0.523656
74	0xbc69ce82	-0.014270427
75	0xbd0caa53	-0.03434212
76	0xbd8acc42	-0.0677724
77	0xbd7b7e76	-0.0613999
78	0x3ffd0fc4	1.9770436
79	0x3fb77e36	1.4335392
80	0xbd81a2a7	-0.063298516
81	0xbca9ccc3	-0.02072752
82	0xbceb9eb5	-0.0287622
83	0x3ef5047e	0.4785499
84	0x406af552	3.6712232
85	0x3ea904d2	0.3301149
86	0xbb931857	-0.0044889855
87	0x3e1b9ca5	0.15196474
88	0xbd353057	-0.044235554
89	0xbd8519ce	-0.064990625
90	0xbdb82290	-0.08990967
91	0x40008d27	2.0086153
92	0x4036f49f	2.8586805
93	0x4003719a	2.0538087
94	0xbdec1c15	-0.11528794
95	0x3fb9004b	1.4453214
96	0x3fc0ba3f	1.5056838
97	0x408033a2	4.006303
98	0x409df080	4.935608
99	0x3f95f52f	1.1715449
100	0xbd9d5d20	-0.07683778
101	0x40429ef2	3.0409513
102	0xbd89ca1f	-0.06728005
103	0x3f47f626	0.7810997
104	0x3e2de231	0.16980816
105	0x3f06248c	0.52399516
106	0x3fcc7426	1.5972946
107	0x402ab7ec	2.6674757
108	0xbd561cf4	-0.052273706
109	0xbcb1cee5	-0.0217051
110	0x403b08ef	2.9224203
111	0xbda709f7	-0.081561975
112	0x3ebbfd41	0.36716655
113	0x40256d6f	2.5848043
114	0xc0a03829	-5.0068555
115	0x40386844	2.8813639
116	0x3ea2dbe5	0.3180839
117	0x3f852f76	1.0405109
118	0xbd7b1e0d	-0.061307956
119	0x3f18f462	0.597479
120	0x40541d1f	3.3142774
121	0xbfcb5026	-1.5883834
122	0xbd8f9720	-0.07011247
123	0x403bcafa	2.9342637
124	0x3f661c59	0.89887005
125	0x403d8bac	2.96165
126	0xbdaddf74	-0.08489886
127	0xc08c1eb1	-4.3787465

sequential.4.weight f4 [1, 128]
0	0x4086ce08	4.2126503
1	0xbf83a7bc	-1.0285563
2	0x3f89a956	1.0754802
3	0xbedfe877	-0.43732044
4	0x3f7b0ff5	0.98071223
5	0xbf74cbf7	-0.95623726
6	0xbeb09f5c	-0.34496582
7	0x3e070b6f	0.13187955
8	0xc0f114e0	-7.533798
9	0x3dcf1c4a	0.101128176
10	0x3c6aa2d3	0.014321047
11	0xbf081821	-0.5316182
12	0x3f548342	0.83012784
13	0xbeec4479	-0.4614599
14	0xbee89b94	-0.45431197
15	0x3effc136	0.49952096
16	0x40cf428b	6.476873
17	0xbcd1066a	-0.025515754
18	0x3fcef554	1.6168618
19	0x3daff54e	0.0859171
20	0xbed24609	-0.41069058
21	0xbf3d6b7e	-0.73992145
22	0x3e13fae8	0.14451182
23	0x3b35b675	0.002772716
24	0x3c7d0393	0.015442747
25	0x3cff8f91	0.031196387
26	0x3c6e88a9	0.0145589495
27	0x40ce8cdf	6.454696
28	0xbfbab2df	-1.4585837
29	0xc0260fb5	-2.5947087
30	0xbebc9381	-0.36831287
31	0x399a5f4f	0.0002944418
32	0xbf33441a	-0.7002579
33	0xbff6150a	-1.9225171
34	0xbfd41aae	-1.6570642
35	0xc01982d9	-2.3986113
36	0x401dcf6e	2.4657855
37	0xc0756e9c	-3.834876
38	0xb98f5d45	-0.00027344577
39	0x3e30213e	0.17200181
40	0xbb302504	-0.0026877532
41	0x3fdba012	1.7158225
42	0xbf067b54	-0.52531934
43	0x3e07e898	0.13272321
44	0xbe0c8f8e	-0.13726637
45	0xbf33ea78	-0.70279646
46	0xbeb21244	-0.3477956
47	0xbeb92c4a	-0.36166602
48	0xbe381cb2	-0.17979696
49	0x4027a293	2.6192977
50	0x3d0f79ff	0.035028454
51	0x40c7e3b9	6.246548
52	0xbd4e51fb	-0.05037115
53	0xbefaf72b	-0.490167
54	0xbf1ca61e	-0.61190975
55	0xbf9b19df	-1.211727
56	0x3e1e3c89	0.1545278
57	0x3db0a50f	0.086252324
58	0x3b8ef4a0	0.0043626577
59	0x3c96b1d5	0.018395344
60	0xbb3fb733	-0.0029253482
61	0x3b98fb6f	0.004668645
62	0x3d09cf9f	0.03364527
63	0xbf0bb08a	-0.5456625
64	0xbe031cb9	-0.12803926
65	0x3e34751e	0.17622802
66	0xbf8fd188	-1.1235819
67	0x40061fd9	2.0956938
68	0xbf27d7bd	-0.65563565
69	0x3bf69a16	0.0075256927
70	0xbee7e440	-0.45291328
71	0xbcbe9304	-0.023263462
72	0xbd933477	-0.07187741
73	0xbc24e104	-0.0100634135
74	0x3cfb1e7b	0.030654183
75	0x3d67efd1	0.05662519
76	0x3b193a84	0.0023380825
77	0x3ce85118	0.028358981
78	0xbbb39b54	-0.005481163
79	0xbf80c491	-1.0059987
80	0x3e22f706	0.15914544
81	0xbe23f94f	-0.16013072
82	0x3cb268e2	0.021778528
83	0xba286c0f	-0.00064247934
84	0x40a988f1	5.2979665
85	0x3e1ed20f	0.15509818
86	0xbb83b5b2	-0.0040194625
87	0x3de6d95f	0.11271929
88	0xbda81cf0	-0.082086444
89	0x3d695590	0.056966364
90	0xbbfae085	-0.0076561593
91	0xbf87fbf2	-1.0623763
92	0xbebcbe00	-0.36863708
93	0xc00975ec	-2.1478224
94	0xbc15a920	-0.009134561
95	0xbfc524ea	-1.540189
96	0xbf1b6425	-0.60699683
97	0xc0a2eaf5	-5.0911813
98	0x40d88339	6.7660184
99	0xbf0be9d2	-0.54653656
100	0x3c471fcb	0.012153576
101	0xbf162d7d	-0.5866316
102	0x3da0cf60	0.07852054
103	0xbd637974	-0.05553575
104	0x3dbc06ff	0.09181022
105	0xbb458908	-0.0030141491
106	0xbfe8acb9	-1.8177711
107	0x3f4afbff	0.79290766
108	0xbc8c81b2	-0.017151687
109	0x3d269ab6	0.040674888
110	0xbee0bd7a	-0.4389456
111	0xbb158c88	-0.002281936
112	0x3d0234b8	0.031788558
113	0x3f1fefa2	0.62475026
114	0x3f995e27	1.1981858
115	0xbecfb66f	-0.40568873
116	0x3f20c3c6	0.62798727
117	0xbe6c081b	-0.23049967
118	0x3e1474e6	0.14497718
119	0xb9f9c04d	-0.00047636256
120	0x3fe3fc04	1.7811284
121	0xbfd360b0	-1.6513882
122	0x3daaf0a7	0.08346682
123	0x3ef9ed63	0.48813924
124	0xbfa79815	-1.3093287
125	0xbecd76b4	-0.40129626
126	0xbc922870	-0.017841548
127	0xbf16c932	-0.5890075
