policys/model_valueH1.pth (torch, 71930 bytes, 5 tensors)

sequential.0.weight f4 [128, 4]
0	0xc08bd47a	-4.369687
1	0x3cb6490d	0.02225163
2	0xc08ac769	-4.336842
3	0x3f97bd10	1.1854572
4	0xc120593e	-10.021788
5	0xbdfeab1e	-0.12434982
6	0xc04501d4	-3.0782366
7	0x3d283031	0.041061584
8	0xc0f08c1a	-7.5171022
9	0x3d8a69c0	0.067584515
10	0x40c1b48c	6.0532894
11	0xbd63b6e6	-0.055594347
12	0xc0ab478b	-5.3524833
13	0xbdd50afa	-0.10402484
14	0x4014f831	2.3276484
15	0xbdb30143	-0.08740475
16	0x4122908e	10.160292
17	0xbda7bb9a	-0.08190079
18	0x3e58ec5d	0.21183915
19	0xba6f5d45	-0.00091310247
20	0xc088b20c	-4.271734
21	0xbe8c46c5	-0.27397743
22	0x403be353	2.9357498
23	0xbca6d4f0	-0.020365208
24	0x4069d875	3.6538365
25	0xbcb0a1b3	-0.02156148
26	0x400fe51d	2.248359
27	0x3dd21410	0.10257733
28	0x40c0225c	6.0041943
29	0x3e502c57	0.20329414
30	0xc0297e32	-2.6483274
31	0xbd1c65ed	-0.03818314
32	0xc007c2c2	-2.121262
33	0xbd6a9b2f	-0.0572769
34	0xc1b4dda1	-22.608217
35	0x3db02e11	0.086025365
36	0x40fb1026	7.8457212
37	0xbd4bbb74	-0.049739316
38	0x3fdf3eb5	1.7441012
39	0xbd3bcb26	-0.045848034
40	0xbfcb9a8a	-1.5906537
41	0xb9f1393a	-0.0004600974
42	0x3ed5f319	0.4178703
43	0x3c11a4f6	0.008889427
44	0x414b6a10	12.713394
45	0x3d79ab19	0.060954187
46	0xbe5aeb31	-0.21378781
47	0x3be526c0	0.0069931448
48	0xc0e375b5	-7.1081185
49	0x3cfc81a5	0.030823538
50	0x3f2c56fa	0.67320216
51	0x3d033d1e	0.032040708
52	0xc0564d59	-3.348471
53	0xbb1c30c3	-0.0023832775
54	0x3f128846	0.57239187
55	0xbdb293d1	-0.087196
56	0xc11c9ce4	-9.788303
57	0x3a1c2a0c	0.0005957193
58	0x4014bd30	2.324047
59	0xbe09d2fb	-0.13459389
60	0x41002bf8	8.010735
61	0xbe3fcacf	-0.18729709
62	0x407056b1	3.7552912
63	0xbc8052cd	-0.015664482
64	0xc1159869	-9.3497095
65	0xbd82c97e	-0.06386088
66	0x3fd092b7	1.6294774
67	0xbc6948ed	-0.014238578
68	0x40d7f739	6.7489285
69	0xbc3532f1	-0.011059509
70	0x4050afb1	3.2607234
71	0x3cc97940	0.02459395
72	0x412f2dda	10.948694
73	0xbc56742c	-0.013089221
74	0x40967d03	4.70276
75	0x3ce84d3a	0.028357137
76	0xc10e268f	-8.884414
77	0xbe06ebba	-0.1317586
78	0xc0c131ad	-6.037314
79	0x3cbd5e2d	0.023116196
80	0x40cd109b	6.408277
81	0x3acf1856	0.0015800099
82	0x4078d5cf	3.8880498
83	0xbb0d7475	-0.0021584306
84	0x40e3d8ed	7.12023
85	0xbdc8e633	-0.09809532
86	0x40278efe	2.6181026
87	0xbc8dce64	-0.017310329
88	0xbfbf8b58	-1.4964399
89	0xbdfdd8a5	-0.12394837
90	0xc09acacf	-4.837257
91	0xbc1bec18	-0.009516738
92	0x3e82f2a4	0.25575745
93	0x3d08e099	0.033417318
94	0xc04bcf24	-3.1845179
95	0x3f7cd810	0.98767185
96	0x414b6072	12.711046
97	0xbd6083ae	-0.05481308
98	0x402c810f	2.695377
99	0xbbe5bf7d	-0.0070113526
100	0x3ea4a780	0.32159042
101	0xbe17c796	-0.1482223
102	0x4108245b	8.508876
103	0x3c68016c	0.014160495
104	0xc1504777	-13.017447
105	0xbea4b53f	-0.3216953
106	0xc0a0a3bc	-5.019987
107	0xbe4ec2c2	-0.20191482
108	0xbf80b8e8	-1.0056429
109	0xbf205dab	-0.62642926
110	0x3d8b5aac	0.06804404
111	0x3d3c36e9	0.045950804
112	0x3f1db3b7	0.6160235
113	0xbcbaadc1	-0.02278793
114	0x40b9c088	5.8047523
115	0x3e39e805	0.18154915
116	0x41060814	8.376972
117	0xbd635614	-0.055502012
118	0x40686ad4	3.6315203
119	0x3d1d353f	0.038380858
120	0x40ab591d	5.354628
121	0xbdedabbc	-0.11605021
122	0xc0c9ff28	-6.312397
123	0xbc97e388	-0.018541113
124	0x41114358	9.078941
125	0xbe33bde2	-0.17552903
126	0x40c0c7bc	6.0243816
127	0xbc48a01d	-0.012245205
128	0x40e56dcb	7.1696525
129	0xbba95afc	-0.005168317
130	0x407c252e	3.9397693
131	0xbd7fe496	-0.062473856
132	0xc1571165	-13.441747
133	0xbe4b00f3	-0.19824581
134	0x3ffb1f68	1.961896
135	0x3c4f550b	0.012654553
136	0x41283a6f	10.514266
137	0xbbf881f7	-0.0075838524
138	0x402f7865	2.7417233
139	0xbc047766	-0.008085107
140	0xc14b44e2	-12.704317
141	0xbeb8e858	-0.36114764
142	0x40104313	2.254094
143	0xbd2c325e	-0.04204022
144	0xbf27c4b8	-0.65534544
145	0x3cd20870	0.025638789
146	0x3f962363	1.1729549
147	0xbdcec33b	-0.10095831
148	0xc06b44ba	-3.6760697
149	0xbf14e366	-0.5815948
150	0x40df3e98	6.976391
151	0x3cb63b10	0.02224496
152	0x413687d2	11.408159
153	0xbb430de6	-0.0029762923
154	0x3fcb3bc6	1.5877616
155	0xbccfd963	-0.025372213
156	0xc12c4634	-10.767139
157	0x3c6e7202	0.014553549
158	0x40ac0aad	5.376303
159	0xbbb92bec	-0.005650988
160	0xbe6d0849	-0.23147692
161	0x39c7a36d	0.00038078
162	0xbf878e66	-1.0590332
163	0x3d8a3cba	0.06749864
164	0xbe3ff60f	-0.18746208
165	0xb98ee8bc	-0.0002725775
166	0x3e175fee	0.14782688
167	0x3c4b3002	0.012401583
168	0xc0e6bdfb	-7.210691
169	0x3d82c6cf	0.06385576
170	0xbf422943	-0.7584421
171	0x3c4befe0	0.012447327
172	0xc12bb936	-10.7327175
173	0x3c22768e	0.009915961
174	0x4068a0a8	3.6348057
175	0xbba4d5fd	-0.005030392
176	0xbf82a4b7	-1.0206517
177	0x3d0fba70	0.03508991
178	0x4010a896	2.2602897
179	0x3e2bdf03	0.16784291
180	0xc1068b5a	-8.409021
181	0xbdd0606a	-0.101746395
182	0xc071e3d2	-3.77953
183	0x3a3e01b5	0.0007248179
184	0x41235adc	10.209682
185	0xbd4178e8	-0.047234446
186	0xbf89f2f3	-1.0777267
187	0x3bf00bfc	0.0073256474
188	0xbfd45f30	-1.6591549
189	0xbe9116a5	-0.2833759
190	0x41547e62	13.280855
191	0xbd3f5abc	-0.04671739
192	0xc1488853	-12.533282
193	0xbe8d0767	-0.2754471
194	0xbf0a6c02	-0.54071057
195	0x3c031419	0.008000397
196	0xc051ce87	-3.2782304
197	0x3ce2d7ac	0.027690731
198	0xc0a44554	-5.133463
199	0xbd879d36	-0.066217825
200	0xc054cb0b	-3.3248928
201	0xbe88e70b	-0.26738772
202	0x41187859	9.529382
203	0xbdc28225	-0.09497479
204	0xc10301d4	-8.187946
205	0xbe304db0	-0.17217135
206	0xc043b258	-3.0577602
207	0x3d3109ba	0.043222167
208	0x41298e7f	10.597289
209	0xbdc9cab1	-0.098531134
210	0x40de7bf4	6.952631
211	0x3bbed53b	0.005823759
212	0x403c5edc	2.9432898
213	0x3eb59be0	0.35470486
214	0xbf87d16b	-1.0610784
215	0x3d211bc6	0.039333127
216	0xc065a90d	-3.588443
217	0x3e3df061	0.18548729
218	0x3f98d8eb	1.1941198
219	0xbd2f1b45	-0.042750616
220	0x404abce5	3.1677792
221	0xbe81d7fc	-0.25360096
222	0x40367656	2.8509727
223	0x3d2c0b66	0.042003058
224	0x3f62bf31	0.88572985
225	0x3d7fb4d3	0.062428307
226	0xc1347d34	-11.280567
227	0x3dfe8da2	0.12429358
228	0x4080c416	4.0239363
229	0xbee2040c	-0.44143713
230	0x409c2f52	4.8807764
231	0x3c181425	0.009282147
232	0x3fc1d2d5	1.5142466
233	0x3beb647c	0.0071836095
234	0x40089b5c	2.1344824
235	0x3e2dae0f	0.1696093
236	0x3eae5671	0.34050325
237	0xbe9c29d3	-0.3050066
238	0x401353bd	2.301986
239	0xbbac69ac	-0.0052616205
240	0x41427e17	12.155784
241	0x3d501ee4	0.05081071
242	0x3fa52ac7	1.290368
243	0xbbaed7c2	-0.005335779
244	0x402e520b	2.7237575
245	0x3d87ca42	0.066303745
246	0xbfe2addd	-1.7709309
247	0x3fac3180	1.3452606
248	0x41515013	13.082049
249	0xbd0efc0e	-0.034908347
250	0x3d667313	0.056262087
251	0xbd254d9a	-0.04035721
252	0x40e489e6	7.1418333
253	0xbdb8a4fc	-0.09015843
254	0xbf43485b	-0.7628228
255	0x3da1dcb6	0.079034254

sequential.0.bias f4 [128]
0	0x4079f2cc	3.9054441
1	0xc08f9ca8	-4.487873
2	0x3e198d51	0.14995314
3	0x3f9dac54	1.2318215
4	0x40a6cd9e	5.2125998
5	0x40ccb889	6.3975263
6	0x410e565d	8.896085
7	0x3fedf909	1.8591624
8	0xbcb9620e	-0.022629764
9	0x40c4ad64	6.146166
10	0xc0b363fc	-5.605955
11	0xbf97474b	-1.1818632
12	0x40d8f280	6.779602
13	0x411cb26c	9.79356
14	0xbf05a4d3	-0.52204627
15	0x409ec328	4.961323
16	0x40d4b6cd	6.6473145
17	0x40e15ec1	7.0428166
18	0x40d3a2dc	6.6136303
19	0xc0fe6968	-7.950367
20	0xc0cb526c	-6.3538113
21	0x3ff78c65	1.933972
22	0x411af95e	9.685881
23	0xc0fff0c0	-7.9981384
24	0x3f8ddbbf	1.1082686
25	0x40519edd	3.2753212
26	0xbf4293ff	-0.76007074
27	0xbdf48d47	-0.11941009
28	0xc08aeea7	-4.3416324
29	0x4094f6d0	4.6551285
30	0xbfa4cd29	-1.287511
31	0x4062b8b0	3.5425224
32	0x40d807a6	6.7509336
33	0x40811f48	4.0350685
34	0x40ca14cc	6.3150387
35	0xbd4667ae	-0.04843872
36	0x41372db2	11.448656
37	0x3fe83ea0	1.8144112
38	0x400b4220	2.175911
39	0xbf96b3d8	-1.1773634
40	0xc0b23801	-5.5693364
41	0xbf9fc946	-1.2483299
42	0xc0b5aaf6	-5.6771193
43	0xbff5d6d7	-1.9206189
44	0x4136ee45	11.433171
45	0xc0d77958	-6.7335625
46	0x4090f710	4.530159
47	0x40a21fc2	5.0663767
48	0x3e35e809	0.17764296
49	0x410cc3fa	8.797846
50	0x40a10daf	5.0329204
51	0xc11b000a	-9.68751
52	0x3fe012c4	1.7505727
53	0x406fa611	3.744511
54	0x410bb162	8.730806
55	0xc0d6c79b	-6.711866
56	0x40033eca	2.0507073
57	0xbb6d5d85	-0.0036219072
58	0x412c9719	10.786889
59	0x4042d9cf	3.044544
60	0x3f4646f7	0.77452034
61	0xc0413bc4	-3.0192728
62	0x403cd598	2.9505367
63	0xc04520a8	-3.0801182
64	0x40f652bf	7.697601
65	0x40afd0cc	5.494238
66	0x404869a3	3.1314476
67	0x3fab360c	1.3375869
68	0xc13d74dc	-11.84103
69	0x403cfff8	2.953123
70	0xc00a84c4	-2.1643534
71	0x4092880e	4.579108
72	0x41013296	8.07485
73	0xbf03fc3e	-0.51556766
74	0x40e6daaa	7.2141924
75	0xc0b86597	-5.762401
76	0xc0815571	-4.04168
77	0x412654a2	10.395662
78	0x40226d3c	2.5379171
79	0x3fb9dc51	1.452036
80	0xc0304a77	-2.754545
81	0x40a25709	5.0731244
82	0x410d1eae	8.81999
83	0x40b58dd4	5.673563
84	0xc02406a0	-2.5629044
85	0x40818771	4.0477834
86	0x4010361c	2.2533026
87	0xc069203d	-3.6425927
88	0x407b7e37	3.9295785
89	0xc13023c0	-11.008728
90	0x41173fe8	9.453102
91	0xc11043a1	-9.016511
92	0x3f0ef591	0.55843455
93	0x40e6ba9d	7.21028
94	0x41059280	8.348267
95	0xbe57950c	-0.2105295
96	0x4054c58e	3.3245578
97	0x413d99dc	11.850063
98	0x4118cf49	9.550607
99	0xc002a3ca	-2.041247
100	0xc00c663c	-2.19374
101	0x405c9ece	3.4471927
102	0x40c747f0	6.2275314
103	0x405a925f	3.4151838
104	0x4100860a	8.032724
105	0xbe5e7993	-0.21726064
106	0x4032c5ea	2.7933297
107	0x400790c8	2.1182117
108	0xc02f8bba	-2.7429032
109	0x4145fa99	12.373681
110	0x40f4163f	7.6277156
111	0x41107f41	9.031068
112	0xc044371f	-3.0658643
113	0x403dad15	2.963689
114	0x410fac97	8.979636
115	0x40bd62bb	5.918302
116	0x40624a52	3.5357862
117	0xc0ab46fe	-5.352416
118	0x413bfeb1	11.7496805
119	0x4139d40f	11.614272
120	0x3fc7d66a	1.5612309
121	0x40decd11	6.9625325
122	0x40a427b8	5.1298485
123	0xc0d7f924	-6.7491627
124	0xc10fc866	-8.986425
125	0x3fdd5567	1.7291688
126	0xbfafc8bf	-1.3733138
127	0x3cdcd5cc	0.026957415

sequential.2.weight f4 [128, 128]
0	0xbeb836fd	-0.35979453
1	0xbe83c08f	-0.25732848
2	0xbda80ffc	-0.08206174
3	0x3d5ba7f0	0.053626955
4	0x3e153f57	0.14574943
5	0x3c425510	0.011861101
6	0xbe66a3f1	-0.22523476
7	0xbdfcb589	-0.123393126
8	0xbdc7ad14	-0.09749809
9	0xbed0e379	-0.40798548
10	0x3d48a2c7	0.04898336
11	0xbccf0599	-0.025271224
12	0xbe86b79e	-0.26311964
13	0xbe48b6bf	-0.19600962
14	0x3b8a8f43	0.004228504
15	0xbe75cddc	-0.2400431
16	0xbe8ddb79	-0.27706507
17	0x3e905ef4	0.28197443
18	0xbddf4ca1	-0.10903288
19	0xbdbfb4bf	-0.093606465
20	0xbe15ee95	-0.14641793
21	0xbe47118a	-0.19440284
22	0xb990fd3f	-0.00027654503
23	0xbd52d295	-0.051470358
24	0x3bf2dfe5	0.007411944
25	0xbe12e332	-0.1434448
26	0xbdda1b61	-0.10649753
27	0xbdb15c20	-0.086601496
28	0xbca43ae6	-0.020047616
29	0xbda4c7aa	-0.080458954
30	0xbe8261c2	-0.25465208
31	0xbda5cacd	-0.08095322
32	0x3dc4ab0f	0.09602939
33	0xbe545209	-0.20734419
34	0x3e0e47be	0.13894555
35	0xbcdf9dd3	-0.027296936
36	0xbeab8bf9	-0.33505228
37	0xbee22846	-0.4417135
38	0xbe0ddb99	-0.13853301
39	0xbda3a121	-0.07989717
40	0xbe0bc00c	-0.13647479
41	0xbe2a2d1f	-0.16618775
42	0x3d520851	0.051277462
43	0xbe2d43f9	-0.16920461
44	0xbe857700	-0.26067352
45	0xbe4793cb	-0.19489972
46	0xbe05cadc	-0.13065666
47	0x3e0d44a9	0.13795723
48	0xbe8efb6a	-0.2792619
49	0x3d6e8a9d	0.05823766
50	0xbe0c3802	-0.1369324
51	0x3d5ea7ef	0.054359373
52	0xbc9dabae	-0.019246902
53	0xbd746955	-0.059670765
54	0xbe606ea9	-0.21917213
55	0xbe55163f	-0.20809267
56	0x3d1ca15b	0.038239818
57	0x3bf51b2b	0.0074800453
58	0xbe012900	-0.12613297
59	0xbe0aca51	-0.1355374
60	0xbeb3b206	-0.3509676
61	0x3dc5cb19	0.096578784
62	0xbed97509	-0.42472103
63	0xbb6a52f7	-0.0035755017
64	0xbcedf21f	-0.029046116
65	0xbe18d4db	-0.14924948
66	0xbd98fbf8	-0.07469934
67	0xbee9ea19	-0.45686415
68	0xbdc4e6a4	-0.09614304
69	0xbf169aad	-0.58829767
70	0x3e0fad4b	0.1403095
71	0xbde473c2	-0.111548916
72	0xbf0149ba	-0.5050312
73	0xbef3632a	-0.47536594
74	0xbea8c265	-0.3296081
75	0x3b0d9da5	0.0021608856
76	0xbdd8648b	-0.10566052
77	0xbe978cc7	-0.29599592
78	0x3d191e27	0.03738227
79	0x3e1c1350	0.15241742
80	0xbd31ddad	-0.043424297
81	0x3de8fd20	0.11376405
82	0x3dbc21f1	0.09186161
83	0x3dc41a1b	0.09575292
84	0xbed8e3d4	-0.4236132
85	0xbd32310c	-0.043503806
86	0xbe887547	-0.26651976
87	0x3d6252c5	0.055254716
88	0x3dd5cd89	0.10439593
89	0x3d170d2c	0.036877796
90	0xbe7fb188	-0.24970067
91	0x3d91ad32	0.071131125
92	0xbe84d621	-0.25944617
93	0xbddc4999	-0.10756225
94	0xbf320d66	-0.69551694
95	0x3ded2b95	0.11580578
96	0xbeb60542	-0.35550886
97	0xbe848765	-0.25884548
98	0x3d84e966	0.0648983
99	0xbe479916	-0.19491991
100	0xbddd0898	-0.10792655
101	0xbe70b8a8	-0.23507941
102	0xbe07c9c2	-0.13260558
103	0xbe8527b2	-0.26006848
104	0x3ca9a7e3	0.020709937
105	0xbbbf0363	-0.005829261
106	0x3d872dd6	0.066005394
107	0xbdab48de	-0.08363508
108	0x3e11e6c0	0.1424818
109	0xbeb181bf	-0.346693
110	0xbe7973f9	-0.24360646
111	0xbf0ad3a0	-0.54229164
112	0xbea95928	-0.33075833
113	0xbe4fef0c	-0.20306033
114	0x3c79edb2	0.015254425
115	0xbe36fc0b	-0.17869584
116	0x3d4e1313	0.05031116
117	0xbeb551a8	-0.3541386
118	0xbe84f355	-0.25966898
119	0xbe27090d	-0.16312046
120	0xbe209886	-0.15683183
121	0xbdac91c4	-0.0842624
122	0xbc78aedf	-0.015178411
123	0xbe0e5d55	-0.13902791
124	0x3c7e0309	0.015503653
125	0x3d07fefc	0.033202156
126	0xbc2804d3	-0.010255056
127	0xbf2367e8	-0.63830423
128	0x3fc61a06	1.5476692
129	0xbfa4c30b	-1.2872022
130	0xbf044702	-0.5167085
131	0x4009da8b	2.1539638
132	0x3e94a110	0.2902913
133	0x3f1f79db	0.6229531
134	0xbe22c0e9	-0.15893902
135	0xbff0b0ee	-1.8803995
136	0xbeffa0c4	-0.49927342
137	0xbf97736e	-1.1832101
138	0xbeb2a5a3	-0.34891996
139	0xbf92008b	-1.1406416
140	0x3dd9979b	0.106246196
141	0x3fce2c2e	1.6107233
142	0xbfc988a4	-1.5744824
143	0xbfb221db	-1.3916582
144	0x3f5afd8f	0.8554315
145	0xc00a79bf	-2.1636808
146	0xc0917139	-4.545071
147	0xbf8e9808	-1.1140146
148	0xc0b63a00	-5.69458
149	0xc093a9df	-4.614486
150	0x3f6eea03	0.93325824
151	0x3e886831	0.26641992
152	0xc007039b	-2.109595
153	0xbd5e7892	-0.054314204
154	0x3e831993	0.2560545
155	0xbf29e7d9	-0.66369396
156	0x3e3afb4f	0.18259929
157	0xc059699e	-3.3970714
158	0xc028b566	-2.6360717
159	0xc018e30f	-2.3888586
160	0xbfd7ce9f	-1.6859931
161	0x3f326869	0.6969057
162	0xc037c705	-2.8715222
163	0x3eea1bfc	0.45724475
164	0x400fb447	2.2453783
165	0xbef14a91	-0.47127202
166	0xc097ab07	-4.7396274
167	0x3f75d417	0.9602675
168	0x3f3bcc42	0.7335855
169	0xbe312fa1	-0.17303325
170	0xbf81a4d6	-1.0128429
171	0x3f4cc16b	0.7998263
172	0x3fe24309	1.7676708
173	0xbdbe6e99	-0.092984386
174	0xc03bc68d	-2.9339936
175	0xbfd46907	-1.6594552
176	0x3f3e344e	0.7429856
177	0x405d9a45	3.4625409
178	0xbfcb8be5	-1.5902067
179	0xc0178e2f	-2.3680532
180	0xbf1c3e05	-0.61032134
181	0xbfa2b8ec	-1.2712684
182	0x3f3e75e3	0.7439863
183	0xbd970bb9	-0.07375283
184	0x3ecb8f20	0.39757633
185	0xbf84c7e3	-1.03735
186	0x3f9dc4d2	1.232569
187	0x3ea44def	0.3209071
188	0xc0974202	-4.7268076
189	0xbfd6f50b	-1.6793531
190	0xc0799587	-3.8997514
191	0xbf766e08	-0.96261644
192	0x3f9fe515	1.2491785
193	0x3ed0ba97	0.40767357
194	0xc073204e	-3.7988467
195	0xc000f736	-2.0150886
196	0xbff3c312	-1.9043906
197	0xbe107817	-0.1410831
198	0xbfc7b2e1	-1.5601465
199	0x3e13776b	0.14401023
200	0x3f9dcf7c	1.2328944
201	0xc0e62381	-7.191834
202	0x4016a316	2.353704
203	0xbeec195f	-0.46113107
204	0xbfaa6b3b	-1.3313974
205	0x3fead758	1.8346968
206	0xbe61217f	-0.21985434
207	0x3f4a434b	0.7900893
208	0xbf9bfcaa	-1.2186482
209	0xc07885a3	-3.8831565
210	0x3e44a036	0.1920174
211	0xc085362d	-4.1628633
212	0xbfc5d57c	-1.5455775
213	0xbfa279c3	-1.2693409
214	0x3e560458	0.20900095
215	0x3fad1db4	1.352469
216	0xc013961b	-2.3060367
217	0xbf381bb1	-0.71917254
218	0x401e431e	2.4728465
219	0xc05a50a8	-3.4111729
220	0xbec4abbe	-0.3841228
221	0xc0117f05	-2.2733777
222	0x3f9ba22d	1.2158867
223	0xbe0cb1b8	-0.1373967
224	0x4015c6be	2.3402553
225	0x3f0226a2	0.508402
226	0x3f00c68a	0.50302947
227	0xbdfe026d	-0.124028064
228	0xbf8a9545	-1.0826803
229	0x3f26087e	0.6485671
230	0xc0818701	-4.04773
231	0xbc83cf38	-0.01609002
232	0x3f2903e4	0.6602156
233	0x3e01f499	0.12690963
234	0xbf56df2e	-0.83934295
235	0xbf04a67e	-0.51816547
236	0x3e61ace1	0.22038604
237	0xbf9122ba	-1.1338723
238	0x3fb3d037	1.4047917
239	0x3fd7323a	1.6812203
240	0xbfb448f2	-1.4084761
241	0xc01adc2e	-2.4196887
242	0x3f910ba4	1.1331677
243	0xbe2cb5c9	-0.1686622
244	0xc021c6ac	-2.527751
245	0xbeac0491	-0.33597234
246	0x40143317	2.3156183
247	0x3f8feec2	1.1244738
248	0xbe97a486	-0.2961771
249	0x3ef5fb03	0.4804307
250	0xbe875598	-0.2643249
251	0x3b6c5555	0.0036061604
252	0x3e551cf4	0.20811826
253	0xc02563a5	-2.5842068
254	0x3f924862	1.142834
255	0xbdd84a82	-0.10561086

sequential.2.bias f4 [128]
0	0xbd860372	-0.06543626
1	0x403f4fef	2.9892538
2	0x40385113	2.8799484
3	0x4080f1d1	4.0295186
4	0xbda96398	-0.08270949
5	0xbdc8590d	-0.0978261
6	0x407af6a7	3.9213045
7	0x3f70168a	0.9378439
8	0x4064130d	3.5636628
9	0xbd0ec8ab	-0.03485934
10	0x3f8c3595	1.0953852
11	0x408d0b43	4.4076247
12	0x3ea3eda5	0.32017246
13	0x4027234b	2.611529
14	0x407429e1	3.815056
15	0x409b591b	4.854627
16	0xbdf82efe	-0.12118338
17	0x3fdb2509	1.7120677
18	0xbe92173b	-0.28533348
19	0xbdc19b86	-0.09453492
20	0x4004e206	2.0762954
21	0x3ffbee34	1.9682069
22	0xc094a02b	-4.6445518
23	0xbd346115	-0.044037897
24	0xbd3dae42	-0.046308763
25	0x3e3d0219	0.18457831
26	0x40a2201e	5.0664206
27	0x4053efb6	3.3115058
28	0x40064b4a	2.0983453
29	0x40894025	4.28908
30	0x3fdec244	1.7403035
31	0x4002d155	2.0440266
32	0x3fbdf929	1.4841663
33	0x40707281	3.7569888
34	0x40974657	4.7273364
35	0xbda00f65	-0.07815436
36	0x3ffe2d9f	1.9857672
37	0x40bcc729	5.8993115
38	0xc05a00a8	-3.40629
39	0x3e101aa5	0.14072664
40	0x3eb33931	0.3500457
41	0x3e768086	0.24072465
42	0x4080542e	4.010276
43	0x3df1ad85	0.11800674
44	0xbd93696d	-0.07197843
45	0x3fd056a0	1.6276436
46	0x40634869	3.5512946
47	0x40895200	4.29126
48	0x3fc69632	1.5514586
49	0x3f352562	0.70760167
50	0xbd0db0df	-0.034592506
51	0x40698d28	3.6492405
52	0xbd6b5b82	-0.057460316
53	0x4086c0bc	4.211027
54	0x406f3ed8	3.7382107
55	0x4075098a	3.8287072
56	0xbee3d374	-0.44497263
57	0x402248e1	2.5356982
58	0xbd4264f4	-0.047459558
59	0x40347afc	2.8200064
60	0xbf53ab83	-0.8268358
61	0x4002b67b	2.0423877
62	0xbd801bfa	-0.06255336
63	0x4090953b	4.5182166
64	0xbd0fb293	-0.03508241
65	0xbdaf2f00	-0.085538864
66	0xbcc6a021	-0.024246277
67	0x40704374	3.754117
68	0x4023ae13	2.5574996
69	0xbdb1b83c	-0.08677718
70	0x3ff74969	1.9319278
71	0x3d9a1726	0.075239465
72	0x3fe1a7b4	1.7629304
73	0x3dccc414	0.099983364
74	0xbfab2d08	-1.3373117
75	0x3f8ad6b3	1.0846771
76	0x3ef37317	0.47548744
77	0xbdf3f228	-0.11911422
78	0xbf93a06b	-1.1533331
79	0x408a5f9b	4.3241706
80	0xbde4de38	-0.11175197
81	0xbc58550d	-0.013203871
82	0x4033b1ea	2.807734
83	0x407c1428	3.9387302
84	0x3c851acf	0.016248135
85	0x3d19194d	0.037377644
86	0xbf1b7ba0	-0.6073551
87	0x4060747c	3.5071096
88	0x401e18b0	2.4702568
89	0x3b6c811a	0.0036087693
90	0x3e67c838	0.22634971
91	0x3fecfca7	1.8514603
92	0x401b60ec	2.4277906
93	0x4088fd92	4.2809534
94	0x3d9c5c86	0.07634835
95	0x4084a21b	4.1447883
96	0x404977b1	3.1479304
97	0xbd2d13de	-0.042255275
98	0x3deb6504	0.114938766
99	0x403c2b0e	2.9401278
100	0xbd0ea7d2	-0.034828015
101	0x4090317d	4.506041
102	0xbda51048	-0.08059746
103	0x406a5ce0	3.6619186
104	0x401b1091	2.4228861
105	0xbe04a32a	-0.12952867
106	0x3ff59fa8	1.9189348
107	0x40361846	2.8452315
108	0x400a9a4a	2.165667
109	0x3f3a0a23	0.7267172
110	0x4020a4ff	2.5100706
111	0x40db0f82	6.845643
112	0x3d8320ae	0.064027175
113	0x4019528d	2.3956635
114	0xbea12172	-0.3147083
115	0x4073382b	3.8003032
116	0xbe7ab3f1	-0.24482705
117	0x3f692380	0.91069794
118	0xbd27a132	-0.040925212
119	0x3e760dba	0.24028674
120	0x3d9b59f7	0.07585519
121	0x3ce8c0e1	0.028412284
122	0xbd7877e7	-0.060661223
123	0x3e195a3a	0.14975825
124	0xbcecea1c	-0.028920226
125	0x403d4473	2.9573028
126	0xbd9c6435	-0.076363005
127	0x40a271f0	5.0764084

sequential.4.weight f4 [1, 128]
0	0x3e5f3610	0.21797967
1	0xbfda0005	-1.7031256
2	0xbfb50fe9	-1.414548
3	0x40218900	2.5239868
4	0x3e4daa33	0.20084457
5	0xbe14a8ce	-0.14517519
6	0xbe4ac30d	-0.19800968
7	0x3eb7ec59	0.35922506
8	0xbe759371	-0.23982026
9	0x3e1a8071	0.15088059
10	0x3fa483dc	1.285274
11	0xbd277922	-0.040887006
12	0x3ed053ed	0.4068903
13	0xbfcf1c92	-1.6180594
14	0xc01c9a11	-2.4469035
15	0xbed5047f	-0.41604993
16	0xbd2b39be	-0.041803114
17	0x401f3e5b	2.4881809
18	0x3f473d6d	0.77828103
19	0x3ec625ec	0.38700807
20	0xbf205400	-0.62628174
21	0xc07ad2dd	-3.91912
22	0x4097adb8	4.739956
23	0xbd6d7ac1	-0.057978395
24	0x3d4755ca	0.0486658
25	0x3e36ca00	0.17850494
26	0xbf90fa3d	-1.1326367
27	0x3fef5675	1.869826
28	0xbf297d79	-0.6620708
29	0xbe848709	-0.25884274
30	0xc00bd888	-2.185091
31	0x3fb2d98f	1.3972644
32	0x3b127dc3	0.0022352792
33	0xbb8aad60	-0.0042320937
34	0xbea67d5d	-0.3251752
35	0xbce5b7eb	-0.0280418
36	0xbed14cea	-0.40878993
37	0xc003e074	-2.0605745
38	0x4022088c	2.5317717
39	0x3e0980d6	0.13428053
40	0xbf8aece4	-1.0853543
41	0x3e26ee7d	0.16301914
42	0x3c60584e	0.0136929285
43	0x3fb2f1fe	1.39801
44	0xbe08912b	-0.13336627
45	0xbdb679c9	-0.089099474
46	0x3f5ebe6f	0.8700933
47	0x3f2d9d0b	0.67817754
48	0x3eea59f5	0.45771757
49	0x3f147f15	0.5800641
50	0x3d75ff07	0.060057666
51	0xc07d3eed	-3.9569657
52	0xbd0e8447	-0.03479412
53	0xbfeac935	-1.8342654
54	0xbfdf1ce9	-1.7430698
55	0xbec1f65a	-0.37883264
56	0x3f385d4b	0.72017354
57	0x3f90d9ce	1.1316469
58	0x3b84e849	0.004056011
59	0xbf221b72	-0.6332313
60	0xbf4c63d2	-0.79839814
61	0xbf1743e2	-0.59087956
62	0x3d081a9d	0.033228505
63	0xbe284af7	-0.16434847
64	0xbe246c8c	-0.16057032
65	0x3df4a26c	0.11945042
66	0xbd14c862	-0.036323912
67	0x3ff7d23d	1.9361035
68	0xbf26aa72	-0.6510383
69	0xbd24d8df	-0.040245887
70	0xbf4010d9	-0.7502571
71	0x3f208bad	0.6271313
72	0x3de782c7	0.11304241
73	0x3e102c91	0.140795
74	0x3e9013bb	0.28140053
75	0x40374d1f	2.864082
76	0xbbd55d92	-0.0065113986
77	0x3e04294f	0.12906383
78	0xbf4b6782	-0.79454815
79	0xbfea03b2	-1.8282378
80	0x3e02a15e	0.12756869
81	0xbe24d312	-0.16096142
82	0xbeca6305	-0.3952867
83	0xbfca2234	-1.5791688
84	0x4023f2ba	2.5616899
85	0x3f85c9c6	1.0452201
86	0x40270601	2.6097414
87	0x4057dbd0	3.3727913
88	0xbf8e8c26	-1.113652
89	0x4002f01f	2.0459058
90	0x40045663	2.0677726
91	0xbffcb247	-1.9741906
92	0xbf94659a	-1.1593506
93	0xbf69dcbd	-0.91352445
94	0x3e65b794	0.22433311
95	0xbea8dbea	-0.3298028
96	0xbead981f	-0.33905122
97	0xbc92288b	-0.017841598
98	0x3fbd63ee	1.4796121
99	0xbf0d82d5	-0.5527776
100	0x3d44e488	0.048069507
101	0xbe38fe74	-0.18065816
102	0x3d99de80	0.07513142
103	0x40a12164	5.035326
104	0x3f7c2ffc	0.9851072
105	0x3d84227c	0.0645189
106	0xbf3f5c89	-0.7475057
107	0x401e5dfe	2.4744868
108	0x3fb00b7c	1.3753505
109	0x40143fac	2.3163862
110	0xc05ef2eb	-3.4835765
111	0xbfe74a8b	-1.8069624
112	0xbce31e7f	-0.027724503
113	0x3fadfc9e	1.3592718
114	0x3f8bea5f	1.0930899
115	0x40786fbe	3.8818202
116	0x3df0b0d2	0.11752476
117	0xbfb9a51c	-1.4503512
118	0x3e310856	0.17288336
119	0x3e27c1de	0.16382548
120	0x3c5612dd	0.013066021
121	0x3eb7598f	0.35810515
122	0x3dbd7562	0.092509046
123	0x3cc5b6af	0.024134962
124	0x3b27373b	0.0025515098
125	0x3d7f2755	0.06229337
126	0xbc4aaeb5	-0.012370755
127	0xbf0d0846	-0.5509075
